models/ddpg_ant_250.pt (torch, 669566 bytes, 10 tensors)

fc1.weight f4 [400, 105]
000000 7a 1b 01 3d d4 de 77 3d ac a8 89 bc 7e 4b 04 bd
       0.031520344 0.06051524 -0.016804062 -0.032298557
000010 f8 0e e2 bd 6f 0c 30 3c a7 25 99 3d cb 2f 65 3c
       -0.11038011 0.010745152 0.07477885 0.0139884455
000020 3a 00 4f 3d 5b de 2c bd 25 5a 09 be 26 b0 b7 3d
       0.050537325 -0.042204242 -0.13413294 0.089691445
000030 74 03 ec 3d 2a 7e ab bb 9d d7 c8 3c 8e 2f b7 bd
       0.11524096 -0.005233546 0.024516875 -0.08944617
000040 b0 3a 34 3d 86 6c 87 bc 29 44 11 3d 11 d5 6b 3c
       0.04400128 -0.01653124 0.035465393 0.014394061
000050 c7 a2 95 bb d6 a7 c0 3b 28 7e e3 bb 63 bf b3 bb
       -0.0045665237 0.0058793826 -0.006942529 -0.0054854616
000060 e1 c1 29 ba 9e 7d c5 bb 0d c6 ef 3b 0c a4 1f bc
       -0.00064757286 -0.0060269376 0.0073173107 -0.009743702
000070 4a 08 ab bc 71 dd 42 3b eb e7 4e 3d 1a 47 46 3b
       -0.020877976 0.002973404 0.050514143 0.0030254782
000080 4f ac ed 3c f6 3a 5e bc e1 4d 21 3d e4 30 30 3d
       0.029012827 -0.013563862 0.03938091 0.043015376
000090 67 4b ca 3c b8 bb ce bb f4 c4 99 3b dd d5 32 3d
       0.024694158 -0.006308999 0.004692668 0.043660987
0000a0 eb b3 43 bc 88 7d 9e bd d6 2b cf 3d fc e4 0b 3d
       -0.011944751 -0.07738787 0.10115783 0.034153923
0000b0 9d e3 82 ba 96 4f 77 3d dc be a1 bd c8 01 b2 bc
       -0.0009986047 0.060378633 -0.07897732 -0.021729365
0000c0 2d 01 6d 3d 54 ef bd bc e4 da e8 bc b2 00 ac 3c
       0.05786245 -0.02318541 -0.028424688 0.020996425
0000d0 82 22 16 bd d7 eb d9 3c b6 48 95 bc 0c 85 ec 3c
       -0.036654003 0.026601715 -0.018223148 0.028872035
0000e0 ad ba 6c 3b 23 eb df bc 48 32 ff 3c 2c 2f b1 bd
       0.003612201 -0.027333802 0.031151906 -0.086515754
0000f0 ca c5 30 3d 0d e1 96 3d d4 fa a2 3d c2 0c 93 3d
       0.043157376 0.07367144 0.07957998 0.07180168
000100 e3 29 e7 3c 90 35 fb 3c fa 6f 00 3d ac 3d 1b 3e
       0.028218215 0.030665189 0.03135679 0.15160245
000110 66 f6 d2 bd ec 3e 67 3b 0c 59 08 3d d4 6c 07 bd
       -0.10300903 0.0035285307 0.033288047 -0.03306277
000120 0e f5 15 bd ec 36 f0 3c bf 3f bb 3c be 59 3e bc
       -0.036610655 0.029323064 0.022857545 -0.011618076
000130 fe 91 16 3c 32 cc 04 be ec 14 f0 bd dc 19 84 bd
       0.009190081 -0.1296852 -0.117227405 -0.06450245
000140 57 14 5d 3c ea 50 95 3c f2 a2 b2 3d 3f 5b 95 bd
       0.013493619 0.01822706 0.087224856 -0.072927944
000150 be f7 9f bc 59 63 d6 3d 01 1b b5 ba c4 45 be 3c
       -0.019527312 0.10468168 -0.0013817252 0.023226626
000160 21 de 23 bd 79 1e 03 3d 3e 7d 23 bc ea 5f 27 bd
       -0.04000676 0.032011483 -0.0099785905 -0.040862955
000170 fb 1b d8 3c 44 95 6f 3a 20 d2 97 3b 52 8b 5d 3d
       0.02638053 0.0009139369 0.004633203 0.054087944
000180 b4 e6 ad 3d 94 1a 1e 3c 7d 6b 5f ba 46 ba 15 be
       0.08491269 0.009649891 -0.0008522792 -0.14621839
000190 ec 2b f2 3c 1e 20 3d bd a6 6c 87 3d 08 f8 0f be
       0.02956196 -0.046173207 0.0661252 -0.1405946
0001a0 2c a2 55 bc 6e 2b 1e 3e fe 0b 36 3c c0 f4 a3 3e
       -0.013039153 0.15446255 0.011111258 0.32022667
0001b0 95 32 b7 3d e0 8c 11 bd 11 b6 ad 3c 93 5a d0 3b
       0.08945195 -0.03553474 0.02120498 0.0063584535
0001c0 e9 6c 03 3d 06 87 48 bd 78 2a 81 3c ef ad cd bb
       0.032086287 -0.048956893 0.015767321 -0.006276838
0001d0 bb c9 5c 3d 6a 23 a3 bd 5a 8a 78 bd e1 d1 b6 bc
       0.053903323 -0.07965739 -0.060678817 -0.022316875
0001e0 a4 0a e4 3c 71 67 3b 3d 94 78 00 bd 98 e9 58 3d
       0.027837105 0.045752946 -0.031364992 0.052957147
0001f0 a3 fe 05 bc 9e 5e 2e bd 5d 12 a4 3c f2 f3 97 3c
       -0.008178386 -0.042570703 0.020028288 0.01854894
000200 8f 9f 38 bd a3 4e e3 3b f5 05 55 3b c7 07 0b 3c
       -0.045074042 0.0069368645 0.0032504771 0.008485741
000210 32 27 95 3c b7 d0 89 bd a0 30 f7 bd e5 9d 0e bd
       0.018207166 -0.06729262 -0.12069821 -0.03481855
000220 b4 4a 5c ba 25 f2 06 3e 33 f0 18 3d 39 3c 08 bd
       -0.00084034656 0.13178308 0.037338447 -0.033260558
000230 c8 65 a9 bc 8d 49 5c bc 21 ff eb 3c 31 12 ba 3c
       -0.020678416 -0.01344527 0.028808178 0.022713752
000240 a8 c6 ca 3c 58 3d 35 bd 76 5d 38 bc 5a 80 84 bd
       0.02475293 -0.044247955 -0.011252752 -0.064697936
000250 c6 19 18 bc 61 c1 14 bd 05 1b 37 bd c9 5c 0c 3e
       -0.009283489 -0.036317233 -0.044703502 0.1370727
000260 e0 14 c7 bd 25 30 1d bd 03 65 9a bc 14 28 ef 3b
       -0.097207785 -0.038375992 -0.018846994 0.007298479
000270 6a 67 e3 bb a1 15 c5 3c e3 58 f0 bc 20 cf 01 bd
       -0.006939818 0.024058165 -0.02933926 -0.03169167
000280 1b da e0 bc ff db 34 3c 53 a1 36 be 43 8f 28 3c
       -0.02744775 0.011038779 -0.17834978 0.0102880625
000290 72 5f c6 3d 92 d2 78 bd d6 ad cc bc a2 4b 30 3d
       0.096861735 -0.06074769 -0.024985235 0.04304088
0002a0 e6 a3 33 bc 1c 1b 21 3c 7d 3e 2b 3d 47 b3 57 3d
       -0.010964369 0.009833124 0.04180764 0.052661207
0002b0 0c d2 91 bc 6c 83 b9 bc b6 1c 1c bd fd c0 9e 3c
       -0.017800353 -0.022645675 -0.03811332 0.019379133
0002c0 d9 fd 3a bb e7 0f 9c bb 46 66 2a bc c1 34 a1 bc
       -0.0028532653 -0.004762638 -0.01040036 -0.019678475
0002d0 96 95 54 bd cc 7a 66 bd 53 15 40 3c 3d df 8f bd
       -0.05190047 -0.056269452 0.011723834 -0.07025001
0002e0 c7 3a 1d 3d 5d 34 e5 3b 77 f8 71 bd 23 0d 73 bc
       0.038386133 0.0069947676 -0.059074845 -0.014834675
0002f0 88 2e 60 bc f6 a5 73 3d ac 0d 6d bc c3 26 10 3c
       -0.013682969 0.059484445 -0.014468592 0.008798304
000300 7e 6e 98 bc ef d5 b1 bc 49 c5 00 3c e6 01 36 3d
       -0.018607374 -0.021708457 0.007859536 0.044435404
000310 66 6c c7 bc ee 9c 4a 3b 22 f8 ea bc d1 1d 4e 3d
       -0.02434368 0.0030916291 -0.028682772 0.050321404
000320 c2 40 29 3d 73 07 02 bd 04 f3 5a bc 7d a7 01 3c
       0.041321523 -0.031745385 -0.0133636035 0.0079134675
000330 cd 5a 03 bd 4c 59 7b bd fe 28 66 bd cd 78 68 bd
       -0.032069016 -0.061364457 -0.056191437 -0.05675583
000340 d0 1a 92 bb 48 f2 2b 3d 63 35 81 bd 86 90 b8 bc
       -0.0044587627 0.041979104 -0.06309011 -0.022529852
000350 61 97 0e be 72 b4 aa bc dc 46 a3 bc 3c 1f 52 3d
       -0.13924934 -0.020837996 -0.01993125 0.05129932
000360 8c c0 2d 3d 6c e0 1a bd b1 4d 47 bd 62 02 98 bd
       0.042419955 -0.03781168 -0.048658077 -0.074223295
000370 5d c7 99 bd b6 52 b4 bd 9d 58 65 3d fe ab 90 bd
       -0.07508729 -0.08804838 0.05599271 -0.07064055
000380 f0 1a 7f 3d f6 14 08 3c e3 64 2e bd 47 2b 6a bb
       0.06228155 0.008305779 -0.04257668 -0.0035731362
000390 cd 2a 37 bc aa 0e 6c 3b b0 d3 a3 bc 58 ee 02 3c
       -0.011179638 0.0036019483 -0.019998401 0.007991396
0003a0 07 6b fa bb 15 10 55 ba 5c 5b d3 bc 17 76 1d bb
       -0.007642153 -0.00081277016 -0.0258004 -0.0024026686
0003b0 39 48 95 3c 36 7c cc bd 73 ea ac bc 41 77 f2 bc
       0.018222915 -0.09984629 -0.021107888 -0.02959788
0003c0 75 3f 3b 3d 85 04 5d bb 88 a6 ce 3c 09 65 04 3d
       0.045714814 -0.0033724618 0.025225893 0.032322917
0003d0 7d 71 eb bc 39 89 27 3d 26 0d 93 bc 08 6c 21 bd
       -0.028740639 0.04090235 -0.017950606 -0.039409667
0003e0 03 a0 0e bd b1 bf 9f 3c 5f cb 19 3e cd fb 8d bd
       -0.034820568 0.019500585 0.15018986 -0.06932793
0003f0 25 ed ef 3d cc 9d ad 3d e3 19 5b 3d ec ba f9 bc
       0.117151536 0.08477363 0.053491484 -0.03048464

fc1.bias f4 [400]
000000 fb b2 51 3d 23 a0 03 bb bf a1 01 3d ee c2 2d 3d
       0.05119608 -0.0020084463 0.031648394 0.042422228
000010 80 ef 37 3d 2c 17 2e 3d 11 d5 d7 3d dd 8f d2 3b
       0.04490614 0.042502567 0.10538686 0.0064258412
000020 e9 f2 1c bd e5 b0 03 bc 22 c5 f4 bc 5d da e4 bb
       -0.038317595 -0.00803778 -0.029879157 -0.0069840387
000030 17 dd ad bd 75 9b cf bc 66 58 d7 3d da 2d 60 3c
       -0.08489435 -0.025342682 0.105149075 0.013682807
000040 d9 59 f9 3c d2 a3 d6 bb e0 c9 31 bd 47 2a 8a bd
       0.03043835 -0.0065502906 -0.043405414 -0.06746345
000050 71 b7 7c 3d da 40 b4 bd 27 4f a4 3b f8 6e 22 bd
       0.06169838 -0.08801432 0.0050143185 -0.03965661
000060 a3 e5 bc 3c 1b bd 76 3c 7b f7 29 bd a4 4a d1 3d
       0.023058718 0.015059735 -0.04149578 0.10219315
000070 62 35 1e bd 83 b5 a1 3d 2d 31 ea bc b2 74 a0 3d
       -0.03862513 0.07895949 -0.028587902 0.07834758
000080 12 9a 74 bd 86 04 c2 bc 6d e0 01 bd b4 d4 63 3c
       -0.059717245 -0.023683798 -0.03170817 0.013905693
000090 e9 e5 f4 bd a4 1b 81 bc 96 27 b2 bb 1b d4 0b bc
       -0.119579144 -0.01576025 -0.005436848 -0.008534457
0000a0 73 05 1a 3d ac c7 18 3d f5 80 47 3d 0b ed 86 3d
       0.037602853 0.037299797 0.048706967 0.06588181
0000b0 49 85 92 3c 5a 10 33 bd a6 45 83 3c ed f7 e0 3b
       0.017885821 -0.043716766 0.016024422 0.0068654926
0000c0 15 69 8c 3c 0e 38 8c 3d e1 07 45 3d 21 cc 6c 3d
       0.01713995 0.06846629 0.048103217 0.05781186
0000d0 5d 89 a5 bc b6 f6 5f bb fa 1b 0c bd 30 0c b3 3d
       -0.020207101 -0.003417415 -0.034206368 0.08742559
0000e0 29 2f 9f 3c 19 16 ea 3b b6 bf 8c 3d 51 bd b6 3c
       0.019431667 0.0071437475 0.068725035 0.02230707
0000f0 20 23 1a bb d3 bf 78 3d 56 d4 95 3c 12 e1 55 3c
       -0.0023519471 0.060729813 0.018289726 0.013054149
000100 d9 af b2 bc 65 03 50 3d 5f 83 b6 3d b4 dc 18 3d
       -0.021812366 0.050784487 0.08911776 0.037319854
000110 53 f6 79 3d 19 fb b3 bd 37 1a d0 3d 5c f4 a8 3d
       0.06102593 -0.087881275 0.1016125 0.08249733
000120 33 4d b4 bb 59 3a 63 bc cf 2d 4a 3d 2e 56 4e 3c
       -0.005502367 -0.013868892 0.049360093 0.012593789
000130 56 b9 23 3d 86 64 8b 3d a4 f6 38 3d 9d f9 54 bd
       0.039971672 0.06806283 0.04515709 -0.051995862
000140 7c 2d 25 3d ae 3d bf bd 0c 33 1b bd 94 91 3d ba
       0.04032658 -0.09337936 -0.03789048 -0.00072314707
000150 f8 be 98 3d b1 f5 1e 3d b4 fa 2e 3d 76 8f 37 bc
       0.074582994 0.03880853 0.042719558 -0.011203637
000160 12 f1 20 ba f7 85 7a bc 59 58 b8 3d d5 26 25 3d
       -0.0006139438 -0.015290729 0.09001226 0.040320236
000170 21 d2 50 3d a5 88 8f 3c e5 b5 e0 3c 46 fd 4c 3d
       0.050981645 0.017521212 0.027430484 0.050046228
000180 e3 48 44 bc c3 30 51 3d f8 8e 3f bd a6 c9 ff 3d
       -0.011980268 0.051071893 -0.046767205 0.12489633
000190 8f e6 e7 3c 55 97 8c 3d e3 cc 53 3d 16 2d f1 3c
       0.028308181 0.06864802 0.051709067 0.029440444
0001a0 a6 23 07 3d a8 cb ce b8 2e f9 af 3a 83 6a 80 bd
       0.03299298 -9.8607794e-05 0.0013425702 -0.062703155
0001b0 fe d3 9d bd bf 64 0d 3c 92 be 7a 3c 91 6f 12 bc
       -0.0770645 0.008629977 0.015304225 -0.008937732
0001c0 21 c4 c3 3c c3 66 37 3d 78 bf af bc 6a 8c 90 3d
       0.023897232 0.044775736 -0.021453604 0.07058032
0001d0 17 72 2e 3c 26 15 b8 3d 90 7d 8e bc 4f b1 37 bd
       0.010647318 0.08988409 -0.017393857 -0.04484683
0001e0 0c d9 ac bc 68 84 99 3d 99 bf a5 3c 65 29 66 3a
       -0.02109959 0.074959576 0.020232962 0.0008779972
0001f0 a8 a0 95 3c 7e 13 c0 3d 9c 71 b7 3c 48 9c 5e 3d
       0.018265083 0.09378718 0.02239304 0.05434826
000200 9f 5c c5 3c b3 ae 13 3d 03 ac 6b bb 84 c8 e7 bc
       0.024092017 0.036055278 -0.0035960681 -0.028293855
000210 d7 8a b2 3d c0 ae 03 3d b4 0e 82 39 af 88 7c 3d
       0.08717888 0.032149076 0.00024806487 0.06165379
000220 1a 71 11 3d c5 63 4c bd fc 5b 8e 3d 6f 28 f2 3c
       0.035508253 -0.049899835 0.069511384 0.029560296
000230 fa f7 7e 3d 91 96 13 bc 1e c4 91 bc 2b ab 22 bd
       0.062248208 -0.009008066 -0.017793711 -0.03971402
000240 89 4f cd 3d 12 f9 b8 3d e1 b4 aa bb eb ef af 3d
       0.10024936 0.090318814 -0.0052095507 0.085906826
000250 34 0a 12 3d 13 e1 d2 3a 16 8b 4b be 6d 03 cb 3c
       0.03565426 0.0016088806 -0.19877276 0.024781907
000260 1d 7a 0d 3d bf cf 06 bd cf 8f b3 3d 10 43 db bb
       0.034540284 -0.032912966 0.08767664 -0.006691344
000270 4a d1 56 3d fd 5c 1a 3a ba b9 19 3d 60 a8 86 3d
       0.052445687 0.000588849 0.03753064 0.06575084
000280 1c 55 11 3d 70 a2 43 3c 76 56 81 bc 16 46 0a bd
       0.035481557 0.011940584 -0.015788298 -0.033758245
000290 21 90 63 3d 13 0f 95 bc 01 d2 9d bc 65 fa 91 3d
       0.055557374 -0.018195665 -0.019265177 0.07127837
0002a0 50 b0 3e 3c 33 bb ab 39 52 1d 37 bd 4c bf d1 bc
       0.011638716 0.00032755136 -0.044705696 -0.025603913
0002b0 eb 60 60 3d 85 58 ee ba 88 e9 91 3c 37 3c ad 3d
       0.05477993 -0.001818434 0.017811552 0.08458751
0002c0 68 19 03 3d e8 90 23 3d 77 cb b5 3d 1c 74 4b 3d
       0.03200665 0.039933115 0.088766985 0.049671277
0002d0 5b e6 0d be 01 b6 cb bc 2c 60 d5 3c e6 43 08 bd
       -0.13857405 -0.02486706 0.026046835 -0.033267878
0002e0 a0 ca 81 bd 35 46 8e 3d 32 16 dd 3c 6e a9 d6 ba
       -0.06337476 0.06946985 0.026988123 -0.0016377398
0002f0 ad 13 16 bc d9 76 bb 3b 92 03 6c bd 41 53 a6 bc
       -0.0091599645 0.005720955 -0.057620592 -0.02030337
000300 14 12 87 bd a0 e1 6c 3d 17 2c e1 bc f2 0b d6 3d
       -0.06595245 0.05783236 -0.027486844 0.10451497
000310 48 35 81 bb e7 fe 78 3c 94 38 69 bd c1 e6 a0 3d
       -0.003943119 0.015197492 -0.056938723 0.07856513
000320 e2 8d b0 bc 56 18 1d 3d 3d 53 1c 3b 09 5c f0 3c
       -0.02155203 0.038353287 0.0023853325 0.02934076
000330 44 8a db 3c 7f dd 8e 3b ec 66 47 bd f3 d4 83 bd
       0.026799329 0.0043599005 -0.04868214 -0.06437101
000340 88 56 3b bd ef b0 4a 3c a5 df 20 3d 95 52 a9 3c
       -0.04573682 0.012371286 0.039275784 0.020669261
000350 53 f1 d7 3d e1 2c a0 3b c0 e5 d4 3c bd 68 f9 3c
       0.10544076 0.0048881625 0.02598846 0.03044545
000360 01 08 b3 3d 87 67 e5 3c 79 7f 01 3d 00 8e 83 3d
       0.08741761 0.028003467 0.031615708 0.06423569
000370 24 4a 5f bc fb 2a be bd 51 45 9b bc 2d c8 88 3d
       -0.013628516 -0.092855416 -0.018953951 0.066788055
000380 5e 90 72 3d 81 56 8e 3c 62 d8 55 3d 13 7f 58 3d
       0.05921971 0.017375233 0.05220831 0.052855562
000390 2d 63 d3 3c 95 f1 8a bd 0d dd b3 3c de b8 25 3d
       0.025804127 -0.06784359 0.021955991 0.040459506
0003a0 8b eb 83 3c 76 84 4a bd 14 df 5a bc 1a 59 8e bd
       0.016103527 -0.04944273 -0.01335885 -0.069505885
0003b0 53 48 4e 3d c1 19 4b 3b 9b b1 65 bd e8 48 d2 bb
       0.050361942 0.0030990692 -0.05607758 -0.0064173825
0003c0 6c 3b 88 bc ce fe d3 bb 95 04 73 3d 25 3f 9c 3d
       -0.016629897 -0.006469584 0.05933054 0.07629231
0003d0 02 cf 3b 3d e5 82 8f bc b6 9c 5a bc 9a 42 eb 3b
       0.045851715 -0.01751847 -0.013343027 0.0071795704
0003e0 9a 10 8a 3d 69 1f ac 3d 0a 33 11 bc e5 2b 7c 3d
       0.06741448 0.084044285 -0.008862266 0.0615653
0003f0 8a 11 4a bc 6a 8c 8b 3d 8b 65 43 3d 27 86 00 3c
       -0.012333283 0.06813891 0.04770426 0.007844484

bn1.weight f4 [400]
000000 85 75 45 3f b5 83 62 3f 39 5b 56 3f ec e4 80 3f
       0.77132446 0.8848222 0.83732945 1.0069861
000010 ec 11 57 3f 3a 1d 82 3f 46 ca 88 3f 9f ce 59 3f
       0.8401172 1.0165169 1.0686729 0.85080904
000020 49 9e 66 3f f0 fa 4b 3f b7 cc 6f 3f d7 e4 6f 3f
       0.90085274 0.79679775 0.93671745 0.93708557
000030 b7 b6 86 3f 01 39 68 3f 50 1d 6c 3f a7 62 6a 3f
       1.052451 0.9071198 0.9223223 0.9155678
000040 46 45 5c 3f c0 e8 5a 3f 5e b0 58 3f 29 52 7c 3f
       0.860432 0.855114 0.84644115 0.98562866
000050 ad 5a 6c 3f bc f9 87 3f b1 cb 6e 3f 83 60 7f 3f
       0.9232586 1.0623088 0.9327956 0.9975664
000060 df ad 64 3f 76 b7 64 3f 70 7b 6f 3f cd 3c 78 3f
       0.89327806 0.8934244 0.93547726 0.96967775
000070 82 e2 74 3f 4b 2a 64 3f c1 39 95 3f 4e e6 5d 3f
       0.95658123 0.89127034 1.165825 0.8667954
000080 7e 94 71 3f 22 c6 6f 3f 5f fc 6c 3f 8d 39 5c 3f
       0.94367206 0.936617 0.9257259 0.86025316
000090 a4 fe 8f 3f 01 be 51 3f 41 4f 69 3f 42 eb 61 3f
       1.1249585 0.8193055 0.91136557 0.882496
0000a0 a1 36 71 3f b6 5f 87 3f 4a db 4a 3f 68 c3 7a 3f
       0.9422398 1.0576084 0.7924086 0.97954416
0000b0 0d 25 59 3f 98 c3 ac 3f 4a b6 5d 3f c7 26 52 3f
       0.8482216 1.349719 0.86606276 0.8209042
0000c0 45 5e 5e 3f bc 9f 55 3f ec 9e 7e 3f 94 0c 67 3f
       0.86862594 0.8344686 0.99461246 0.9025357
0000d0 19 13 88 3f c3 d5 5d 3f 60 16 60 3f 25 ce 4a 3f
       1.0630828 0.866543 0.8753414 0.792208
0000e0 f6 41 4d 3f 1f 6c 73 3f a5 e1 5d 3f 04 8e 70 3f
       0.80178773 0.95086855 0.8667243 0.939667
0000f0 e9 5e 71 3f d8 aa 7d 3f a8 9b 5b 3f 0d 90 5d 3f
       0.94285446 0.9908881 0.8578439 0.8654793
000100 77 af 4f 3f a6 48 58 3f 12 26 56 3f 8a 6a 60 3f
       0.81127113 0.8448585 0.8365184 0.87662566
000110 5c 79 68 3f 00 8b 91 3f db 04 90 3f ad 78 57 3f
       0.9081018 1.1370544 1.1251482 0.8416851
000120 61 da 77 3f 08 55 59 3f b4 d0 4c 3f a6 ad 5f 3f
       0.96817595 0.8489537 0.80005956 0.8737434
000130 82 a7 5a 3f 55 4e 58 3f 05 c9 49 3f 1a 5f 96 3f
       0.85411847 0.84494525 0.78822356 1.1747773
000140 31 f2 6f 3f 59 ef 94 3f 1d 71 55 3f 62 f2 48 3f
       0.9372893 1.1635543 0.8337572 0.78494847
000150 5c 9e 51 3f 3f b4 6d 3f 25 66 60 3f 58 b6 5e 3f
       0.8188226 0.9285316 0.8765586 0.86996984
000160 0d 23 58 3f f7 80 5c 3f 62 27 64 3f 44 3c 5c 3f
       0.84428483 0.86134285 0.89122593 0.8602946
000170 e8 6b 5f 3f 01 a5 54 3f cb 73 77 3f 42 f0 4e 3f
       0.87274027 0.83064276 0.9666106 0.80835354
000180 7f 36 71 3f 7b 89 65 3f b5 92 61 3f f9 82 54 3f
       0.9422378 0.89662904 0.8811448 0.8301235
000190 dd 40 79 3f 6e 21 57 3f c3 1b 6d 3f 86 76 5c 3f
       0.973646 0.84035385 0.92620486 0.8611835
0001a0 fb 91 4e 3f 5d 06 51 3f 6f f9 68 3f 7c 08 a0 3f
       0.806915 0.81650335 0.91005605 1.2502589
0001b0 51 81 6b 3f be 6f 52 3f b8 ce 7f 3f 9e 15 50 3f
       0.91994196 0.82201755 0.999248 0.81282985
0001c0 cc 0d 5b 3f 95 9c 60 3f 0e 7d 5a 3f 14 4c 52 3f
       0.8556793 0.87738925 0.8534707 0.82147336
0001d0 67 79 5d 3f 50 51 66 3f d1 6f 7a 3f af 2d 57 3f
       0.8651337 0.89967823 0.9782687 0.8405408
0001e0 f9 68 5c 3f 57 e1 61 3f 5f 19 60 3f 61 27 67 3f
       0.86097676 0.88234466 0.87538713 0.9029446
0001f0 31 a2 4f 3f 94 a7 4c 3f ce 3b 6c 3f 08 13 8c 3f
       0.8110686 0.79943204 0.92278755 1.0943308
000200 fc 2e 5f 3f 2d af 5e 3f 3f f9 70 3f 27 12 7a 3f
       0.8718107 0.8698605 0.9413032 0.9768395
000210 56 4a 5d 3f 9f 68 58 3f ef 52 51 3f 1d 38 5d 3f
       0.8644155 0.8453464 0.8176717 0.8641375
000220 58 59 56 3f 44 c8 7b 3f 6d 41 60 3f c7 e5 5d 3f
       0.8373008 0.98352456 0.8759983 0.8667874
000230 00 36 59 3f 6f 7b 52 3f 64 74 64 3f 90 93 65 3f
       0.8484802 0.82219595 0.892401 0.8967829
000240 94 59 58 3f be 22 51 3f 7e a4 74 3f e3 3d 57 3f
       0.84511685 0.8169364 0.95563495 0.84078807
000250 fe 99 6e 3f b1 84 55 3f 4a f8 cc 3f 9c f5 55 3f
       0.93203723 0.83405596 1.6013272 0.83577895
000260 b4 c7 56 3f 1a e5 5d 3f cf e5 54 3f 7a 4e 5c 3f
       0.8389847 0.86677706 0.8316316 0.86057246
000270 84 7b 4e 3f d5 7d 68 3f fc 9e 49 3f a9 db 5e 3f
       0.8065722 0.90817004 0.78758216 0.87053925
000280 e0 5d 64 3f 02 e5 60 3f 9c fd 4f 3f cb cf 50 3f
       0.8920574 0.8784944 0.8124635 0.81567067
000290 a9 0b 55 3f 74 3c 60 3f 14 ac 6d 3f 08 6d 57 3f
       0.83220917 0.87592244 0.92840695 0.84150743
0002a0 86 ca 6c 3f 46 5d 7a 3f a4 89 6a 3f ff 4a 5e 3f
       0.92496526 0.97798574 0.9161627 0.86833185
0002b0 91 8c 7b 3f de e9 63 3f 00 fd 54 3f 8b 20 57 3f
       0.9826136 0.8902873 0.8319855 0.8403403
0002c0 26 62 70 3f 26 8b 6a 3f 7d 1d 52 3f 53 4f 55 3f
       0.9389976 0.91618574 0.82076246 0.83324164
0002d0 04 b3 af 3f 6a 83 68 3f e7 48 50 3f bc 48 47 3f
       1.3726506 0.9082552 0.8136124 0.7784536
0002e0 7b 22 8a 3f b5 42 59 3f 8b 25 5d 3f c6 16 6f 3f
       1.0791773 0.8486741 0.8638541 0.93394125
0002f0 5f ca 58 3f 8b 76 76 3f 60 bb 82 3f 92 72 4f 3f
       0.84683794 0.9627463 1.0213432 0.81034195
000300 47 51 56 3f 50 a7 4b 3f 00 fa 5a 3f 09 22 58 3f
       0.8371777 0.79552174 0.8553772 0.84426934
000310 0c 11 68 3f 2c 47 54 3f 98 37 73 3f fe f0 55 3f
       0.9065101 0.829211 0.95006704 0.8357085
000320 d8 6c 65 3f 41 ca 54 3f 83 95 63 3f 17 86 5b 3f
       0.8961921 0.83121115 0.8890001 0.8575148
000330 cd 7f 60 3f 99 6a 5d 3f 3d 2a 73 3f 26 50 73 3f
       0.8769501 0.8649078 0.94986326 0.9504417
000340 f4 89 79 3f c4 9d 60 3f ee 42 7f 3f 5a 35 95 3f
       0.97476125 0.8774073 0.997115 1.1656907
000350 40 e2 5f 3f 86 97 73 3f 0f 4c 55 3f 44 50 5d 3f
       0.87454605 0.9515308 0.8331918 0.864506
000360 fd fc 63 3f d5 70 5d 3f 45 cb 6b 3f ce 88 56 3f
       0.89057904 0.86500293 0.9210704 0.838025
000370 59 b1 66 3f d4 ea 66 3f 94 9c 64 3f c6 3a 72 3f
       0.9011436 0.9020207 0.8930142 0.9462093
000380 81 98 68 3f f4 ac 5f 3f f7 1e 52 3f 61 99 50 3f
       0.908577 0.8737328 0.820785 0.8148404
000390 6f f9 72 3f 2e 4e 68 3f 70 e6 70 3f 87 e5 4b 3f
       0.94911855 0.9074429 0.9410162 0.79647106
0003a0 df b8 66 3f a7 6d 76 3f 68 7b 61 3f 26 f9 88 3f
       0.9012584 0.96261066 0.8807893 1.0701034
0003b0 98 70 62 3f 60 c1 5c 3f 1b 8e 5e 3f fe 10 66 3f
       0.88453054 0.86232567 0.86935586 0.8986968
0003c0 4e 76 66 3f ca a0 65 3f 75 fc 6e 3f aa 33 62 3f
       0.9002427 0.8969847 0.9335397 0.88360083
0003d0 28 54 62 3f 95 df 60 3f 94 8c 48 3f 49 7a 6d 3f
       0.8840966 0.8784116 0.78339505 0.9276472
0003e0 7e 6a 55 3f c4 6d 4c 3f 57 3b 52 3f 76 0e 4d 3f
       0.8336562 0.7985499 0.82121795 0.8010019
0003f0 4b 1b 63 3f e4 bb 59 3f 41 8c 53 3f 68 3e 52 3f
       0.8871352 0.85052323 0.82635885 0.82126474

bn1.bias f4 [400]
000000 7c 28 58 be fd 2e fc bd 7f 1a 48 be eb 48 28 be
       -0.21109194 -0.1231365 -0.19541357 -0.16434066
000010 92 66 e7 bd ca 30 51 bd 61 fb 95 bd ba 1b 50 be
       -0.112988606 -0.05107192 -0.07323337 -0.20323077
000020 62 c4 06 be 73 9c 3d be cc a5 73 be 5e 5c 06 be
       -0.13160852 -0.18516712 -0.23793715 -0.13121173
000030 8f 04 bd bd 55 fe 31 be ba ba ee bd 15 69 be bd
       -0.09229385 -0.17382176 -0.11656709 -0.092973866
000040 f6 53 2b be e9 97 0c be d1 38 54 be ad f8 f0 bd
       -0.16731247 -0.13729824 -0.20724799 -0.11766181
000050 2e 9b 2f bd 4e e2 cb bd c5 cb 05 be b5 cd e8 bd
       -0.0428726 -0.099552736 -0.13066013 -0.113673605
000060 34 4d cc bd c7 f3 36 be fb 99 1e be 64 50 b7 bd
       -0.09975663 -0.17866431 -0.15488426 -0.0895088
000070 d5 3f 38 be 6a b7 32 be 0b f3 e3 bc aa 79 20 be
       -0.179931 -0.1745278 -0.027825853 -0.15671411
000080 87 2b 66 be 16 9c 22 be 40 8b 02 be e2 3f 5b be
       -0.22477542 -0.15879855 -0.12748432 -0.21411088
000090 fb 2e c2 bd d6 ce 2c be e3 dd bf bd 53 de 3d be
       -0.09481617 -0.16875777 -0.093684934 -0.18541841
0000a0 02 e0 ae bd c0 fa b1 bd 44 6e 40 be db d2 55 bd
       -0.0853882 -0.08690405 -0.18792063 -0.05220304
0000b0 3d 6c 17 be 07 31 98 bd 52 65 0d be a7 bd 6f be
       -0.14787383 -0.07431226 -0.13808182 -0.2341219
0000c0 23 a7 1f be 84 0f dc bd 69 94 c5 bd 66 32 2e be
       -0.15591101 -0.10745147 -0.096474476 -0.17011413
0000d0 eb 44 67 bd b5 b3 17 be d5 d8 1b be ce 19 3d be
       -0.05646221 -0.14814647 -0.15219434 -0.18466875
0000e0 50 c4 52 be 44 5f 10 be 77 8b 1a be e9 48 2a be
       -0.205827 -0.14098841 -0.15092264 -0.16629376
0000f0 d2 e2 cf bd 83 7a 96 bd 78 89 31 be 1e 02 38 be
       -0.101506844 -0.07347586 -0.17337596 -0.17969558
000100 b8 0b 1f be 6f 6a 36 be 87 c2 4d be 7a 3e 0d be
       -0.15531814 -0.17814039 -0.20093738 -0.13793364
000110 83 a2 d8 bd fd 5f 9d bd f8 31 a7 bd 64 bf 39 be
       -0.10577872 -0.07684324 -0.08163828 -0.18139416
000120 ca 61 25 be a5 80 1f be fe 22 3b be ba 53 d1 bd
       -0.16150585 -0.15576418 -0.18275067 -0.10221048
000130 19 52 21 be b0 bd 49 be d2 b3 1e be 5f 5d 43 bd
       -0.15753974 -0.19701266 -0.15498284 -0.047696467
000140 39 56 8f bd cb 29 d1 bd 93 68 ee bd 71 4c 61 be
       -0.069988675 -0.102130495 -0.1164104 -0.22001816
000150 f6 6f 31 be bf c0 b1 bd 8f c9 11 be 14 ab 39 be
       -0.17327866 -0.086793415 -0.14237045 -0.18131667
000160 ca d8 09 be c8 31 36 be 3f d0 2f be f4 c6 4b be
       -0.13461605 -0.17792428 -0.17169283 -0.19900113
000170 36 a9 01 be c7 ae 3a be 62 b8 89 bd 0b e5 14 be
       -0.12662205 -0.18230735 -0.06724621 -0.14540498
000180 91 5e fa bd 48 e2 f5 bd dc 6b 23 be 99 08 d9 bd
       -0.12225068 -0.1200605 -0.15959114 -0.10597343
000190 9d 5c fc bd 62 c7 1d be 98 ca 10 be db a4 2a be
       -0.12322352 -0.1540809 -0.14139783 -0.1666445
0001a0 fd da 34 be 2d 80 16 be ac 21 f3 bd c5 06 2c bd
       -0.17661662 -0.14697333 -0.11871657 -0.041998643
0001b0 ca ce 0b be 15 85 33 be ea de df bd b9 43 d0 bd
       -0.13653103 -0.17531236 -0.10931189 -0.10169167
0001c0 bb a1 13 be 06 d2 36 be 08 db 44 be 7a 00 43 be
       -0.14417164 -0.17853555 -0.19224179 -0.1904315
0001d0 6a d4 15 be 8a 54 0d be f7 25 1f be 47 5e 34 be
       -0.14631811 -0.1380178 -0.15541826 -0.17614089
0001e0 3f 4e 09 be 0b 80 fc bd 88 82 b3 bd f3 85 3b be
       -0.13408755 -0.1232911 -0.08765131 -0.18312816
0001f0 c6 a2 44 be 62 84 00 be 17 45 a9 bd 8a 7b 10 bd
       -0.19202718 -0.125505 -0.08265131 -0.035274066
000200 90 64 2a be db 82 17 be 15 4f 02 be 24 b7 0c be
       -0.16639924 -0.14796011 -0.1272548 -0.13741738
000210 96 3a 96 bd 4b 44 4d be 66 58 42 be 07 a7 28 be
       -0.07335393 -0.20045583 -0.18979034 -0.16469966
000220 70 6f 24 be b9 75 f6 bd 79 5b 2e be b0 f2 ee bd
       -0.16058135 -0.120341726 -0.17027082 -0.11667383
000230 b3 ae 15 be b4 4c 1c be 61 3a 17 be 2d 95 f9 bd
       -0.14617424 -0.15263635 -0.14768364 -0.12186656
000240 de 45 09 be 3a ed 11 be ff ef 18 be 48 af 14 be
       -0.13405558 -0.14250651 -0.14935301 -0.1451999
000250 5a f0 05 be bf 10 30 be 95 df 8f bb 41 8a 2c be
       -0.13079968 -0.17193888 -0.0043906667 -0.16849615
000260 5b ab d2 bd d0 66 18 be 94 25 33 be 9e e8 17 be
       -0.1028659 -0.1488297 -0.17494804 -0.1483483
000270 ea 61 43 be bd a7 f6 bd 8f 8e d2 bd e7 ec e6 bd
       -0.1908032 -0.12043712 -0.10281097 -0.11275654
000280 92 03 09 be b0 30 0a be 61 04 2d be 1b b3 4b be
       -0.13380268 -0.13495135 -0.16896202 -0.19892542
000290 ae 57 17 be dd 32 00 be 85 f7 08 be a5 09 40 be
       -0.14779541 -0.12519403 -0.13375671 -0.18753679
0002a0 9a b0 c9 bd f1 5c 41 be 8f 42 e9 bd f5 f8 3d be
       -0.09848137 -0.1888311 -0.11389648 -0.18552001
0002b0 a8 92 9e bd 54 24 0e be 4a e9 4b be 4d 93 1b be
       -0.07742816 -0.13881046 -0.19913211 -0.1519291
0002c0 d0 89 ef bd 1e c7 23 be da bb 03 be 4d b2 0e be
       -0.116962075 -0.15993926 -0.12864628 -0.13935204
0002d0 e3 7f 8b bd 3c 81 03 be db a0 08 be d4 5b 7f be
       -0.06811502 -0.12842268 -0.13342611 -0.24937373
0002e0 b4 f2 a5 bd ca 98 4f be 35 9a 1c be 28 0d de bd
       -0.081029326 -0.20273128 -0.152932 -0.10842353
0002f0 63 31 c6 bd f4 fc 8c bd 9e ed fd bd dd 6b f3 bd
       -0.096773885 -0.068841845 -0.123988375 -0.11885808
000300 70 69 2b be e4 41 6a be 25 50 0a be 8e 67 46 be
       -0.1673944 -0.22876698 -0.13507135 -0.1937544
000310 b0 58 f1 bd a3 af 52 be a4 73 03 be 01 5c 3a be
       -0.11784494 -0.20574813 -0.12837082 -0.18199159
000320 d0 00 1f be 93 64 12 be 3f 31 a8 bc c3 2c 48 be
       -0.15527654 -0.14296179 -0.020531295 -0.19548325
000330 14 bb 06 be 35 3c 28 be f7 51 dc bd 9f 2f e2 bd
       -0.13157302 -0.16429217 -0.10757821 -0.11044239
000340 bd de c1 bd 1b ed 45 be fb 76 d3 bd c1 4c 69 bd
       -0.09466312 -0.1932873 -0.10325428 -0.056957964
000350 2d 97 2d be 2a 64 e8 bd 0d ed 0d be f2 1f 31 be
       -0.169522 -0.1134723 -0.13859959 -0.17297342
000360 ae 1c 32 be 75 0f d8 bd 81 ec fd bd 29 09 bf bd
       -0.17393753 -0.10549823 -0.12398625 -0.09327919
000370 4c 97 0a be e5 23 22 be 3b 16 29 be b7 e7 1e be
       -0.13534278 -0.15834005 -0.16512387 -0.1551808
000380 2c 6c 18 be c6 f4 d2 bd 10 a7 29 be f5 e0 4b be
       -0.14885014 -0.10300593 -0.16567636 -0.19910033
000390 ad fa cf bd 68 c7 18 be 9d b4 d1 bd 0e ae 06 be
       -0.101552345 -0.14919817 -0.102395274 -0.13152334
0003a0 6f 61 c8 bd c4 db 01 be cc d1 3e be 8f 43 36 bd
       -0.09784209 -0.1268149 -0.18634719 -0.044498023
0003b0 78 21 05 be fb 28 f6 bd 82 34 1f be 8f c5 1b be
       -0.13001049 -0.12019535 -0.15547374 -0.15212081
0003c0 fa 00 4d be 0a 89 22 be 4c 76 0b be d1 eb 27 be
       -0.20019904 -0.15872589 -0.13619345 -0.1639855
0003d0 c9 f9 0b be 23 18 25 be 63 46 5f be 5f 51 0a be
       -0.13669504 -0.16122489 -0.21804194 -0.13507603
0003e0 95 1f d3 bd 00 3e 30 be 7d fc 22 be 5c 7e 52 be
       -0.10308758 -0.17211151 -0.15916629 -0.20556015
0003f0 ff b3 37 be 38 ce 4b be 6a 59 3a be f1 31 56 be
       -0.17939757 -0.19902885 -0.18198171 -0.20917489

fc2.weight f4 [300, 400]
000000 ad a4 3a bd 02 93 10 bc fc bc 7e 3d e0 d3 95 bd
       -0.045567203 -0.008824112 0.06219195 -0.073158026
000010 8e ea b1 3d 1b 9a 7d bd c9 a3 54 bd f8 c2 c2 3d
       0.08687316 -0.061914545 -0.05191401 0.095098436
000020 6c b6 76 3c ca 43 95 3d cb b2 04 bc 98 f7 89 bd
       0.015058141 0.0728832 -0.008099268 -0.06736678
000030 af 22 3e bd c2 41 f4 3d 3f 6c 4c bd 51 08 10 bd
       -0.046419796 0.11926605 -0.04990792 -0.03516418
000040 6c 38 6e bc 73 64 4d bc d8 fa d7 b8 e4 d8 a6 3c
       -0.014539819 -0.012536156 -0.00010298722 0.020367093
000050 3c 98 26 bd 28 0d f4 3b b3 a7 2c 3c 9a 86 2c 3d
       -0.040672526 0.0074478574 0.0105380295 0.042120554
000060 36 07 8d 3d 70 11 97 3c 58 e1 e5 3d 48 6a ac bd
       0.06886141 0.018440932 0.112246215 -0.08418709
000070 cb 61 5b bd c3 d1 0b bd 8f f4 f5 bb 3c db 1f bd
       -0.05356006 -0.03413559 -0.0075059603 -0.039027438
000080 3d 20 d1 3c 38 1f a8 bd db 2d 77 3d 7b 8c 0c 3d
       0.025528068 -0.082090795 0.060346466 0.03431366
000090 50 2e 53 3d 54 6a 76 bd ae 2b 42 3d f0 3a 96 3d
       0.05155784 -0.060159996 0.047404937 0.0733546
0000a0 dc dc 70 3d be 51 a3 bd 5e 98 68 bd ac 18 db 3d
       0.058804378 -0.079745755 -0.056785934 0.10698065
0000b0 f7 ac c2 3d 50 23 aa bc bf 7a 8e 3d 86 15 55 3d
       0.09505647 -0.020768791 0.06957006 0.05202248
0000c0 1b 36 cc 3c 76 45 4d 3b 08 94 2a 3d 1f 38 6d 3d
       0.024928143 0.003132192 0.04164508 0.05791485
0000d0 8b f7 6e 3d 11 70 dd 3a 31 70 9f 3d 40 e3 9b 3c
       0.058341544 0.001689436 0.07785071 0.01902926
0000e0 6f a9 94 3c eb a5 14 3d e0 31 2e 3d 20 37 84 bd
       0.018147198 0.036291044 0.042528033 -0.06455827
0000f0 8e c1 d7 3d 40 0e 96 bd 43 99 3c bc 42 51 76 3c
       0.105349645 -0.07326937 -0.01151115 0.015034022
000100 4c 77 07 bd 04 27 a6 3c 96 6b 5c bc 2a a2 29 3d
       -0.033072755 0.020282276 -0.013453385 0.041414417
000110 fc c7 0e 3d 48 0a 09 3e f5 a5 bd 3c e5 c6 d9 3d
       0.03485869 0.13382828 0.023150424 0.10633639
000120 9d cb 5a bc 1f 0e 74 3c 3a 5a e7 3c 24 dc 99 bb
       -0.013354209 0.014895945 0.028241266 -0.0046954323
000130 f4 0d 1d 3d 5e 16 52 bd 4e 32 d9 bc 2e 2d 00 bd
       0.038343385 -0.051290862 -0.026513245 -0.031293087
000140 03 1c b4 3d 7a 60 33 be 89 67 bc bc 89 ed 05 bd
       0.08794405 -0.17517272 -0.022998588 -0.032697234
000150 49 a8 a0 bb 2e c0 81 3d c7 3d 53 3d 31 19 33 3d
       -0.0049028737 0.063354835 0.051572587 0.043725196
000160 28 20 62 bd 13 cf f5 bc fc 7c 3f 3d 87 17 e2 3d
       -0.055206448 -0.030005967 0.046750054 0.11039644
000170 70 7e 77 3d f9 0b 7d 3d e2 c4 b0 3d 40 c7 08 3c
       0.060423315 0.061778996 0.086313024 0.008348286
000180 37 4c 41 bc 2a d7 fc bc 14 ca 0e 3c 55 2a 66 3c
       -0.011797956 -0.030864317 0.008715171 0.014048179
000190 8b da ff 3b a2 1e 2e 3d 53 13 56 bb 41 73 37 bb
       0.007808035 0.042509682 -0.0032665327 -0.002799228
0001a0 63 5a a9 bb 56 0e 03 3b 58 49 34 3d 73 ad 06 3c
       -0.0051682456 0.0019997559 0.04401526 0.008220064
0001b0 cc 41 04 bd 7a 40 88 3d 70 47 61 3d 6a 34 82 3d
       -0.03228931 0.06652923 0.05499977 0.063576534
0001c0 77 6f c4 3d 7c 76 21 3a 39 06 c0 bd dc 00 44 bd
       0.09591573 0.0006159318 -0.09376187 -0.047852382
0001d0 86 2c 36 bd 34 25 48 bd 79 8e fd 3c d0 bf 25 bb
       -0.044476055 -0.048863605 0.030951725 -0.002529133
0001e0 e8 9e bf bb a3 ce 57 3d 19 aa 92 3d ff 42 1b 3d
       -0.0058478005 0.0526873 0.0716135 0.03790569
0001f0 79 c5 da 3c b9 31 54 3d 16 e1 8b 3d 38 f1 22 bd
       0.02670549 0.05180523 0.06830041 -0.039780825
000200 74 6a 0d 3d e3 4c a0 bc 8e 87 97 bc 84 2b 65 3d
       0.03452535 -0.019567912 -0.018497255 0.055949703
000210 41 be da 3b b3 7e 28 3b 26 ab 6a 3d 68 f3 06 3d
       0.006675512 0.0025710284 0.057292126 0.032946974
000220 fc ef 77 3d e9 00 f5 bc 77 1d 22 bb e2 d6 45 bc
       0.0605316 -0.02990766 -0.00247368 -0.012075158
000230 be e0 ce bd 1a d6 61 3c dc b2 51 bc 28 6a 74 3d
       -0.1010146 0.013783956 -0.012798991 0.05967155
000240 15 3d f2 3d aa ca 41 bd 27 80 4c 3d 79 41 92 3d
       0.11828057 -0.047312416 0.049926903 0.07141394
000250 fe b2 13 bc d9 15 b1 3d 81 f9 ab 3d 2d f4 2b 3d
       -0.009014843 0.08646745 0.083971985 0.04198091
000260 13 e4 5b bc 8f 6f 8d 3c 48 3e 36 bd 56 59 96 bd
       -0.013421076 0.01726511 -0.04449299 -0.07341258
000270 f9 73 db 3b 25 ce 8e 3b 8b d7 b2 bd 67 21 2f 3d
       0.0066971746 0.0043580704 -0.08732518 0.042756464
000280 33 7c e5 bd e5 c0 17 3d 30 30 fa 3b 0b 1d bb bc
       -0.1120533 0.037049193 0.007635139 -0.022840997
000290 6d c4 86 3c c4 1f a9 bd 81 74 a4 3d 09 ab 70 3c
       0.016451085 -0.08258012 0.08030034 0.014689215
0002a0 8a 08 a3 3d 99 4b 9b bd 0e f9 2d 3d 7b 0d 6c bc
       0.07960613 -0.075827785 0.042473845 -0.014407511
0002b0 a4 10 2a bc 05 82 98 3c 85 19 b7 3c ba 8d f7 bb
       -0.010379944 0.018616686 0.022351036 -0.007554737
0002c0 26 12 9e bd d0 6c f4 bc fd 53 80 bd aa 6b 9f 3c
       -0.07718305 -0.029837042 -0.062660195 0.019460518
0002d0 3e 50 1f 3e dc ed f2 3d db b9 49 3d 4d 7c b2 bd
       0.15557954 0.11861774 0.04924951 -0.08715115
0002e0 dd 9e c1 bc b4 a5 5f 3c 53 71 12 3d 89 75 64 bb
       -0.023635322 0.013650347 0.035752606 -0.0034860095
0002f0 09 e2 a3 bc 6b 5f fb bc cb 0d a3 3d e2 7a 14 bd
       -0.020005243 -0.030685147 0.07961615 -0.036250003
000300 de e7 3d 3c 04 9d 4d bd 9f 8d 99 3c 69 a0 d0 bc
       0.011590926 -0.05019857 0.018744288 -0.025467115
000310 66 43 84 3c 83 b4 5a bd b8 85 77 3d f5 bd ba bd
       0.01614542 -0.053394806 0.06043026 -0.09118263
000320 04 0e 48 bd 5f d2 be 3b 57 6e cb bd 3b cd af bc
       -0.04884149 0.005823418 -0.09933155 -0.021460166
000330 bc a4 50 bc e7 c3 09 bc db 8e 94 3d af a3 81 3d
       -0.012734588 -0.008408523 0.0725381 0.06330048
000340 a5 d4 a0 bc 5e ca 89 3c f7 4e 06 3c dc 2c 9a 3d
       -0.019632647 0.016820129 0.008197538 0.075280875
000350 73 26 b5 3b 2e 0f 21 bd 64 12 01 3d b4 32 19 be
       0.005528265 -0.039321117 0.03151168 -0.14960748
000360 90 5d ab 3d a9 f0 5d bc 91 29 f0 3c 42 27 fe bc
       0.08367455 -0.013546147 0.029316695 -0.031024579
000370 e9 42 cf bc 4b cf 89 bd 2f 51 fe 3c 13 da b0 bd
       -0.02530046 -0.06728991 0.03104457 -0.08635344
000380 b2 22 5d 3d f1 9a 0c 3d 8a 52 99 bd d3 37 bf 3c
       0.053988166 0.03432745 -0.07486446 0.023342049
000390 27 57 0b bd f4 20 a7 3d 14 aa 53 3d 2e d3 86 bd
       -0.03401866 0.08160582 0.05167587 -0.06583248
0003a0 b3 dd 28 3d a0 10 0d bd 85 2b 90 3d 08 d2 0a bd
       0.041227054 -0.034439683 0.07039551 -0.033891708
0003b0 ac 63 8d bc 8a bd cc 3d 87 27 66 bd f8 44 88 3b
       -0.017259441 0.09997089 -0.05619004 0.0041586123
0003c0 52 92 6b 3c 45 21 38 3e 96 45 ad bc 1d 57 67 3a
       0.014378147 0.17981441 -0.021151345 0.00088249316
0003d0 52 fc 8f 3d ff 82 0f 3d 1a b0 b8 ba fb c0 70 3d
       0.07030548 0.035037037 -0.0014090568 0.05877779
0003e0 22 54 35 bd 4c 4e 72 bd fb 58 2f bd 3e 81 69 3d
       -0.04426969 -0.0591567 -0.042809468 0.05700802
0003f0 1d 08 3d bd 62 c4 12 3c c0 bc a7 3d 59 31 9b bc
       -0.046150316 0.008957954 0.08190298 -0.01894443

fc2.bias f4 [300]
000000 19 9e bb bc 18 7a 30 3d a3 de 75 3d 7c 9f 8e bc
       -0.022902535 0.043085188 0.060026776 -0.017410032
000010 84 fc b2 3c 40 c6 44 3c 18 fc b5 3d 1a 93 96 bc
       0.021848924 0.012010157 0.08885974 -0.01838069
000020 b4 84 97 bc 40 e1 9d bb 16 bc fc bc 42 0b a8 3c
       -0.018495895 -0.0048181117 -0.030851405 0.02051318
000030 dc 11 88 3d de c2 c0 3c f6 ce 59 3d 91 4c 34 3d
       0.066440314 0.02353042 0.05317589 0.044018332
000040 69 55 bc bc 49 47 8c bc 2c e4 06 3d e5 a8 e1 bb
       -0.022989945 -0.017123835 0.032932445 -0.006886589
000050 a7 17 6c 3d 9b be d4 3c 65 fc 9e 3d 88 10 49 3d
       0.057639744 0.025969794 0.07762984 0.04908803
000060 af 5e 84 3d 9f 8f 9a bb 68 a7 4f bc ee 9f 67 3d
       0.06463372 -0.004716828 -0.01267419 0.056549005
000070 7d d8 17 3c a7 f8 80 3c 36 16 a4 bb a1 cd da bc
       0.009267923 0.015743567 -0.0050075306 -0.02670938
000080 33 a7 8b 3d dc 5d f5 3c 5a bd 93 3d 4f 2c 3f 3d
       0.06819 0.029951982 0.0721385 0.046673115
000090 17 17 ab 3b 0a 8b a5 3d 54 12 e4 bc 78 5c ad bc
       0.0052212584 0.0808316 -0.02784077 -0.021162257
0000a0 b1 70 09 3d 0d be 30 3d 6a 82 3f bc 46 17 af 3b
       0.033554737 0.043149997 -0.011688808 0.0053433506
0000b0 52 1a 1c bd 2d b6 61 3c bb 73 fa 3c a2 26 40 3d
       -0.03811104 0.013776344 0.030572763 0.046911843
0000c0 e2 8f 2f 3d 30 27 4f 3d bf 7a b0 3d 08 d4 3e 3d
       0.042861827 0.05057448 0.08617162 0.046588928
0000d0 da b7 ff 3b 21 28 11 bd 16 ce 38 3d 2a 8b 11 bd
       0.0078038992 -0.03543866 0.045118414 -0.035533108
0000e0 74 8e f0 bb ef ec 5a 3d a2 58 72 3c 32 a5 37 3d
       -0.0073412005 0.053448614 0.0147916395 0.044835277
0000f0 0f b4 2e 3d a9 49 6a 3d 8a 45 3e 3d 9f eb 3d 3b
       0.042652186 0.057199154 0.046453036 0.0028979552
000100 8e 2c 28 3d 11 04 ed bc 40 c2 ae 3b 8d 29 95 3c
       0.041058116 -0.028932603 0.005333215 0.01820829
000110 84 43 58 3d bc 45 92 3d eb 75 d5 3d 4d 55 0a bc
       0.052798763 0.07142207 0.10422882 -0.008443189
000120 22 bb 71 3c e4 b9 0e 3d 18 a4 82 bc 4e 02 3f 3c
       0.014754089 0.034845248 -0.015947387 0.011658264
000130 c2 03 ea bc a0 7b 2d bb 33 6b 3e 3c bf 44 70 3d
       -0.028566245 -0.0026471391 0.011622238 0.05865931
000140 cf cc c0 bc 10 18 b6 bc 80 2a b7 3c 23 ef ad bb
       -0.02353516 -0.02222827 0.022359133 -0.0053080483
000150 e1 84 cb bb e9 f4 7a 3d b3 20 5c 3a 31 55 cf 3a
       -0.0062109088 0.06126872 0.00083972065 0.0015818236
000160 f7 41 80 bc 50 65 c9 bc 09 d2 d3 3c c4 da 0c 3d
       -0.015656454 -0.024584442 0.025856989 0.03438832
000170 33 b7 04 bd 19 60 5f 3d 44 3c 0c bc 3a 77 84 3c
       -0.032401275 0.054535005 -0.00855929 0.016170133
000180 5e aa 25 3c 16 3a b5 3c eb 05 08 3c cb 6f cb 3c
       0.0101114195 0.022122424 0.008302192 0.02483358
000190 97 6a 41 bc 86 74 a7 3d 14 54 d2 bb b0 e0 6e 3d
       -0.011805198 0.08176522 -0.0064187143 0.058319747
0001a0 a2 67 34 3d a0 ae 6b 3d b0 5e e9 3c fe 4a 3b 3b
       0.044044144 0.057539582 0.028487533 0.0028578634
0001b0 b6 f0 26 3d 8c 79 4d 3c 68 9f f9 3c 2a 9b a6 3b
       0.040756904 0.012541186 0.030471519 0.005084415
0001c0 84 90 00 3d 6a cf b3 bc 97 9c dd bc 87 6f 1e bc
       0.03138782 -0.021949489 -0.027052207 -0.009670145
0001d0 07 64 d3 bc b0 1b a8 3c 34 c9 dd 3c 8d 59 23 bc
       -0.025804533 0.020521015 0.02707348 -0.009970081
0001e0 6d c7 f1 3b 80 e4 ae 3d 6c 8f 0d bd 96 97 36 3b
       0.0073785097 0.08539677 -0.034560606 0.0027861348
0001f0 8f 8b 3a 3c 75 8c a1 bc 15 f8 83 3d c0 cf 52 3c
       0.011385812 -0.019720295 0.06443802 0.012866914
000200 d9 7a 3d 3b f3 08 ed bc 8c 30 80 3c 49 0a a8 bb
       0.0028912334 -0.028934931 0.015648149 -0.005128179
000210 f7 9a de bb 0b a9 14 bd 16 21 ee 3c 1f 08 27 3d
       -0.0067933756 -0.036294024 0.029068511 0.04077923
000220 19 b5 04 bb 86 21 43 bc da 23 e7 bc 1b c4 09 3d
       -0.0020249544 -0.011909848 -0.028215338 0.033634286
000230 a7 8e 48 3d 9e 5e ea 3c 78 14 58 3d f4 bd 26 bc
       0.04896417 0.02860957 0.052753896 -0.010177124
000240 28 c1 eb 3c 1d a1 94 bc 76 17 8e 3d 47 b5 e1 3b
       0.028778628 -0.018143231 0.069380686 0.006888065
000250 10 77 2a 3d c6 05 7c bc 7b f0 c3 3c ce 67 28 3d
       0.041617453 -0.015382236 0.023918381 0.04111462
000260 7a 38 69 3a bb 73 66 3d 57 d7 b3 3c 47 de f0 bc
       0.00088966603 0.056262713 0.021953268 -0.029402865
000270 14 b0 8f bc e6 b8 5e 3d d0 05 68 3c e6 20 3b 3c
       -0.017540015 0.05437555 0.014161542 0.011421418
000280 ec e5 d3 3c 9f 17 c3 bc 04 a2 e7 bc 63 2b 89 bc
       0.025866471 -0.023814974 -0.028275497 -0.016744321
000290 f2 59 3c 3d 3c fc 3c 3c 05 42 eb 3b b5 ae ec 3c
       0.045984216 0.011534747 0.007179501 0.0288919
0002a0 ff c4 21 3c 32 96 7f 3d 2b 21 4e 3d 76 2e f0 bb
       0.009873628 0.062399097 0.0503246 -0.0073297573
0002b0 de 17 27 3d d5 35 4d 3d 37 ed c4 3b 26 0d 14 3c
       0.040794246 0.050100166 0.0060097235 0.009036338
0002c0 4c fa 82 3c 54 46 1e bd bc db 1a 3d 9f ac aa 3a
       0.015988491 -0.03864129 0.03780721 0.0013021416
0002d0 6c a0 9e bb 83 84 d8 bb 39 20 51 3d df fb 12 3d
       -0.004840901 -0.0066075935 0.05105612 0.035884734
0002e0 87 0a 29 bd 68 a1 9e 3c d7 e4 19 3d cd e0 4f 3d
       -0.041269805 0.019364074 0.037571754 0.050751496
0002f0 e2 78 cb bc 42 1f 4f bb 19 b5 82 3c 0c df 11 bd
       -0.024837915 -0.0031604324 0.015955495 -0.035613105
000300 92 8b 66 3d 57 52 b4 bc 11 00 1d 3c 92 4f 04 3d
       0.05628545 -0.022011919 0.009582535 0.032302447
000310 c8 fd 18 3c a9 2a 9c 3b ee d3 35 bd ad 75 13 bd
       0.00933785 0.0047658277 -0.044391565 -0.036000896
000320 c9 35 08 3d 02 76 3a 3d 84 7c 4d 3d a8 9a 65 3c
       0.03325442 0.045522697 0.050167575 0.014013924
000330 22 1c 88 3d 83 b4 28 3d 1e 22 f6 3c 52 79 10 3c
       0.06645991 0.041187774 0.030045565 0.0088179875
000340 f1 07 02 bc 2c d3 34 39 62 01 4a 3d b5 14 ad 3c
       -0.007936464 0.00017244805 0.049317725 0.021128038
000350 4f ca ce bc 72 d2 2d ba 10 2e 6e 3d e0 9d a3 3d
       -0.025242953 -0.0006630785 0.058149397 0.07989097
000360 5f 35 96 3c b1 38 81 3d 44 6f 23 3d d3 8f 02 3d
       0.018335996 0.06309641 0.039901033 0.031875443
000370 2a 2b ac bc cb 18 41 bc b2 c8 21 3d 2a 4d d4 bc
       -0.021016676 -0.011785696 0.03949804 -0.025915701
000380 28 aa 92 bc 07 8e 04 3d 2b e0 e2 3c 95 e4 c3 3c
       -0.017903402 0.03236201 0.027694782 0.023912707
000390 e5 a4 a2 3d 83 f5 4e 3d 81 68 ad bc f9 5f 8c 3d
       0.079416074 0.050527107 -0.021167995 0.06854243
0003a0 34 43 cb bc db ef 75 3d 4d 86 04 bd ed cf 12 bc
       -0.024812318 0.060043197 -0.03235464 -0.008960706
0003b0 70 da a9 39 f7 21 e3 3c c1 49 8e 3d c0 ea 3c 3d
       0.0003239694 0.027726157 0.06947661 0.046122313
0003c0 23 6b 01 3d 0d b7 02 bc ce cd 6d 3b 53 d4 0c bd
       0.031596314 -0.007978213 0.0036286 -0.034382176
0003d0 ab 76 f4 3c 73 f8 a5 3c b4 10 8b 3c c9 08 0e 3c
       0.029841742 0.020260071 0.016975738 0.008669087
0003e0 fd 19 c6 3c 9b 2f c4 bb 6f bd ab bb 1e 85 c8 b9
       0.024182314 -0.0059871203 -0.005241088 -0.00038246153
0003f0 9f 9d 5f 3d 66 f3 9d 3d 4b 6f a5 bc 18 56 a8 bb
       0.05459368 0.0771244 -0.02019467 -0.0051372163

bn2.weight f4 [300]
000000 3c 1d c8 3f 53 6a b9 3f c6 49 9e 3f 0e 54 a9 3f
       1.5633922 1.4485573 1.2366264 1.3228776
000010 fe 3b 88 3f 6f e1 99 3f c3 96 59 3f b2 33 72 3f
       1.0643308 1.2021922 0.8499567 0.9461013
000020 50 95 74 3f ec 0c 93 3f 45 0c 99 3f 2e 2b 89 3f
       0.9554033 1.1488318 1.1956869 1.0716302
000030 7e c0 a3 3f 35 d4 5e 3f 48 08 92 3f 75 75 4d 3f
       1.2793119 0.8704255 1.1408777 0.8025735
000040 fd 78 a9 3f c6 76 93 3f f3 4a 9c 3f bf a6 a1 3f
       1.3240048 1.1520622 1.2210373 1.2629012
000050 57 e4 98 3f d5 25 75 3f 47 08 47 3f 01 a8 b5 3f
       1.1944684 0.9576085 0.77747005 1.4191896
000060 d4 7b 49 3f e2 15 ae 3f 19 fe a7 3f cd 94 ba 3f
       0.7870457 1.3600428 1.312442 1.457666
000070 3e 17 94 3f ce ad 4e 3f 0d 14 69 3f a8 8c 8b 3f
       1.1569593 0.80733955 0.9104622 1.09023
000080 82 d6 94 3f 0a 10 96 3f 1b ba 5e 3f cd c7 5b 3f
       1.1627963 1.1723645 0.87002724 0.85851747
000090 9b 68 c7 3f e6 9f 47 3f d5 3b 9a 3f 7a ed 89 3f
       1.5578798 0.7797836 1.2049509 1.0775597
0000a0 dc 56 a0 3f 6f 77 a8 3f 21 d0 95 3f e6 82 69 3f
       1.2526507 1.3161448 1.1704141 0.9121536
0000b0 c8 ec 9d 3f 40 9c 84 3f 89 6f 9d 3f dd c0 b5 3f
       1.2337885 1.0360184 1.2299663 1.4199482
0000c0 f2 8f 83 3f b1 8f 6b 3f c4 95 5d 3f eb 6e 71 3f
       1.0278304 0.9201613 0.8655665 0.9430987
0000d0 b7 77 77 3f 1d f4 90 3f 8a 2b 9a 3f 6f f7 aa 3f
       0.96667045 1.1324497 1.2044537 1.3356761
0000e0 37 e3 89 3f 7d dd 93 3f e0 56 8f 3f 20 9a 84 3f
       1.0772465 1.1551968 1.1198387 1.0359535
0000f0 3e 29 90 3f c6 77 48 3f 1f e0 bc 3f c5 4b 92 3f
       1.1262586 0.7830776 1.4755896 1.1429373
000100 6b 7b 94 3f 3f ea a5 3f e1 d9 9c 3f e2 f6 99 3f
       1.1600164 1.2962111 1.2253991 1.2028468
000110 3f 8c 8e 3f 71 92 72 3f 6f 41 36 3f af 82 84 3f
       1.113655 0.947547 0.71193594 1.0352381
000120 97 1e 91 3f 28 7b a6 3f ae d9 9b 3f ad d7 9b 3f
       1.133746 1.3006334 1.2175806 1.2175194
000130 09 05 6a 3f 81 98 a0 3f 7b c1 94 3f 37 b2 82 3f
       0.91413933 1.254654 1.1621546 1.0210637
000140 77 d9 ba 3f 60 b5 80 3f 9e b1 8e 3f e7 cf 96 3f
       1.4597615 1.0055351 1.1147954 1.1782197
000150 f9 6c 93 3f 70 a0 79 3f 93 fe 95 3f 05 ef 47 3f
       1.1517631 0.97510433 1.1718315 0.7809909
000160 ee 71 6f 3f e5 97 90 3f e1 6a 7f 3f cf dd a2 3f
       0.9353322 1.1296355 0.9977246 1.2723941
000170 44 a1 93 3f a2 dc 8a 3f 7c 5e 94 3f 43 bc 8e 3f
       1.1533589 1.0848582 1.1591334 1.1151203
000180 70 3a bb 3f a1 12 6a 3f 93 83 5e 3f 1c 5f 91 3f
       1.4627209 0.91434675 0.86919516 1.135715
000190 49 ac c9 3f 3c f2 46 3f f6 af 61 3f bc 20 a2 3f
       1.5755702 0.7771337 0.8815912 1.266624
0001a0 8a 7e 9c 3f 81 ab 7c 3f 51 05 9c 3f 06 80 8b 3f
       1.2226117 0.98699194 1.2189122 1.0898445
0001b0 bc 90 93 3f 40 a6 b5 3f 0f cb 9e 3f e5 cf a3 3f
       1.1528544 1.419136 1.2405719 1.2797819
0001c0 e4 c1 88 3f 0a fa 74 3f 1e fa 87 3f a6 6c 94 3f
       1.0684171 0.9569403 1.0623205 1.1595657
0001d0 b8 25 a4 3f 4b bb 99 3f 1f 95 af 3f 7e a7 94 3f
       1.2824011 1.2010282 1.3717383 1.1613615
0001e0 42 69 6b 3f cb 96 46 3f bc b0 a5 3f 2e 84 ae 3f
       0.91957486 0.7757384 1.294456 1.3634088
0001f0 81 e8 95 3f d8 31 84 3f 29 27 9d 3f 69 bd a7 3f
       1.171158 1.0327711 1.2277576 1.3104678
000200 5f 93 93 3f 21 1f 8a 3f 4f d6 98 3f d0 45 88 3f
       1.1529349 1.079075 1.1940402 1.0646305
000210 7f 5f 72 3f 81 0d a6 3f 64 4b a0 3f 04 90 ba 3f
       0.94676965 1.2972871 1.2523007 1.45752
000220 80 3c a0 3f 39 4b a4 3f 6b 95 97 3f 0d 3f af 3f
       1.2518463 1.2835456 1.1842474 1.3691117
000230 3e 39 8f 3f 19 d9 a6 3f fa 92 83 3f 99 a6 b4 3f
       1.1189344 1.3035003 1.0279229 1.4113342
000240 c9 af 9c 3f 45 f3 8f 3f dc 08 9e 3f d9 0c a8 3f
       1.2241145 1.1246115 1.2346454 1.3128921
000250 d0 7e 50 3f 48 c3 86 3f c5 06 88 3f ba b4 97 3f
       0.814435 1.0528345 1.0627066 1.1852028
000260 db 62 b6 3f 11 6b 5f 3f 7d db bf 3f 69 51 a6 3f
       1.4248918 0.87272745 1.4988858 1.2993594
000270 0c 05 7b 3f 46 91 99 3f 98 fc 52 3f a9 3a 92 3f
       0.98054576 1.1997459 0.8241668 1.1424152
000280 73 e4 ab 3f 04 2a 8e 3f 54 5e b6 3f 32 a0 9a 3f
       1.3429092 1.1106572 1.4247537 1.2080138
000290 ad 4b bf 3f 75 f1 94 3f 86 c6 b5 3f 13 d6 8b 3f
       1.494497 1.1636187 1.420121 1.0924705
0002a0 fa 38 54 3f 86 65 88 3f e5 2a 82 3f 9a 97 ad 3f
       0.8289944 1.0655982 1.016934 1.356189
0002b0 c5 c7 9b 3f 21 66 ab 3f bc 62 88 3f 3d 31 b8 3f
       1.217034 1.3390542 1.0655131 1.4390026
0002c0 06 83 50 3f 6b 33 95 3f aa 96 ab 3f bc 6e b9 3f
       0.81449926 1.1656317 1.3405354 1.4486918
0002d0 fc 02 a4 3f f9 35 96 3f de 2c aa 3f 25 38 7f 3f
       1.2813411 1.1735221 1.3294942 0.99695045
0002e0 ab 9e 93 3f 01 b0 93 3f 75 e1 94 3f bd 9a ad 3f
       1.1532797 1.1538087 1.1631304 1.3562847
0002f0 d6 e5 74 3f 28 03 8d 3f a3 1c 8b 3f c8 b9 af 3f
       0.956632 1.1016588 1.0868114 1.3728571
000300 a4 7b 57 3f 02 58 b9 3f 38 a6 61 3f c2 93 90 3f
       0.84173036 1.4479983 0.88144255 1.1295092
000310 2b 1b 59 3f 1e 0b 4d 3f 6d bf a1 3f 6a af be 3f
       0.8480708 0.8009509 1.2636544 1.4897282
000320 f1 6e 7a 3f 04 01 a3 3f 1d 57 c2 3f 1a c2 88 3f
       0.97825533 1.2734685 1.5182835 1.0684235
000330 d4 01 a1 3f a4 0f a2 3f b5 cf 4a 3f e5 c7 95 3f
       1.2578683 1.2661023 0.79223186 1.1701628
000340 f0 82 89 3f cc 54 ad 3f ef cb 9b 3f ec 94 8f 3f
       1.0743084 1.3541503 1.217161 1.1217322
000350 79 18 a5 3f 29 b9 89 3f 4a d0 8a 3f e4 f1 71 3f
       1.2898093 1.0759631 1.0844815 0.9450972
000360 ae be a3 3f 14 e4 90 3f 3b 35 56 3f f1 34 7e 3f
       1.2792566 1.1319604 0.83674973 0.9929953
000370 b5 f4 59 3f 5c 50 b4 3f 18 d0 92 3f 0a 05 85 3f
       0.8513902 1.4087024 1.1469755 1.0392163
000380 e0 64 83 3f 4d 9a 38 3f fb fe 8a 3f 70 6d 9a 3f
       1.026516 0.72110444 1.0859064 1.2064648
000390 02 f7 44 3f e9 09 af 3f c9 e8 8d 3f 56 d5 6f 3f
       0.76939404 1.3674899 1.1086665 0.936849
0003a0 84 3c 95 3f 71 3b 98 3f e9 24 84 3f 40 5d 6b 3f
       1.1659093 1.189314 1.0323764 0.91939163
0003b0 fe bc 86 3f 5f fb 91 3f 07 6e 4a 3f 6a 36 9f 3f
       1.0526426 1.1404837 0.7907414 1.2438481
0003c0 ee e5 b0 3f ab 86 62 3f 9f ac a7 3f ea 8c b2 3f
       1.3820169 0.88486737 1.3099555 1.3949254
0003d0 b5 c9 a1 3f 0b 2f aa 3f ba 40 74 3f c3 80 83 3f
       1.2639681 1.3295606 0.95411265 1.027367
0003e0 94 36 8d 3f 5f f4 94 3f b8 3a 92 3f 4f 90 a4 3f
       1.1032281 1.1637076 1.142417 1.285654
0003f0 77 93 7c 3f 27 89 4e 3f 6b c8 ab 3f 26 0d 98 3f
       0.98662513 0.8067803 1.3420538 1.1879013
