models/ddpg_ant_350.pt (torch, 669566 bytes, 10 tensors)

fc1.weight f4 [400, 105]
-0.003615011 0.04562248 -0.108633794 -0.05703591 -0.14904311 0.037907682 0.07465749 -0.030540116
0.03746478 -0.07081982 -0.12244589 0.045672104 0.1455362 -0.010635805 0.088933505 -0.074102536
0.03955775 -0.0134026585 0.0462089 0.009217451 0.02415527 0.018204749 -0.0008620221 0.009292493
0.009151488 -0.012372959 0.0004917066 -0.00093675056 0.06149645 0.0028319694 -0.039688736 0.048123743
0.07885603 -0.012965445 0.037645504 0.04112289 0.023612114 -0.0060309907 0.0044845827 0.03903832
-0.0017331657 -0.062615104 0.099966474 0.03301475 -0.033936992 0.07404904 -0.0758271 -0.021212861
0.02992096 -0.038590387 -0.010907906 0.02008085 -0.03498932 0.025436437 -0.017398048 0.02759981
0.003452973 -0.0051869624 0.048828848 -0.1306565 0.035647027 0.10207344 0.13174513 0.019826407
0.065772176 0.058847167 -0.0008684355 0.083817326 -0.10326705 0.0033724667 0.03178983 -0.031564556
-0.034945972 0.028022649 0.021858735 0.01954743 0.05361243 -0.14595543 -0.061238866 -0.06348947
-0.075160444 0.010437852 0.113780625 -0.08487201 -0.04445099 0.1134844 -0.017763888 0.022208685
-0.038214456 0.030554198 -0.009532615 -0.039031804 0.025215251 -0.0015897529 -0.06855151 0.012646074
0.092132665 0.038068064 0.012976277 -0.19733216 0.06549396 -0.09433145 0.063830554 -0.117774844
0.020676782 0.17017102 0.009917408 0.3257516 0.122955754 -0.020265538 0.08570752 0.034096655
-0.009884398 -0.049575362 0.013987707 -0.048675206 0.07613869 -0.050069816 -0.070137925 0.015481883
-0.017246112 0.025642006 -0.03950999 0.039339524 -0.012825014 -0.06337762 0.0032840453 0.017325634
-0.033537883 -0.0006036107 0.010108469 0.003328223 0.03409925 -0.12094397 -0.07562175 0.034458905
0.026149908 0.098955825 0.035673764 -0.031762343 -0.01976284 -0.01285476 0.027539944 0.021714943
0.13688904 0.034511533 0.02648276 -0.122994915 -0.03963767 0.016290653 -0.029725203 0.114690654
-0.08472723 -0.026252648 -0.062136315 -0.009134046 -0.006630084 0.02297626 -0.028037833 -0.030256784
-0.026229583 0.010541914 -0.14569694 0.016836403 0.08749398 -0.07802513 -0.016796367 0.008048973
-0.02137759 -0.0049305847 0.06727543 0.05423843 -0.038029764 0.0060150274 -0.036448635 0.01853973
-0.002728414 -0.0045545525 -0.009942573 -0.01881186 -0.052047398 -0.060575094 0.003489293 -0.06972706
0.037289526 0.03525051 -0.0033418422 -0.007797491 -0.006817591 0.059936002 -0.042268507 0.011042122
-0.017775033 -0.020745484 0.007507857 0.042437784 -0.023261636 0.0029563736 -0.022829248 0.034868922
0.004764393 -0.054995116 -0.024875538 -0.02066646 -0.04320312 -0.08209803 -0.059200108 -0.12908587
-9.9571014e-05 0.044054803 -0.100582644 -0.07277599 -0.1685489 -0.08408549 -0.07194657 0.04561241
0.030418651 -0.0111923 -0.0350621 -0.1229352 -0.107622914 -0.04781043 0.028768254 -0.07367434
0.059674162 0.026059143 0.014870587 -0.013997539 -0.017729674 0.003661529 -6.6510096e-05 -0.009357752
-0.01174259 -0.022177566 -0.034596503 0.0019286243 0.035458565 -0.10481931 -0.0036418508 -0.026654128
-0.009026192 0.0005489559 0.028392555 0.03084833 -0.027476626 0.0390712 -0.01715276 -0.037671644
-0.033322353 0.053058166 0.13523181 -0.10476706 0.10316421 0.058074802 0.15473112 -0.09949342
00000000: d2e9 6cbb a3de 3a3d 657b debd 7d9e 69bd
00000010: c29e 18be 1645 1b3d 07e6 983d 442f fabc
00000020: ab74 193d fb09 91bd e9c4 fabd ac12 3b3d
00000030: 7107 153e cd41 2ebc c522 b63d 12c3 97bd
00000040: 4f07 223d d396 5bbc 8b45 3d3d cb04 173c
00000050: 46e1 c53c 2022 953c 53f9 61ba 8a3f 183c
00000060: 1ff0 153c f4b7 4abc dfe5 003a 4490 75ba
00000070: b4e3 7b3d 9098 393b a890 22bd 671d 453d
00000080: 457f a13d 056d 54bc 2c32 1a3d 7a70 283d
00000090: 316e c13c 9e9f c5bb 68f3 923b a5e6 1f3d
000000a0: 642b e3ba 593c 80bd 39bb cc3d 793a 073d
000000b0: 8401 0bbd 06a7 973d 3d4b 9bbd 98c6 adbc
000000c0: cd1c f53c f410 1ebd 13b7 32bc 9880 a43c
000000d0: f650 0fbd 1360 d03c 5a86 8ebc ff18 e23c
000000e0: 464b 623b 65f7 a9bb c200 483d d1ca 05be
000000f0: 9e02 123d e10b d13d 32e8 063e fd6a a23c
00000100: 90b3 863d ba09 713d b8a7 63ba 6ba8 ab3d
00000110: ad7d d3bd 9a04 5d3b 0e36 023d d649 01bd
00000120: 8223 0fbd c18f e53c 1711 b33c ef21 a03c
00000130: b598 5b3d 5775 15be 9bd5 7abd c406 82bd
00000140: b8ed 99bd 8603 2b3c d105 e93d 60d1 adbd
00000150: 3e12 36bd 826a e83d 9385 91bc fdee b53c
00000160: c386 1cbd cc4c fa3c af2e 1cbc d0df 1fbd
00000170: 3790 ce3c 415f d0ba bc64 8cbd 7b31 4f3c
00000180: 0db0 bc3d 42ed 1b3d 739a 543c 7111 4abe
00000190: b321 863d d930 c1bd 98b9 823d f033 f1bd
000001a0: 5b62 a93c 5041 2e3e a07c 223c eac8 a63e
000001b0: 3ad0 fb3d ea03 a6bc 6d87 af3d efa8 0b3d
000001c0: 2cf2 21bc 890f 4bbd b22c 653c a75f 47bd
000001d0: 9aee 9b3d 0216 4dbd 79a4 8fbd b9a7 7d3c
000001e0: b847 8dbc 2f0f d23c 3ad5 21bd 7b22 213d
000001f0: 0220 52bc 20cc 81bd 2339 573b 7dee 8d3c
00000200: 055f 09bd a13b 1eba fe9d 253c 511e 5a3b
00000210: a8ab 0b3d 79b1 f7bd 93df 9abd c824 0d3d
00000220: 5538 d63c 5aa9 ca3d a71e 123d 3b19 02bd
00000230: aee5 a1bc c59c 52bc 739b e13c 89e3 b13c
00000240: a42c 0c3e f75b 0d3d 60f2 d83c c2e4 fbbd
00000250: 1c5b 22bd fa73 853c 4582 f3bc efe2 ea3d
00000260: 7885 adbd cb0f d7bc a682 7ebd f7a6 15bc
00000270: 2d41 d9bb b638 bc3c 99af e5bc 13dd f7bc
00000280: 6cdf d6bc feb7 2c3c 9431 15be 7fec 893c
00000290: 0b30 b33d a4cb 9fbd 8998 89bc d7df 033c
000002a0: 0e20 afbc be90 a1bb b3c7 893d 1e29 5e3d
000002b0: 19c5 1bbd b519 c53b 2a4b 15bd a2e0 973c
000002c0: 31cf 32bb 5b3e 95bb 2ce6 22bc 541b 9abc
000002d0: a72f 55bd 971d 78bd 9fac 643b 10cd 8ebd
000002e0: e7bc 183d d762 103d cf02 5bbb 1882 ffbb
000002f0: 1966 dfbb 747f 753d be21 2dbd 04ea 343c
00000300: f29c 91bc 6ff2 a9bc 7804 f63b 3ed3 2d3d
00000310: 308f bebc b8bf 413b 6704 bbbc b7d2 0e3d
00000320: a01e 9c3b 8f42 61bd c9c7 cbbc b54c a9bc
00000330: c1f5 30bd 0323 a8bd d07b 72bd 162f 04be
00000340: c8d0 d0b8 cf72 343d 46fe cdbd 940b 95bd
00000350: 1598 2cbe 0335 acbd b958 93bd 14d4 3a3d
00000360: 8930 f93c e95f 37bc 479d 0fbd 73c5 fbbd
00000370: 6769 dcbd dfd4 43bd 67ab eb3c 93e2 96bd
00000380: e56c 743d fc79 d53c c3a3 733c ef55 65bc
00000390: d23d 91bc 43f6 6f3b 567b 8bb8 4251 19bc
000003a0: fe63 40bc baad b5bc 10b5 0dbd e5c9 fc3a
000003b0: 003d 113d 82ab d6bd 1eac 6ebb c259 dabc
000003c0: 98e2 13bc cfe7 0f3a 8197 e83c a3b5 fc3c
000003d0: a916 e1bc 1f09 203d f283 8cbc 954d 1abd
000003e0: 057d 08bd 8553 593d 357a 0a3e 1d90 d6bd
000003f0: c247 d33d d8df 6d3d d671 1e3e 35c3 cbbd

fc1.bias f4 [400]
0.0564469 -0.0177995 0.021948278 0.061496068 0.054182943 0.0523936 0.117227286 0.007646788
-0.02849243 -0.00073245773 -0.05999851 0.021014525 -0.10934115 -0.022656173 0.12221223 0.03616202
0.049915865 0.0020342027 -0.05517113 -0.08624105 0.05457333 -0.108889535 -0.0012290598 -0.06768918
0.036268685 0.0068526026 -0.015673958 0.15488137 -0.0036485957 0.08619021 -0.042685557 0.077288546
-0.043367453 -0.020708535 -0.032737125 0.03285032 -0.15382041 -0.0012616222 -0.0023883695 0.0035661676
0.03293715 0.052747734 0.06503412 0.049814776 -0.018654423 -0.07384535 0.030174661 0.010881354
0.02047466 0.059245363 0.067949206 0.06325783 -0.019088434 0.0035077657 -0.03051637 0.1016535
0.0419433 0.00088961184 0.08335799 0.031377237 -0.017956924 0.06715245 0.02906656 0.039808866
-0.022870997 0.05442005 0.11412446 0.024646042 0.0434019 -0.1139164 0.1241379 0.09032876
-0.026243765 -0.028101843 0.053294644 0.0074797464 0.055538956 0.072535075 0.0358197 -0.07970116
0.061979678 -0.1264506 -0.03693027 -0.015725948 0.086615615 0.060495958 0.05623018 0.0034924787
0.009593665 -0.025462555 0.12937513 0.03958748 0.044884015 -0.010387876 0.005119582 0.052756716
-0.01739612 0.03983998 -0.0543348 0.12777181 0.036966182 0.06532658 0.04712291 0.041684236
0.03278205 0.0009119451 0.004976761 -0.09877354 -0.0869059 0.015531409 0.007590934 -0.026005797
0.020849844 0.058462355 -0.01803761 0.0841967 0.00046321563 0.10205513 -0.008199974 -0.030138304
-0.01618361 0.08010517 0.023982802 0.015090879 0.038581513 0.08692854 0.020457387 0.030772217
0.0393704 0.0046948716 0.010005888 -0.04881919 0.11469898 0.057300873 0.011264327 0.09836611
0.046452682 -0.062647305 0.08425116 0.023015734 0.08071023 -0.023681307 -0.008703946 -0.047104366
0.124685906 0.07133249 -0.022150693 0.097403035 0.071714975 0.014042492 -0.21710649 0.013642965
0.02976164 -0.033350263 0.10867927 0.00972673 0.05709981 0.027326683 0.06116116 0.054789316
0.051469654 0.008860046 -0.004223604 -0.039348222 0.033022624 -0.0006687377 -0.020901551 0.086751804
0.013266615 0.01824391 -0.039034966 -0.011790531 0.029193519 0.008361099 0.03637404 0.095414706
0.028990591 0.052030753 0.105310425 0.066801794 -0.17270222 -0.029539451 0.032221623 -0.024498276
-0.09786417 0.06158586 0.019183163 -9.356022e-05 -0.013069842 0.0149716595 -0.085656136 0.0035054327
-0.109055765 0.072497174 -0.026057044 0.11618033 0.0022299946 0.017272387 -0.075606875 0.07709317
-0.005541252 0.06074527 0.0036638267 0.04123476 0.01566875 0.029370684 -0.067145444 -0.0632565
-0.020025918 0.018430008 0.054700777 -0.019690586 0.13307773 0.031743128 0.043700837 0.053226408
0.10215187 0.047432728 0.03522069 0.07731658 0.011453072 -0.11021066 -0.0028634039 0.102433875
0.08213627 0.028926132 0.061007958 0.08740282 0.02029013 -0.0678183 0.045210093 0.042942043
-0.008903091 -0.0732814 0.005032982 -0.06322432 0.035894174 0.016710948 -0.06250853 0.006506954
-0.008330496 -0.0054710573 0.05996223 0.101280384 0.06767789 -0.029734043 0.028877292 0.0014960419
0.08697341 0.08466242 0.0039086877 0.08450169 0.0035660975 0.108577095 0.06454974 0.038555995
00000000: dd34 673d 42d0 91bc e0cc b33c 4de3 7b3d
00000010: efee 5d3d ac9a 563d dc14 f03d e891 fa3b
00000020: f568 e9bc 6802 40ba ffc0 75bd a726 ac3c
00000030: 41ee dfbd 7099 b9bc 684a fa3d a01e 143d
00000040: 9474 4c3d 4250 053b 1ffb 61bd 269f b0bd
00000050: 4988 5f3d 7a01 dfbd 6718 a1ba a0a0 8abd
00000060: 798e 143d cc8b e03b ac66 80bc 3999 1e3e
00000070: 471d 6fbb 7e84 b03d 0dd7 2ebd 7549 9e3d
00000080: 12a2 31bd f2a4 a9bc 5d17 06bd 0f8e 063d
00000090: 1983 1dbe 045d a5ba 3186 1cbb 5db6 693b
000000a0: 1be9 063d 020e 583d 9c30 853d 940a 4c3d
000000b0: 29d1 98bc 3b3c 97bd da30 f73c b547 323c
000000c0: 79ba a73c 44ab 723d f428 8b3d 528d 813d
000000d0: 595f 9cbc 8be2 653b 77fd f9bc b62f d03d
000000e0: bdcc 2b3d d734 693a 98b7 aa3d 6b85 003d
000000f0: 661a 93bc 3987 893d ff1c ee3c 9f0e 233d
00000100: f55b bbbc 8fe7 5e3d 16ba e93d 7fe6 c93c
00000110: 31c6 313d 004d e9bd 033c fe3d 49fe b83d
00000120: 2afd d6bc d635 e6bc 7c4b 5a3d a918 f53b
00000130: d17c 633d 458d 943d aeb7 123d 5d3a a3bd
00000140: 67de 7d3d 447c 01be 3244 17bd b4d3 80bc
00000150: 8763 b13d 9cca 773d 9e51 663d 12e2 643b
00000160: bf2e 1d3c d996 d0bc ea7a 043e 7b26 223d
00000170: 4dd8 373d e931 2abc 2bc2 a73b 6d17 583d
00000180: 4f82 8ebc 3f2f 233d 2b8e 5ebd 9dd6 023e
00000190: da69 173d f1c9 853d f403 413d 17bd 2a3d
000001a0: 7946 063d 9a0f 6f3a 1914 a33b c849 cabd
000001b0: b8fb b1bd 7377 7e3c 5fbd f83b 1c0a d5bc
000001c0: 4bcd aa3c 3976 6f3d 9cc3 93bc 526f ac3d
000001d0: c0db f239 4802 d13d 2f59 06bc 9be4 f6bc
000001e0: 7d93 84bc 2e0e a43d 9577 c43c bc3f 773c
000001f0: a607 1e3d 9707 b23d 4096 a73c 0416 fc3c
00000200: db42 213d 70d7 993b bcef 233c a2f6 47bd
00000210: 4ce7 ea3d 52b4 6a3d 038e 383c 2c74 c93d
00000220: 2b45 3e3d 3b4d 80bd df8b ac3d 7e8b bc3c
00000230: 684b a53d 4dff c1bc ff9a 0ebc 82f0 40bd
00000240: 535b ff3d c516 923d 5f75 b5bc 3e7b c73d
00000250: 4ddf 923d 7b12 663c 2a51 5ebe be86 5f3c
00000260: afce f33c 499a 08bd 3d93 de3d dd5c 1f3c
00000270: 7ee1 693d 35dc df3c 2084 7a3d c36a 603d
00000280: d8d1 523d ba29 113c 2966 8abb 9a2b 21bd
00000290: bb42 073d 3a4e 2fba bb39 abbc eeaa b13d
000002a0: 375c 593c 4174 953c 21e3 1fbd 122d 41bc
000002b0: 3f27 ef3c fefc 083c f2fc 143d c968 c33d
000002c0: ad7d ed3c 331e 553d feac d73d 61cf 883d
000002d0: dad8 30be b8fc f1bc d2fa 033d 9cb0 c8bc
000002e0: 036d c8bd 7441 7c3d 0226 9d3c c335 c4b8
000002f0: e422 56bc b14b 753c 7c6c afbd 67bb 653b
00000300: a158 dfbd 6679 943d 9575 d5bc f4ef ed3d
00000310: 1a25 123b d27e 8d3c c7d7 9abd 06e3 9d3d
00000320: 6493 b5bb 08d0 783d d01c 703b c8e5 283d
00000330: c05b 803c ca9a f03c 8d83 89bd a08c 81bd
00000340: 650d a4bc 87fa 963c ec0d 603d 274e a1bc
00000350: 8745 083e 1505 023d a6ff 323d ef03 5a3d
00000360: 0035 d13d d248 423d 9243 103d 2858 9e3d
00000370: aaa5 3b3c 20b6 e1bd f2a7 3bbb dac8 d13d
00000380: 1037 a83d 7ff6 ec3c 7be3 793d 4000 b33d
00000390: 7d37 a63c 52e4 8abd 382e 393d ffe3 2f3d
000003a0: 45de 11bc 8f14 96bd b7eb a43b c17b 81bd
000003b0: c505 133d 66e5 883c 7904 80bd 4938 d53b
000003c0: a27c 08bc 8e46 b3bb f59a 753d 176c cf3d
000003d0: b59a 8a3d cf94 f3bc 1290 ec3c d616 c43a
000003e0: 1d1f b23d 7e63 ad3d 7314 803b 390f ad3d
000003f0: 30b5 693b ab5d de3d a732 843d e4ec 1d3d

bn1.weight f4 [400]
0.67318815 0.81806916 0.80927527 1.0243151 0.769714 0.9886971 1.0898013 0.85675526
0.85705394 0.71960765 0.9274925 0.9087885 1.0274519 0.867068 0.8802168 0.8714175
0.81776816 0.7758277 0.7825883 0.9273793 0.88792175 1.0339191 0.8678959 0.9477223
0.8398196 0.82127374 0.88561976 0.93398523 0.91388613 0.8171973 1.128466 0.8051904
0.89162934 0.89973086 0.89021313 0.792904 1.136011 0.7572137 0.8587782 0.8626923
0.95967484 1.024094 0.7300477 0.95622605 0.7875419 1.4051849 0.83020616 0.7598175
0.8020849 0.76216125 0.9410902 0.8668104 1.0659928 0.8058796 0.8139339 0.74701244
0.77296656 0.90743446 0.80003434 0.91382736 0.92423385 1.000828 0.8089213 0.808174
0.7144678 0.8159289 0.75951934 0.8346295 0.8675674 1.0795358 1.0873573 0.7637139
0.9490094 0.77088696 0.76651573 0.8071119 0.8080146 0.78452194 0.68894356 1.1924063
0.9054606 1.1526574 0.75262 0.7618483 0.75371194 0.87476426 0.7949772 0.7852913
0.7883215 0.7829323 0.90602183 0.8004744 0.81790847 0.76110977 0.9214496 0.74332947
0.8653936 0.8174117 0.85402226 0.783862 0.942188 0.78002346 0.87352824 0.760603
0.731625 0.7317162 0.8452545 1.24735 0.87019986 0.7426475 0.9586229 0.7358702
0.7900627 0.81606925 0.7485596 0.73795944 0.8027349 0.8405325 0.9615642 0.8037403
0.78662467 0.8055489 0.79139215 0.8688949 0.72475165 0.7098464 0.88487405 1.0741585
0.84771234 0.86089367 0.9050386 0.9473369 0.7759092 0.7815958 0.7468705 0.835482
0.7823969 1.0184962 0.8206209 0.8235674 0.75367963 0.73937875 0.8439877 0.8929948
0.8387694 0.73274136 0.92759436 0.78733087 0.965567 0.76947105 1.6087898 0.7716718
0.7519578 0.7914277 0.7430388 0.8111451 0.7264335 0.8632525 0.691236 0.79588455
0.85806936 0.7966591 0.7506597 0.7699677 0.76204795 0.8206434 0.8646289 0.7817166
0.8684884 0.9096592 0.89402103 0.7918428 0.91698563 0.8103944 0.79275537 0.7876354
0.8737118 0.8367954 0.7534626 0.77487636 1.373542 0.88901514 0.76381934 0.69698423
1.1051906 0.7881714 0.81219786 0.9054978 0.78589356 0.9579231 1.039186 0.7286535
0.77120554 0.69623727 0.80918294 0.7768964 0.86629844 0.7519564 0.89083093 0.7464625
0.871584 0.7839127 0.8465604 0.8109533 0.79352164 0.8153877 0.9431319 0.8846329
0.90759104 0.8401126 0.9888604 1.2549459 0.82808095 0.9575561 0.7495779 0.76958287
0.8664185 0.770051 0.86719316 0.7822454 0.8427531 0.8565747 0.84031343 0.89712787
0.8454404 0.79408014 0.7424349 0.73565185 0.90976936 0.8548132 0.91917235 0.7174526
0.8430873 0.95532465 0.8402581 1.1169647 0.884256 0.7744412 0.81047904 0.8151965
0.85479075 0.8358844 0.8817551 0.8255929 0.8168078 0.805545 0.7033942 0.89401466
0.7481304 0.7576537 0.7333822 0.70803976 0.8226824 0.80476636 0.7371918 0.73028654
00000000: 0f56 2c3f fb6c 513f aa2c 4f3f c21c 833f
00000010: fa0b 453f 411b 7d3f 9c7e 8b3f 5054 5b3f
00000020: e367 5b3f 3538 383f 2670 6d3f 5da6 683f
00000030: 8b83 833f 2bf8 5d3f e355 613f 3815 5f3f
00000040: 4159 513f a59c 463f b557 483f bb68 6d3f
00000050: d74e 633f 7657 843f 6d2e 5e3f ee9d 723f
00000060: 6bfe 563f ff3e 523f fab7 623f a819 6f3f
00000070: 71f4 693f d833 513f 9371 903f f520 4e3f
00000080: d241 643f c354 663f 02e5 633f c2fb 4a3f
00000090: cf68 913f c2d8 413f e3d8 5b3f 67d9 5c3f
000000a0: 40ad 753f 8315 833f 68e4 3a3f 3bcb 743f
000000b0: 599c 493f 19dd b33f 6488 543f 6683 423f
000000c0: 7055 4d3f 001d 433f 4aeb 703f 49e7 5d3f
000000d0: 7472 883f 204e 4e3f f95d 503f 353c 3f3f
000000e0: 23e1 453f a04d 683f 0dcf 4c3f 97f0 693f
000000f0: 979a 6c3f 221b 803f 7715 4f3f 7ee4 4e3f
00000100: 5de7 363f b7e0 503f dc6f 423f 47aa 553f
00000110: e618 5e3f 3b2e 8a3f 862e 8b3f c182 433f
00000120: 48f2 723f d958 453f 603a 443f e39e 4e3f
00000130: 0bda 4e3f 6ed6 483f 9b5e 303f c5a0 983f
00000140: 44cc 673f 478a 933f b4ab 403f 7d08 433f
00000150: 44f3 403f 8df0 5f3f a083 4b3f da08 493f
00000160: 70cf 493f 406e 483f 0cf1 673f e4eb 4c3f
00000170: 7362 513f 17d8 423f 1fe4 6b3f d74a 3e3f
00000180: 6f8a 5d3f e541 513f 34a1 5a3f 2eab 483f
00000190: 3c33 713f 9eaf 473f 8c9f 5f3f e1b6 423f
000001a0: c74b 3b3f c151 3b3f 9962 583f 2aa9 9f3f
000001b0: 6bc5 5e3f 261e 3e3f 4f68 753f fd61 3c3f
000001c0: 8d41 4a3f eae9 503f 9aa1 3f3f e9ea 3c3f
000001d0: 0980 4d3f 232d 573f 1229 763f edc1 4d3f
000001e0: 3c60 493f 7438 4e3f ad98 4a3f e56f 5e3f
000001f0: 5389 393f 7eb8 353f 1b87 623f 077e 893f
00000200: ad03 593f 8763 5c3f 9cb0 673f ac84 723f
00000210: fca1 463f aa16 483f e832 3f3f 26e2 553f
00000220: 2a4b 483f 155e 823f 3614 523f 50d5 523f
00000230: 26f1 403f ed47 3d3f 940f 583f 4f9b 643f
00000240: 97b9 563f f094 3b3f d376 6d3f 848e 493f
00000250: 662f 773f 0efc 443f d3ec cd3f 488c 453f
00000260: 4e80 403f 019b 4a3f ca37 3e3f 35a7 4f3f
00000270: 8cf7 393f 1efe 5c3f d8f4 303f 17bf 4b3f
00000280: 6faa 5b3f daf1 4b3f 3c2b 403f 9a1c 453f
00000290: 9315 433f b015 523f 5258 5d3f 941e 483f
000002a0: 4155 5e3f 6ddf 683f 90de 643f 36b6 4a3f
000002b0: 92bf 6a3f 0276 4f3f 04f2 4a3f 79a2 493f
000002c0: 94ab 5f3f 3938 563f ede2 403f 4c5e 463f
000002d0: 39d0 af3f 7f96 633f aa89 433f 8f6d 323f
000002e0: e376 8d3f 9ac5 493f 33ec 4f3f b4ce 673f
000002f0: 5230 493f 733a 753f 0c04 853f 0989 3a3f
00000300: ba6d 453f 9b3c 323f 9d26 4f3f afe2 463f
00000310: bcc5 5d3f 3780 403f 7f0d 643f 2b18 3f3f
00000320: 2120 5f3f 81ae 483f 2fb8 583f a39a 4f3f
00000330: 3c24 4b3f 40bd 503f 1871 713f 4d77 623f
00000340: e357 683f 9f11 573f f525 7d3f 11a2 a03f
00000350: 1dfd 533f 6622 753f 56e4 3f3f 6203 453f
00000360: 9acd 5d3f 1022 453f 5f00 5e3f 3c41 483f
00000370: abbe 573f 7b48 5b3f c81e 573f 2caa 653f
00000380: c86e 583f d648 4b3f 3710 3e3f ae53 3c3f
00000390: a5e6 683f 0ad5 5a3f e14e 6b3f f9aa 373f
000003a0: 92d4 573f 2890 743f 281b 573f b3f8 8e3f
000003b0: 9a5e 623f c741 463f 8e7b 4f3f b8b0 503f
000003c0: 91d3 5a3f 85fc 553f b4ba 613f 0e5a 533f
000003d0: 511a 513f 3238 4e3f a411 343f 25de 643f
000003e0: 7985 3f3f 98f5 413f f0be 3b3f 1842 353f
000003f0: 509b 523f 2b05 4e3f 9ab8 3c3f 0ff4 3a3f

bn1.bias f4 [400]
-0.2948006 -0.18696204 -0.2734163 -0.18563601 -0.14577672 -0.05934794 -0.09217656 -0.25308847
-0.17034294 -0.22911602 -0.35029143 -0.13439995 -0.108016394 -0.24331404 -0.13426916 -0.12430672
-0.212767 -0.19320866 -0.29307452 -0.16894443 -0.085326895 -0.11132508 -0.19405729 -0.17328939
-0.17456923 -0.22270687 -0.15626328 -0.11248267 -0.19106174 -0.23761076 -0.06673232 -0.21661797
-0.30849937 -0.19235739 -0.17972274 -0.26474097 -0.118481934 -0.23285523 -0.14005584 -0.25334486
-0.11990554 -0.096363544 -0.27232257 -0.09229161 -0.22388141 -0.06424216 -0.16821563 -0.30789733
-0.22123882 -0.19506694 -0.095547706 -0.21352793 -0.06169351 -0.20333654 -0.21697637 -0.24541752
-0.27328527 -0.18531482 -0.1962853 -0.19450109 -0.13937588 -0.08584846 -0.20865238 -0.20033589
-0.2486631 -0.2283035 -0.251057 -0.20691389 -0.15911019 -0.10147999 -0.041907243 -0.22522105
-0.24565686 -0.20414542 -0.23583874 -0.16756716 -0.20294996 -0.2501348 -0.26417044 -0.05960178
-0.08982719 -0.107027456 -0.16550666 -0.28161195 -0.23771119 -0.13031146 -0.18334639 -0.22149411
-0.2011761 -0.24994509 -0.19708177 -0.25231063 -0.17432395 -0.23674722 -0.09259428 -0.20684513
-0.22261705 -0.18282625 -0.20307277 -0.17434505 -0.17746393 -0.23033005 -0.22805168 -0.23829685
-0.23592997 -0.2006005 -0.17455174 -0.051408842 -0.19591112 -0.23317042 -0.14860846 -0.14837234
-0.19062003 -0.23127444 -0.25824493 -0.2740846 -0.19320406 -0.18165737 -0.26249757 -0.23182505
-0.17309648 -0.16761209 -0.1484559 -0.22659643 -0.2708578 -0.21504346 -0.13572888 -0.06734973
-0.23705325 -0.17748308 -0.1710096 -0.18464136 -0.09367172 -0.2508117 -0.2757549 -0.21263781
-0.23982397 -0.14822873 -0.20342965 -0.15103698 -0.19952834 -0.21968988 -0.1941371 -0.18053043
-0.18166272 -0.23204793 -0.2010536 -0.21124467 -0.13230391 -0.2260153 0.01781529 -0.22494951
-0.19062166 -0.21090192 -0.24934036 -0.20689917 -0.25994036 -0.1366003 -0.16338418 -0.17371888
-0.16774055 -0.19414073 -0.23335288 -0.2491102 -0.2183627 -0.17114915 -0.18619058 -0.23549196
-0.1343163 -0.24970122 -0.15245238 -0.2274122 -0.13234422 -0.22001643 -0.24180172 -0.20782626
-0.16866049 -0.20235927 -0.20131451 -0.1881246 -0.0717044 -0.17604767 -0.18640813 -0.3506428
-0.098898135 -0.2419349 -0.21116088 -0.14250793 -0.14565733 -0.09458164 -0.17518143 -0.19079566
-0.24455665 -0.28417492 -0.19017231 -0.2401397 -0.17286573 -0.26097322 -0.17339553 -0.25977007
-0.18468207 -0.18090372 -0.078290835 -0.26601452 -0.20643085 -0.19644114 -0.12421177 -0.14704184
-0.13546258 -0.23285651 -0.12054074 -0.06778186 -0.22750795 -0.1501865 -0.1882772 -0.22749461
-0.20373356 -0.14128229 -0.16595963 -0.18042064 -0.17731184 -0.20769694 -0.19574055 -0.19255905
-0.17279164 -0.1568934 -0.21400367 -0.26513076 -0.14131506 -0.17096311 -0.12976047 -0.22111616
-0.14667122 -0.15199086 -0.26788762 -0.03943556 -0.18914841 -0.17350787 -0.20347111 -0.23559214
-0.26570472 -0.22429606 -0.16091919 -0.21546519 -0.16303308 -0.19919845 -0.28608835 -0.17270264
-0.16850126 -0.21624452 -0.24916466 -0.25801525 -0.23244822 -0.246744 -0.24454078 -0.26304877
00000000: 1bf0 96be fa72 3fbe 39fd 8bbe 5e17 3ebe
00000010: 7e46 15be d316 73bd 10c7 bcbd d094 81be
00000020: 616e 2ebe 649d 6abe 6659 b3be 24a0 09be
00000030: b337 ddbd 5127 79be db7d 09be 8694 febd
00000040: 98df 59be 7ed8 45be dd0d 96be c5ff 2cbe
00000050: debf aebd 67fe e3bd f4b6 46be c672 31be
00000060: 47c2 32be 450d 64be 7b03 20be 505d e6bd
00000070: b0a5 43be 3c50 73be f4aa 88bd 1ad1 5dbe
00000080: a1f3 9dbe 56f9 44be 3d09 38be 218c 87be
00000090: a8a6 f2bd 9a71 6ebe cc6a 0fbe 6bb6 81be
000000a0: 0991 f5bd 405a c5bd dd6d 8bbe 6203 bdbd
000000b0: 2b41 65be 6591 83bd b840 2cbe b8a4 9dbe
000000c0: 6e8c 62be a1bf 47be 84ae c3bd 11a7 5abe
000000d0: 55b2 7cbd 7437 50be 0e2f 5ebe bb4e 7bbe
000000e0: 0cec 8bbe 2bc3 3dbe 04ff 48be 4b2b 47be
000000f0: 8db8 0ebe 51d1 afbd f8a8 55be da24 4dbe
00000100: 8aa1 7ebe 65c8 69be 8b8a 80be 3ce1 53be
00000110: c8ed 22be bed4 cfbd eea6 2bbd 59a0 66be
00000120: 798d 7bbe 7f0b 51be b67f 71be ba96 2bbe
00000130: 1dd2 4fbe ab11 80be 5941 87be ff20 74bd
00000140: 51f7 b7bd 3631 dbbd 947a 29be 712f 90be
00000150: 906a 73be 5e70 05be 28bf 3bbe 5acf 62be
00000160: 1c01 4ebe 9bf1 7fbe cecf 49be dc2e 81be
00000170: fa81 32be dd6d 72be 12a2 bdbd 36cf 53be
00000180: b9f5 63be ce36 3bbe 4ff2 4fbe 8287 32be
00000190: 1bb9 35be a4db 6bbe 6186 69be 1704 74be
000001a0: a097 71be 386a 4dbe b1bd 32be 1492 52bd
000001b0: ed9c 48be 3ac4 6ebe d12c 18be ebee 17be
000001c0: e631 43be 35d3 6cbe ae38 84be d154 8cbe
000001d0: 49d7 45be 6404 3abe 1566 86be 8c63 6dbe
000001e0: 3440 31be 81a2 2bbe d304 18be e508 68be
000001f0: e0ad 8abe 5a34 5cbe 83fc 0abe a8ee 89bd
00000200: 16be 72be 20be 35be 241d 2fbe a012 3dbe
00000210: f5d6 bfbd 646a 80be bf2f 8dbe babd 59be
00000220: 6a94 75be 46c9 17be dd4f 50be 70a9 1abe
00000230: 2851 4cbe 62f6 60be e0cb 46be f8dc 38be
00000240: cb05 3abe f99d 6dbe ffe0 4dbe 8650 58be
00000250: ad7a 07be 8e70 67be 5ff1 913c 2a59 66be
00000260: 5332 43be acf6 57be 1453 7fbe 60dd 53be
00000270: e716 85be f3e0 0bbe 2f4e 27be 5de3 31be
00000280: 2ec4 2bbe d4cc 46be 0ff4 6ebe bf16 7fbe
00000290: 799a 5fbe b941 2fbe bea8 3ebe ce24 71be
000002a0: 368a 09be adb1 7fbe 7a1c 1cbe bede 68be
000002b0: 3e85 07be fd4b 61be df9a 77be 68d0 54be
000002c0: 56b5 2cbe 4537 4fbe 6425 4ebe bca3 40be
000002d0: c2d9 92bd d745 34be c6e1 3ebe 7487 b3be
000002e0: 1b8b cabd c8bd 77be 8f3a 58be 99ed 11be
000002f0: 3227 15be 05b4 c1bd c362 33be f05f 43be
00000300: 0f6d 7abe 607f 91be 88bc 42be 2ee7 75be
00000310: b703 31be 489e 85be 998e 31be 9500 85be
00000320: 4c1d 3dbe d33e 39be f256 a0bd 0e33 88be
00000330: 9c62 53be de27 49be be62 febd 2392 16be
00000340: b4b6 0abe f071 6ebe 10de f6bd 37d1 8abd
00000350: d8f7 68be 7dca 19be bdcb 40be 59f4 68be
00000360: 889f 50be 4eac 10be 52f1 29be 30c0 38be
00000370: 3c91 35be 82ae 54be 3670 48be 332e 45be
00000380: 4bf0 30be aaa8 20be c723 5bbe 38bf 87be
00000390: e5b4 10be f410 2fbe eedf 04be 466c 62be
000003a0: fb30 16be 7ea3 1bbe 9128 89be 2f87 21bd
000003b0: 1fb0 41be 0cac 31be bb5a 50be 113f 71be
000003c0: 730a 88be dead 65be 00c8 24be e8a2 5cbe
000003d0: 25f2 26be aefa 4bbe 2c7a 92be f6d8 30be
000003e0: 988b 2cbe 346f 5dbe 0525 7fbe 931a 84be
000003f0: e806 6ebe 76aa 7cbe e668 7abe 54ae 86be

fc2.weight f4 [300, 400]
-0.035812903 -0.013469893 0.05859957 -0.02301075 0.1275849 -0.075935274 -0.013966647 0.0795303
-0.0035564 0.018657912 -0.013846554 -0.010941858 -0.03441828 0.08480147 -0.035210714 -0.06260432
0.060934328 0.06275244 -0.0013337781 0.013848852 -0.006476482 -0.02938196 -0.013823453 0.020959303
0.075946204 0.006073632 0.11773008 -0.056753278 -0.018250605 -0.045043394 0.04479645 -0.0973033
0.013457251 -0.07539131 0.08209864 0.057579607 0.035907365 0.0036013802 0.03975307 0.05944429
0.07892458 -0.08299647 -0.072700515 0.10055525 0.067725234 0.025747554 0.107259184 0.04431638
0.0048930924 0.011426313 0.017301382 0.077768356 0.09327147 0.0028971527 0.093305334 0.017410928
-0.0055657243 0.021572337 0.017548414 -0.023598667 0.10100591 -0.07491586 0.025337055 -0.02997992
0.007676876 -0.005577497 0.006755619 0.016578889 0.017025454 0.13452056 0.029892853 0.075598985
-0.009838884 0.036593597 0.027852904 -0.062001124 -0.0014452969 -0.0783094 -0.03067372 0.04980236
0.09572049 -0.16815661 -0.0021226844 -0.037594333 -0.054701764 0.031247728 0.04990757 0.045991585
-0.031211102 -0.023694009 0.011215386 0.10699544 0.018825283 0.07208258 0.089991175 0.004473246
-0.0010976825 0.08907083 -0.050339293 0.027367758 0.023273489 -0.003846595 -0.0052808016 0.054514583
0.0028433015 0.0008444823 0.056884553 0.0662756 0.005593092 0.071715064 0.053028673 0.107408196
0.09638467 -0.005751219 0.015227512 -0.057854723 -0.04423579 -0.108281195 0.07445013 0.048347697
0.027323265 0.02891816 0.026956059 0.046159532 0.032829 0.05557825 0.06208329 -0.036363948
0.034445252 -0.0032256634 -0.057801634 0.029282076 0.027520416 -0.026897652 0.07890396 0.009145934
0.058632553 -0.02614645 0.03387204 -0.044163547 -0.10465381 -0.03832872 -0.009759281 0.045044735
0.11286438 -0.004212789 0.0892177 0.08178804 -0.03493721 0.08866857 0.11806414 0.03697183
0.012883462 0.032232083 -0.11227501 -0.050884765 -0.0001340967 -0.009130977 -0.0680197 0.086642615
-0.08105453 0.06421154 0.07863116 -0.037860714 0.07229395 -0.10173443 0.05794729 0.041386813
0.14938778 -0.017343719 0.031201106 -0.001734071 0.010122676 0.02225923 0.035339944 -0.03377895
-0.10086209 -0.022671463 -0.06652431 0.024475127 0.098323956 0.14337516 0.06588305 -0.113852605
-0.00114414 -0.022458458 0.021606395 0.018233858 -0.025021305 -0.006783549 0.06699321 -0.0116254445
0.008873071 -0.022677956 0.029822063 0.003799509 -0.007296511 -0.07129117 0.07946504 -0.10041989
-0.08375469 0.018090067 -0.05213724 -0.036918815 -0.023651743 -0.03616225 0.06714755 0.046158064
-0.08050847 0.014635166 0.050488766 0.09160352 0.02788747 0.022515634 0.057965748 -0.09429213
0.04268711 0.02152826 0.036512226 -0.014487062 -0.03903981 -0.059137374 0.05031921 -0.008153277
0.045629308 0.0061821193 -0.029130813 0.044478077 -0.069953725 0.041017707 0.07247802 -0.0888088
0.081759565 0.0016994429 0.089657836 -0.09691585 0.002444507 0.10068336 -0.028628904 -0.0051846313
0.015190202 0.14295834 -0.05436895 0.043919966 0.006037525 0.0045655337 -0.02614 0.023578053
-0.05461245 -0.05601521 -0.032052234 0.0536739 -0.07763976 0.023156535 0.081943095 0.006974603
00000000: 8db0 12bd d3b0 5cbc 1a06 703d 0a81 bcbc
00000010: 9ea5 023e f483 9bbd 5dd4 64bc c8e0 a23d
00000020: 7e12 69bb 7ad8 983c a8dc 62bc 7b45 33bc
00000030: 2ffa 0cbd 65ac ad3d 1c39 10bd b236 80bd
00000040: 4696 793d 5a84 803d 2bd2 aeba 4ce6 623c
00000050: ab38 d4bb 70b2 f0bc c47b 62bc d8b2 ab3c
00000060: af89 9b3d 5105 c73b 781c f13d 2076 68bd
00000070: 4b82 95bc 6c7f 38bd 7b7c 373d f446 c7bd
00000080: cd7b 5c3c c266 9abd 5523 a83d 98d8 6b3d
00000090: 9a13 133d 2205 6c3b 1dd4 223d db7b 733d
000000a0: 36a3 a13d 0efa a9bd 02e4 94bd e9ef cd3d
000000b0: 87b3 8a3d 89ec d23c b4aa db3d 1885 353d
000000c0: 3c56 a03b 6e35 3b3c a1bb 8d3c 0445 9f3d
000000d0: 1d05 bf3d 28de 3d3b de16 bf3d 5da1 8e3c
000000e0: ae60 b6bb 78b8 b03c b1c1 8f3c fe51 c1bc
000000f0: 30dc ce3d 7d6d 99bd a88f cf3c 7398 f5bc
00000100: 4e8e fb3b 70c3 b6bb 3d5e dd3b 73d0 873c
00000110: f778 8b3c c2bf 093e dbe1 f43c a4d3 9a3d
00000120: 4533 21bc 2be3 153d c62b e43c e4f4 7dbd
00000130: 1e70 bdba ae60 a0bd 7447 fbbc 8ffd 4b3d
00000140: 1b09 c43d 3f31 2cbe bc1c 0bbb 84fc 19bd
00000150: f50e 60bd 3cfb ff3c e16b 4c3d ac61 3c3d
00000160: 6dae ffbc f019 c2bc bdc0 373c 6d20 db3d
00000170: 7b37 9a3c 08a0 933d 4b4d b83d 4f94 923b
00000180: 1de0 8fba c46a b63d 9330 4ebd 5932 e03c
00000190: 0ba8 be3c 2817 7cbb 930a adbb af4a 5f3d
000001a0: af56 3a3b 3f60 5d3a c7ff 683d 80bb 873d
000001b0: 4246 b73b 59df 923d 9834 593d d4f8 db3d
000001c0: 5365 c53d b974 bcbb d17c 793c 13f9 6cbd
000001d0: 9630 35bd 88c2 ddbd 4f79 983d 3c08 463d
000001e0: 0ad5 df3c c7e5 ec3c f4d2 dc3c c711 3d3d
000001f0: b477 063d 05a6 633d 0c4b 7e3d 5df2 14bd
00000200: 7716 0d3d a765 53bb 68c1 6cbd f7e0 ef3c
00000210: 7f72 e13c 7758 dcbc 6698 a13d d4d8 153c
00000220: b028 703d 1431 d6bc 69bd 0a3d d6e4 34bd
00000230: bd54 d6bd 93fe 1cbd 64e5 1fbc d480 383d
00000240: 7125 e73d 6f0b 8abb c5b7 b63d 7d80 a73d
00000250: 521a 0fbd de97 b53d 9dcb f13d c66f 173d
00000260: 2815 533c ca05 043d 71f0 e5bd 8b6c 50bd
00000270: 4f9c 0cb9 189a 15bc ea4d 8bbd af71 b13d
00000280: ebff a5bd 5781 833d 6009 a13d d613 1bbd
00000290: da0e 943d 245a d0bd 235a 6d3d 3885 293d
000002a0: 1cf9 183e 6a14 8ebc 7699 ff3c c449 e3ba
000002b0: 95d9 253c fd58 b63c 9ec0 103d cc5b 0abd
000002c0: c990 cebd 81b9 b9bc e63d 88bd 1080 c83c
000002d0: 125e c93d f0d0 123e b1ed 863d 8e2b e9bd
000002e0: f8f6 95ba cdfa b7bc e5ff b03c 2c5f 953c
000002f0: 7bf9 ccbc 8948 debb bc33 893d a678 3ebc
00000300: 5b60 113c 1fc7 b9bc 664d f43c 2f01 793b
00000310: 9217 efbb 1b01 92bd 91be a23d f1a8 cdbd
00000320: 9487 abbd 9f31 943c dc8d 55bd 2f38 17bd
00000330: 4dc1 c1bc de1e 14bd a884 893d 3d10 3d3d
00000340: a0e1 a4bd 56c8 6f3c 4fcd 4e3d a09a bb3d
00000350: 4374 e43c b572 b83c 7e6d 6d3d 3b1c c1bd
00000360: aed8 2e3d 095c b03c d88d 153d 245b 6dbc
00000370: 35e8 1fbd 083a 72bd 841b 4e3d 5395 05bc
00000380: cce5 3a3d 6093 ca3b bea3 eebc a52e 363d
00000390: e643 8fbd 2f02 283d 5b6f 943d 63e1 b5bd
000003a0: 8f71 a73d d7bf de3a 879e b73d d17b c6bd
000003b0: 0634 203b 1433 ce3d 2a87 eabc d7e3 a9bb
000003c0: 53e0 783c ac63 123e fab1 5ebd 6ce5 333d
000003d0: 6ed6 c53b 799a 953b 8e23 d6bc c326 c13c
000003e0: 4eb1 5fbd 3470 65bd 3449 03bd 2ad9 5b3d
000003f0: 9801 9fbd c6b2 bd3c c8d1 a73d 368b e43b

fc2.bias f4 [300]
-0.02454511 0.04412564 0.07050947 -0.004120886 0.03596983 0.018111324 0.096419655 -0.007268469
-0.010071372 0.009899439 -0.023182608 0.026663681 0.07720002 0.026363166 0.06429337 0.07099578
-0.009448457 -0.008109371 0.04066673 -0.0035284935 0.06602307 0.04048966 0.1243912 0.049349815
0.09269778 0.007394625 -0.004743645 0.05066281 0.016154703 0.05807583 -1.2482702e-05 -0.016721021
0.07020934 0.040897265 0.07598371 0.053677313 0.009736325 0.09436848 -0.024146026 -0.0088416785
0.037096757 0.045975998 -0.011787226 0.0062278006 -0.03216982 0.01769381 0.03987282 0.05709982
0.04744798 0.05713261 0.09016958 0.04714217 0.01385049 -0.025508245 0.053598836 -0.02554636
-9.419752e-05 0.062164843 0.026288595 0.05283998 0.05040679 0.09504613 0.052221358 0.003672272
0.051344045 -0.012981409 0.013778078 0.025192149 0.06108175 0.076855965 0.21112531 -0.001133303
0.019398414 0.03304358 -0.003249672 0.01858958 -0.021872116 0.008235751 0.020836761 0.063532494
-0.026509592 -0.011303471 0.026049655 -0.0029310295 -0.0014277862 0.07392141 0.009356703 0.048375178
-0.0076727225 -0.014168773 0.031340685 0.037187878 -0.016918274 0.058715023 0.0027727257 0.02380759
0.0060865143 0.030121764 0.009077544 0.031732205 -0.0072620423 0.121983476 0.00013511287 0.06320528
0.054628782 0.0685436 0.03199102 0.011437098 0.053368285 0.026738876 0.038104255 0.012238156
0.036940027 -0.011495398 -0.017422026 -0.006121038 -0.01587188 0.02970497 0.035350177 0.004087052
0.013980133 0.1313058 -0.022463467 0.004762884 0.03209613 -0.007985054 0.07207995 0.023703465
0.017243138 -0.014880546 0.024718331 0.0017614289 -0.0013344664 -0.026216233 0.043371797 0.040909454
0.012744885 -0.0048949467 -0.018910337 0.040900778 0.05686361 0.03499724 0.056010123 -0.015197886
0.03786691 -0.0040193098 0.07796221 0.021311702 0.067085646 -0.0068946346 0.032897163 0.040280133
0.011428927 0.07053669 0.010248275 -0.016889043 -0.011251701 0.05865909 0.03477633 0.021013452
0.035130545 -0.017655082 -0.029530095 -0.0066771256 0.046927575 0.022438178 0.01441431 0.041132167
0.010853997 0.07322104 0.05351715 2.1576743e-06 0.056508068 0.0615902 0.015174467 0.024187142
0.041092463 -0.027851235 0.03588741 0.008926815 0.005913462 -0.0017020664 0.051906772 0.040362973
-0.03550068 0.029604753 0.04318239 0.059390433 -0.013155682 0.00688013 0.021358192 -0.03932603
0.059494678 -0.02345676 0.023793323 0.030566327 0.02681736 0.03913717 -0.03226625 -0.03519543
0.038944766 0.048721347 0.05599152 0.026140476 0.072821334 0.043751046 0.054940667 0.014384439
0.00787486 0.013993766 0.048528664 0.025416814 -0.022466721 0.0041321726 0.066696316 0.08307775
0.0184912 0.07099685 0.057701442 0.04131234 -0.008586128 -0.0063643563 0.04522519 -0.013776533
-0.0038606059 0.13199428 0.038838137 0.035080254 0.12735948 0.052421298 -0.0112928115 0.07275315
-0.017012183 0.064502254 -0.02219578 0.0042858385 0.010770187 0.03860117 0.1178198 0.059251685
0.036838975 0.0027362911 0.01304738 -0.028855389 0.03399504 0.02631796 0.021023287 0.011812767
0.03011704 0.002335711 0.0048131924 0.0049311635 0.059279203 0.10447002 -0.016500438 0.0032743427
00000000: d412 c9bc 16bd 343d 4567 903d 7f08 87bb
00000010: 1a55 133d 335e 943c ab77 c53d 562c eebb
00000020: 6502 25bc 4231 223c 74e9 bdbc cb6d da3c
00000030: 0b1b 9e3d 91f7 d73c 3eac 833d 3c66 913d
00000040: b3cd 1abc 2bdd 04bc 2892 263d 4c3e 67bb
00000050: 1a37 873d 7cd8 253d d0c0 fe3d 0823 4a3d
00000060: 55d8 bd3d 9c4e f23b 9470 9bbb cf83 4f3d
00000070: de56 843c ece0 6d3d cc6c 51b7 86fa 88bc
00000080: eac9 8f3d e483 273d 599d 9b3d bedc 5b3d
00000090: 1b85 1f3c 4344 c13d e3cd c5bc b0dc 10bc
000000a0: c5f2 173d 5451 3c3d 361f 41bc 9412 cc3b
000000b0: 80c4 03bd 9cf2 903c af51 233d 80e1 693d
000000c0: d058 423d e203 6a3d d4aa b83d 2618 413d
000000d0: 2aed 623c abf6 d0bc 748a 5b3d 9a46 d1bc
000000e0: e98b c5b8 90a0 7e3d 2e5b d73c bc6e 583d
000000f0: 5a77 4e3d 8ca7 c23d 10e6 553d 80aa 703b
00000100: 224e 523d faaf 54bc 73bd 613c c45f ce3c
00000110: db30 7a3d a966 9d3d 3c31 583e 578b 94ba
00000120: 6ce9 9e3c b458 073d 73f8 54bb 2d49 983c
00000130: 272d b3bc 3eef 063c dbb1 aa3c 531d 823d
00000140: a52a d9bc 3232 39bc 1666 d53c 8416 40bb
00000150: 8e24 bbba 1c64 973d db4c 193c 0d25 463d
00000160: 766b fbbb 2424 68bc 175f 003d 5152 183d
00000170: 3198 8abc 2a7f 703d 9eb6 353b 2308 c33c
00000180: 6271 c73b ebc1 f63c fbb9 143c a1f9 013d
00000190: 6df6 edbb 79d2 f93d 16ad 0d39 c571 813d
000001a0: 6ec2 5f3d 9660 8c3d 0409 033d aa62 3b3c
000001b0: b498 5a3d 7d0b db3c 3513 1c3d 8c82 483c
000001c0: 6d4e 173d 3257 3cbc a3b8 8ebc fd92 c8bb
000001d0: bf05 82bc d657 f33c 59cb 103d adec 853b
000001e0: ee0c 653c 0775 063e 4e05 b8bc f811 9c3b
000001f0: 3b77 033d bed3 02bc a79e 933d c52d c23c
00000200: 7b41 8d3c 89cd 73bc 197e ca3c bfdf e63a
00000210: 43e9 aeba 6dc3 d6bc a0a6 313d ac90 273d
00000220: eccf 503c ca65 a0bb dae9 9abc 9387 273d
00000230: d1e9 683d 4459 0f3d df6a 653d 8e00 79bc
00000240: 551a 1b3d 6ab4 83bb a7aa 9f3d e195 ae3c
00000250: 3364 893d 63ec e1bb 2dbf 063d c8fc 243d
00000260: 6540 3b3c 8a75 903d 61e8 273c e45a 8abc
00000270: 0e59 38bc 8444 703d a071 0e3d 6724 ac3c
00000280: 0ce5 0f3d 64a1 90bc 19e9 f1bc cacb dabb
00000290: 2137 403d 45d0 b73c 002a 6c3c 347a 283d
000002a0: f7d4 313c eaf4 953d cd34 5b3d 90cc 1036
000002b0: 0175 673d 0146 7c3d 549e 783c 1d24 c63c
000002c0: 9250 283d 4628 e4bc adfe 123d c741 123c
000002d0: b7c5 c13b df17 dfba 329c 543d a553 253d
000002e0: 2969 11bd ab85 f23c 05e0 303d 6243 733d
000002f0: ee8a 57bc b772 e13b 60f7 ae3c 5514 21bd
00000300: b1b0 733d 6428 c0bc 37ea c23c 3c66 fa3c
00000310: 15b0 db3c 4c4e 203d 9e29 04bd 1529 10bd
00000320: 8c84 1f3d 0990 473d 5d57 653d 8d24 d63c
00000330: 5a23 953d 4c34 333d 7709 613d b6ac 6b3c
00000340: 8f05 013c 1c46 653c fec5 463d ec36 d03c
00000350: 210c b8bc 2d67 873b 1498 883d ab24 aa3d
00000360: db7a 973c cc66 913d 5958 6c3d 2137 293d
00000370: d5ac 0cbc 178c d0bb 0d3e 393d f8b6 61bc
00000380: 3802 7dbb 8229 073e bd14 1f3d 50b0 0f3d
00000390: 866a 023e b7b7 563d 7c05 39bc 9aff 943d
000003a0: 225d 8bbc c219 843d edd3 b5bc 3870 8c3b
000003b0: 7075 303c 431c 1e3d 824b f13d e5b1 723d
000003c0: 77e4 163d 5953 333b aec4 553c 2362 ecbc
000003d0: 623e 0b3d c398 d73c 0739 ac3c 568a 413c
000003e0: 03b8 f63c ba12 193b fcb7 9d3b 9995 a13b
000003f0: c0ce 723d 61f4 d53d ed2b 87bc 5b96 563b

bn2.weight f4 [300]
1.5857103 1.4307014 1.2132213 1.2649796 1.0641948 1.1416496 0.72687787 0.9005
0.9054007 1.1201197 1.2064435 1.0524855 1.2225903 0.7399538 1.1181539 0.6373328
1.3321545 1.1033527 1.2535934 1.2312309 1.2051848 0.92969 0.5728304 1.4648844
0.61539376 1.342476 1.3413621 1.510812 1.1982187 0.6376163 0.86937505 1.0221382
1.1476872 1.2027059 0.755391 0.7801202 1.504687 0.6316688 1.1780846 1.0459979
1.2292777 1.263743 1.1687833 0.9224616 1.2253611 0.99418294 1.265087 1.3893247
1.0680636 0.85059255 0.72996706 0.83381325 0.98366725 1.0980927 1.1976795 1.3008609
1.0718459 1.0844558 1.081438 1.0338552 1.1065698 0.5922088 1.4755596 1.1285757
1.1348555 1.2787799 1.2455169 1.1733236 1.1345192 0.96304655 0.42827863 1.0428137
1.1224953 1.3652384 1.2296227 1.2017239 0.90090895 1.1807978 1.1340171 0.9897808
1.458452 0.97207564 1.0540727 1.1795257 1.1025454 0.96844655 1.1733024 0.5941788
0.85819983 1.0880499 0.9821326 1.3203373 1.1422718 1.0534332 1.0788306 1.0683478
1.6408138 0.87019664 0.76794356 1.1199487 1.6530967 0.55661994 0.7902877 1.2335032
1.2017713 0.9601105 1.1813271 1.0612165 1.1130122 1.4192564 1.2399694 1.2614204
1.0866686 0.9336826 1.0521218 1.1065813 1.3345833 1.1945683 1.3518479 1.1853215
0.9120278 0.56480443 1.2690566 1.3627954 1.1908897 1.0289026 1.2219855 1.2717166
1.1582323 1.0388259 1.1756818 1.0391002 0.88507515 1.3603257 1.2305197 1.5354122
1.2661864 1.2735854 1.1818702 1.3643366 1.0701923 1.2964499 0.98528993 1.3814917
1.2147914 1.0867021 1.1863395 1.2967862 0.6118196 1.0839635 1.0183245 1.1511928
1.4288014 0.79655516 1.5885766 1.2779087 0.9427219 1.2301242 0.66093224 1.2307897
1.3063902 1.1050248 1.36143 1.2177628 1.4696006 1.1222225 1.3736496 1.0676597
0.72257316 1.0209942 1.0035448 1.3617755 1.1924884 1.301681 1.0620849 1.4882628
0.66494447 1.1220506 1.3412544 1.3966482 1.2769421 1.141185 1.3024431 0.97935265
1.2489986 1.1157281 1.1575755 1.3735709 0.9728019 1.0930487 1.0368665 1.3008015
0.69330364 1.4597434 0.75006014 1.1278192 0.73717904 0.61824757 1.2610075 1.5503031
0.9565096 1.2266135 1.5578119 1.0417929 1.2316786 1.2524152 0.6170075 1.1354913
1.1086402 1.4216167 1.2818537 1.1111012 1.3529527 1.0576153 1.0910512 0.91556305
1.2799215 1.0566432 0.65877825 0.9793453 0.7280374 1.3882575 1.1136028 1.0143087
1.002704 0.4666921 1.0934296 1.1337262 0.5880684 1.3334152 1.0929388 0.8525421
1.2069813 1.1793146 1.0090362 0.87798834 1.0824292 1.1110764 0.5924427 1.2181146
1.4148053 0.75436693 1.2923063 1.3434271 1.2869738 1.3042024 0.9125366 0.99820065
1.1290414 1.1265042 1.1136369 1.2419384 1.0004133 0.6315617 1.3027444 1.2404157
00000000: 8ef8 ca3f 3921 b73f d64a 9b3f daea a13f
00000010: 8937 883f 9321 923f ab14 3a3f 2b87 663f
00000020: 57c8 673f 1560 8f3f be6c 9a3f d8b7 863f
00000030: d77d 9c3f 9d6d 3d3f ab1f 8f3f 3e28 233f
00000040: 0a84 aa3f a93a 8d3f c075 a03f f998 9d3f
00000050: 7f43 9a3f 2a00 6e3f 03a5 123f 5581 bb3f
00000060: 728a 1d3f 41d6 ab3f c1b1 ab3f 4a62 c13f
00000070: 3b5f 993f d23a 233f 5d8f 5e3f 6dd5 823f
00000080: 6ae7 923f 44f2 993f 4e61 413f f5b5 473f
00000090: 9599 c03f 0cb5 213f 7acb 963f 42e3 853f
000000a0: f958 9d3f 55c2 a13f b19a 953f 7226 6c3f
000000b0: a2d8 9c3f c682 7e3f 5fee a13f 64d5 b13f
000000c0: 4fb6 883f 6fc0 593f 1fdf 3a3f c974 553f
000000d0: 9ed1 7b3f 4d8e 8c3f 904d 993f 9c82 a63f
000000e0: 3f32 893f 73cf 8a3f 8f6c 8a3f 5e55 843f
000000f0: 14a4 8d3f ff9a 173f 23df bc3f 2b75 903f
00000100: f242 913f 0faf a33f 196d 9f3f 782f 963f
00000110: ed37 913f 388a 763f 5647 db3e eb7a 853f
00000120: edad 8f3f 22c0 ae3f 4764 9d3f 17d2 993f
00000130: f8a1 663f 6224 973f 7927 913f 4662 7d3f
00000140: 8eae ba3f f3d9 783f dbeb 863f b3fa 963f
00000150: 3520 8d3f 1dec 773f c62e 963f 1a1c 183f
00000160: fcb2 5b3f 3845 8b3f 0b6d 7b3f d000 a93f
00000170: f635 923f e6d6 863f 1f17 8a3f 9fbf 883f
00000180: 3006 d23f 35c5 5e3f f397 443f 7b5a 8f3f
00000190: ac98 d33f a57e 0e3f 4b50 4a3f 6fe3 9d3f
000001a0: a4d3 993f cdc9 753f ba35 973f f1d5 873f
000001b0: 2f77 8e3f 32aa b53f 51b7 9e3f 3976 a13f
000001c0: f517 8b3f d305 6f3f edab 863f 75a4 8d3f
000001d0: a0d3 aa3f 9de7 983f 5a09 ad3f 9db8 973f
000001e0: a77a 693f 0697 103f 7270 a23f 1470 ae3f
000001f0: 136f 983f 15b3 833f 056a 9c3f 9cc7 a23f
00000200: f540 943f 3ff8 843f be7c 963f 3c01 853f
00000210: 4994 623f 271f ae3f ab81 9d3f 6388 c43f
00000220: 6512 a23f d904 a33f 8647 973f 95a2 ae3f
00000230: 10fc 883f 12f2 a53f f63b 7c3f b8d4 b03f
00000240: 497e 9b3f 0e19 8b3f f9d9 973f 17fd a53f
00000250: 36a0 1c3f 51bf 8a3f 7558 823f 495a 933f
00000260: f7e2 b63f 0aeb 4b3f 7a56 cb3f 8392 a33f
00000270: 3956 713f b674 9d3f db32 293f 848a 9d3f
00000280: cb37 a73f 7471 8d3f 5743 ae3f a7df 9b3f
00000290: df1b bc3f fda4 8f3f c0d3 af3f 13a9 883f
000002a0: 8efa 383f f0af 823f 2874 803f a94e ae3f
000002b0: 76a3 983f 7c9d a63f 66f2 873f 657f be3f
000002c0: cd39 2a3f 5b9f 8f3f 39ae ab3f 5ec5 b23f
000002d0: d772 a33f 5a12 923f 75b6 a63f dbb6 7a3f
000002e0: 30df 9f3f 2ed0 8e3f 6f2b 943f 2cd1 af3f
000002f0: 8c09 793f 05e9 8b3f 0bb8 843f aa80 a63f
00000300: 597c 313f dfd8 ba3f f103 403f 615c 903f
00000310: c4b7 3c3f 7945 1e3f b268 a13f 5570 c63f
00000320: d0dd 743f ac01 9d3f 6166 c73f 7859 853f
00000330: a5a7 9d3f 244f a03f 34f4 1d3f c757 913f
00000340: ece7 8d3f 89f7 b53f c813 a43f 9038 8e3f
00000350: 8e2d ad3f f05f 873f 91a7 8b3f 5762 6a3f
00000360: 78d4 a33f 1640 873f b1a5 283f 60b6 7a3f
00000370: a960 3a3f 6cb2 b13f 898a 8e3f ded4 813f
00000380: 9b58 803f 44f2 ee3e 80f5 8b3f f11d 913f
00000390: a78b 163f 59ad aa3f 6be5 8b3f 3340 5a3f
000003a0: 5d7e 9a3f c8f3 963f 1928 813f d8c3 603f
000003b0: 0a8d 8a3f c037 8e3f 53aa 173f 2eeb 9b3f
000003c0: 5718 b53f 311e 413f 4b6a a53f 6bf5 ab3f
000003d0: 8fbb a43f 1bf0 a63f 009c 693f 148a 7f3f
000003e0: 6e84 903f 4a31 903f a78b 8e3f d6f7 9e3f
000003f0: 8b0d 803f 07ae 213f 54c0 a63f f1c5 9e3f

bn2.bias f4 [300]
-0.09909016 -0.06614577 -0.15080653 -0.06564262 -0.05519632 -0.055200636 -0.22864375 -0.042283423
-0.09884833 -0.060838923 -0.020092115 -0.085826404 0.028720861 -0.12927568 -0.0045736143 -0.22712226
-0.032992665 0.007234849 -0.10588949 -0.016645987 -0.008850957 -0.13748814 -0.2890675 -0.08975751
-0.25158986 0.0060784966 -0.040388342 -0.07275656 -0.0039388924 -0.19041868 -0.10040621 -0.07730006
-0.030227818 -0.051602308 -0.10356317 -0.19874075 -0.07850323 -0.1911402 -0.0646371 0.0070396513
-0.055848073 0.01028437 -0.0064005223 -0.078880906 0.006888074 -0.027628485 0.022322327 -0.050800208
-0.084404126 -0.13167477 -0.14888635 -0.045309074 -0.08095988 -0.0025395798 -0.04522137 -0.061939586
-0.071187116 0.0019923542 -0.044975612 -0.049900193 -0.060742237 -0.22675498 -0.029548544 -0.053146485
-0.06675978 0.0055029606 -0.0053055356 -0.044582043 -0.07926242 -0.053544223 -0.34618992 -0.053010713
-0.021291092 -0.02401542 -0.04712778 -0.08469812 -0.1112295 0.01283858 -0.030315125 -0.06539836
-0.04462119 -0.1014203 -0.083736725 -0.0592161 -0.053235788 -0.12181701 0.009952006 -0.20931332
-0.1114794 -0.014059424 -0.07938513 -0.08037133 -0.05142702 0.021036353 0.01909817 -0.05287839
-0.10075073 -0.07067166 -0.08742779 -0.037446603 -0.08472825 -0.27800015 -0.08955046 -0.003716622
-0.03684617 -0.07683978 -0.054476995 -0.032942887 -0.061713364 -0.058741566 -0.00950897 -0.02621065
0.0014443097 -0.09245217 -0.001513199 0.026000056 -0.027947124 0.017997378 -0.027773619 -0.018758096
-0.08251578 -0.27744797 -0.018558607 -0.070802554 -0.017464746 -0.016497092 -0.018198058 -0.030582488
-0.006354464 -0.052744027 -0.0010702077 -0.075015225 -0.051609118 -0.007782915 -0.012234344 -0.11045054
-0.012776328 -0.089814626 0.033272304 -0.10306129 -0.060566794 -0.0010877934 -0.08603299 -0.03555885
-0.04298433 -0.0067134057 -0.0023244733 -0.030471027 -0.21642488 -0.10259252 -0.035659924 -0.029918933
-0.09162266 -0.12375302 -0.057996273 -0.047501445 -0.10672597 -0.0074085253 -0.16556607 -0.024338726
-0.027312003 -0.0571478 -0.053549565 -0.030176403 -0.12789342 -0.084482774 -0.04186889 -0.05269953
-0.15352075 -0.054815665 -0.061503224 -0.062578 -0.028104434 -0.10141753 -0.061922647 -0.14489089
-0.23974745 -0.032241333 0.0035088083 -0.096804634 0.026022805 -0.06702602 -0.07170548 -0.03251557
0.008899681 -0.09480379 -0.012757495 -0.018845059 -0.069435485 -0.08518504 -0.044880424 -0.14866304
-0.181063 -0.07708309 -0.091677986 -0.0049932664 -0.10079543 -0.18737793 -0.073685326 -0.15161729
-0.048094083 -0.08900679 -0.01696056 -0.073392116 -0.0499413 -0.07026111 -0.2516625 0.016925158
-0.05065916 -0.0016805731 -0.05589703 -0.032585643 -0.078021035 -0.013001615 -0.11224893 -0.08480687
-0.08721202 -0.062652424 -0.15714116 -0.024044557 -0.18976913 -0.1059951 -0.03845513 -0.10600278
-0.04130698 -0.34240645 -0.084193364 -0.03740884 -0.2737562 -0.008741551 -0.020506555 -0.08981845
0.042044308 -0.016640643 -0.061128598 -0.09841688 -0.07045513 -0.014503099 -0.24296835 0.017965661
-0.036575664 -0.09259399 -0.019870814 -0.11110653 -0.11766738 -0.012134878 -0.111421265 -0.077066064
-0.017037414 -0.09345097 -0.053017724 0.028074391 -0.09672476 -0.17670308 0.02062086 -0.059635222
00000000: c8ef cabd 6f77 87bd 076d 1abe a36f 86bd
00000010: 8915 62bd 101a 62bd 9621 6abe 6231 2dbd
00000020: fe70 cabd 3c32 79bd 3898 a4bc c1c5 afbd
00000030: 0348 eb3c d860 04be 42de 95bb bd92 68be
00000040: 5123 07bd 5012 ed3b 97dc d8bd 2a5d 88bc
00000050: 9b03 11bc b1c9 0cbe a800 94be c9d2 b7bd
00000060: 63d0 80be 202e c73b 3f6e 25bd 6401 95bd
00000070: d311 81bb 1dfd 42be c5a1 cdbd 7e4f 9ebd
00000080: 54a0 f7bc f15c 53bd ed18 d4bd b282 4bbe
00000090: 4dc6 a0bd 42ba 43be 7560 84bd e0ac e63b
000000a0: f3c0 64bd c67f 283c 79bb d1bb 508c a1bd
000000b0: 5ab5 e13b 2255 e2bc 50dd b63c e113 50bd
000000c0: 12dc acbd c0d5 06be aa75 18be 0296 39bd
000000d0: 4bce a5bd 146f 26bb 0b3a 39bd 5db4 7dbd
000000e0: 8dca 91bd 2892 023b 5938 38bd 2564 4cbd
000000f0: dacc 78bd 7532 68be ca0f f2bc 21b0 59bd
00000100: 5ab9 88bd 2e52 b43b 0fda adbb a99b 36bd
00000110: 5654 a2bd 3051 5bbd ce3f b1be c321 59bd
00000120: a86a aebc fcbb c4bc 0f09 41bd 3576 adbd
00000130: 4bcc e3bd e858 523c 6d57 f8bc 93ef 85bd
00000140: b5c4 36bd 72b5 cfbd 297e abbd 958c 72bd
00000150: c50d 5abd 327b f9bd bd0d 233c 3b56 56be
00000160: 504f e4bd 8059 66bc ac94 a2bd b999 a4bd
00000170: 24a5 52bd 6e54 ac3c c473 9c3c 0397 58bd
00000180: 6656 cebd 4ebc 90bd 570d b3bd 9c61 19bd
00000190: 0186 adbd 0956 8ebe 3b66 b7bd 9292 73bb
000001a0: 02ec 16bd 2d5e 9dbd 4523 5fbd 1fef 06bd
000001b0: 27c7 7cbd ff9a 70bd 83cb 1bbc b8b7 d6bc
000001c0: fe4e bd3a 9057 bdbd 8856 c6ba 12fe d43c
000001d0: 5ef1 e4bc 3d6f 933c 8085 e3bc 94aa 99bc
000001e0: 09fe a8bd a90d 8ebe 3808 98bc ee00 91bd
000001f0: 3a12 8fbc e924 87bc 1814 95bc 2088 fabc
00000200: 1c39 d0bb 1f0a 58bd 3646 8cba 95a1 99bd
00000210: 1564 53bd d307 ffbb 8f72 48bc e533 e2bd
00000220: ce53 51bc bbf0 b7bd 8a48 083d cc11 d3bd
00000230: e314 78bd 4a94 8eba 1032 b0bd 28a6 11bd
00000240: 5610 30bd 21fc dbbb 3156 18bb 609e f9bc
00000250: 7c9e 5dbe 071c d2bd 2410 12bd 8d18 f5bc
00000260: a9a4 bbbd 3972 fdbd 808d 6dbd e090 42bd
00000270: 2593 dabd 37c3 f2bb 278a 29be 0262 c7bc
00000280: 6cbd dfbc d013 6abd ca56 5bbd 8134 f7bc
00000290: 7ef6 02be 4e05 adbd b77e 2bbd 76db 57bd
000002a0: 8b34 1dbe 6486 60bd ceea 7bbd e528 80bd
000002b0: 453b e6bc feb3 cfbd 9aa2 7dbd 475e 14be
000002c0: 5b80 75be 7d0f 04bd 09f4 653b 8241 c6bd
000002d0: c72d d53c f044 89bd 53da 92bd 0c2f 05bd
000002e0: f8cf 113c 7d28 c2bd d004 51bc f460 9abc
000002f0: 3134 8ebd 7f75 aebd 89d4 37bd 203b 18be
00000300: 9468 39be bddd 9dbd abc1 bbbd 8e9e a3bb
00000310: d66d cebd 00e0 3fbe 55e8 96bd 9041 1bbe
00000320: 4dfe 44bd 3149 b6bd dff0 8abc 9b4e 96bd
00000330: 408f 4cbd 0fe5 8fbd e8d9 80be a1a6 8a3c
00000340: fb7f 4fbd ad46 dcba 49f4 64bd 8678 05bd
00000350: 7ec9 9fbd ba04 55bc c4e2 e5bd 39af adbd
00000360: 379c b2bd ea4f 80bd 9de9 20be 17f9 c4bc
00000370: d752 42be f613 d9bd 2083 1dbd fc17 d9bd
00000380: 8231 29bd e64f afbe 926d acbd 033a 19bd
00000390: c629 8cbe b938 0fbc 5dfd a7bc bcf2 b7bd
000003a0: a736 2c3d f551 88bc fb61 7abd ca8e c9bd
000003b0: c74a 90bd 689e 6dbc b2cc 78be b92c 933c
000003c0: 5dd0 15bd eba1 bdbd 1ec8 a2bc d28b e3bd
000003d0: 98fb f0bd 5ed1 46bc d530 e4bd d0d4 9dbd
000003e0: 0c92 8bbc 3963 bfbd 1d29 59bd 44fc e53c
000003f0: a217 c6bd a7f1 34be 14ed a83c 1044 74bd
