models/ddpg_ant_400.pt (torch, 669566 bytes, 10 tensors)

fc1.weight f4 [400, 105]
000000 f4 e7 bb 3a a4 d9 1f 3d 84 16 b0 bd be a3 c7 bd
       0.0014336095 0.039025918 -0.085980445 -0.09748028
000010 7f 02 34 be 30 ff db 3c b5 f2 af 3d c4 47 b8 bb
       -0.17579077 0.026855081 0.085912146 -0.0056237895
000020 26 27 f0 3c 05 0c a1 bd ef f9 1b be 7d 27 9c 3d
       0.029315542 -0.07863621 -0.15232061 0.07624719
000030 b6 b0 0c 3e 68 10 4e bb 76 75 e9 3d ab fc 8d bd
       0.13739285 -0.0031442884 0.11399357 -0.06932958
000040 55 4a 03 3d 28 e3 96 3b 81 ea 7a 3d 2f 73 09 3b
       0.03205331 0.004604716 0.061258797 0.0020973196
000050 64 b3 9c 3b 90 52 5e 3c d1 ab a2 3a 11 18 e4 3a
       0.004782127 0.013569489 0.0012410824 0.0017402192
000060 85 30 7a bb eb 94 1d bc 11 f6 1c 3c 98 c9 32 bd
       -0.0038175893 -0.009618024 0.009580151 -0.043649286
000070 c5 22 01 3d f8 f4 12 3d db e4 b7 bc 0f 94 07 3d
       0.0315273 0.03587815 -0.022447994 0.033100184
000080 25 cf 1e 3e e3 62 4f bc a6 98 16 3d cd 7a 24 3d
       0.15508707 -0.012657854 0.03676667 0.040156174
000090 36 c0 bc 3c a3 f1 c0 bb e2 59 8f 3b 0d 26 a8 ba
       0.023040872 -0.0058881803 0.0043747285 -0.0012828723
0000a0 c8 a4 ce bc fe f9 13 bd 7b 9d e3 3d e5 88 fa 3c
       -0.025225058 -0.036127083 0.111140214 0.030582855
0000b0 a1 77 b1 bd 5e 35 80 3d df b5 c8 bd cb 7a a2 bc
       -0.086653955 0.06260179 -0.09800314 -0.019833943
0000c0 88 a0 15 3d fe 87 69 bc 68 9e 8e bc eb 8a a0 3c
       0.036530048 -0.0142536145 -0.017409518 0.019597491
0000d0 ff 0c 0c bd f1 55 cb 3c fb 48 8b bc b6 b2 dc 3c
       -0.03419208 0.024821253 -0.017002573 0.026940685
0000e0 fd e4 5c 3b bc e4 3e 3d a4 8e 0c 3d 77 3c e6 bd
       0.0033705824 0.046604857 0.03431572 -0.112420015
0000f0 50 18 5c 3c 89 69 04 3e 71 bf 3f 3e 10 61 b8 bb
       0.013433531 0.12930883 0.18725373 -0.005626805
000100 ee 31 b8 3d 29 18 5b 3d 56 cd 28 bd d2 ef 4b 3d
       0.08993898 0.053489838 -0.04121145 0.049789257
000110 6f aa d5 bd fc cc 57 3b a0 0e fe 3c 6f 50 fc bc
       -0.10432898 0.0032928577 0.031012833 -0.030800072
000120 17 e4 0b bd 78 29 e0 3c 43 bf ae 3c 8d ea 61 3b
       -0.03415307 0.027363524 0.021331435 0.0034472079
000130 6a 19 df 3d 7e cd 15 be 44 12 32 bd f9 a0 10 bc
       0.10893519 -0.1462917 -0.04347445 -0.008827441
000140 cf 40 ea bd 7f 01 2c 3d 34 ee 03 3e b0 4f b7 bd
       -0.114381425 0.041993614 0.12883836 -0.08950746
000150 9a 6b d6 bc 62 60 e6 3d 3f 4f 86 bc 29 9d b1 3c
       -0.026174355 0.11248852 -0.01639521 0.021681385
000160 3d ed 18 bd cf 6e f4 3c 29 95 18 bc 68 1d 1c bd
       -0.037335623 0.029837994 -0.009312906 -0.03811398
000170 74 a6 c9 3c 6f e6 1a 3c 57 26 b5 bd 87 d5 01 3d
       0.024615504 0.009454354 -0.08845203 0.031697776
000180 75 42 b8 3d 05 fc 4d 3d 7c ae 24 3c 1d 22 41 be
       0.08997051 0.050289173 0.010051366 -0.1886067
000190 5a 0b 88 3d 21 e4 1f bd b8 48 b5 3d 9a a8 79 bd
       0.0664279 -0.03903592 0.088517606 -0.060951807
0001a0 c7 fd 22 3d 5b a9 39 3e af c4 ce 3c 7e 07 a9 3e
       0.039792802 0.1813101 0.02524027 0.3301353
0001b0 9c 71 f9 3d 83 db aa ba 68 ad a2 3d 5b c7 ce 3c
       0.121798724 -0.001303539 0.07943231 0.025241544
0001c0 09 1b 33 bc f6 f6 16 bd df 4e c6 bb 3b fe 35 bd
       -0.010931739 -0.036856614 -0.0060518826 -0.044431906
0001d0 52 a8 46 3d 62 54 8b bd c3 e4 36 bd b4 16 9a 3b
       0.048500367 -0.06803204 -0.044651758 0.0047024135
0001e0 a6 4d 41 bc 43 ad 0c 3d a3 5b 01 bd 84 b0 5d 3d
       -0.011798298 0.034344923 -0.031581532 0.054123417
0001f0 b5 1c 15 bc 71 8a 35 bd c4 35 48 3b 8a 4c 22 3c
       -0.009101083 -0.04432148 0.0030549625 0.009905944
000200 3b 78 83 bc df a0 0f 3c 7d 04 3e 3c 5f 57 56 bc
       -0.016048541 0.008766382 0.01159775 -0.013082354
000210 81 17 4f 3c 48 c7 af bd 40 45 bf bd 44 2a 9f 3b
       0.012639881 -0.08582932 -0.0933938 0.0048573334
000220 09 3f aa 3c 41 26 26 3d ec 92 0e 3d 2e d8 fd bc
       0.02078201 0.040563826 0.034808084 -0.030986872
000230 32 f4 9d bc a3 92 4d bc 2a 35 dc 3c b5 91 ad 3c
       -0.01928148 -0.012547168 0.02688082 0.021187643
000240 d2 a4 da 3d b0 f2 e0 3c a2 92 09 3d f8 df 02 be
       0.10675968 0.027459472 0.033587106 -0.1278075
000250 4e 66 5c bd 7c 4f bc 3c 68 b8 83 3c 7e a4 bd 3d
       -0.053808503 0.02298712 0.016079143 0.0925989
000260 f3 bd 0a be 0d cd b3 3b 54 01 87 bd 30 ad 92 bc
       -0.13549022 0.0054870904 -0.0659205 -0.017904848
000270 0b 37 d4 bb e2 e6 b7 3c 50 49 e0 bc a3 1a f2 bc
       -0.006476288 0.02244896 -0.027378708 -0.029553717
000280 4a d5 d1 bc 51 c2 28 3c bf 98 e3 bd 4a 08 4e 3d
       -0.0256144 0.010300235 -0.111131184 0.050300874
000290 0c 8f 8a 3d e0 99 4c bd b5 30 37 3c 4f 27 d4 bb
       0.06765565 -0.049951434 0.011181046 -0.0064744125
0002a0 56 d5 92 3a f7 a1 10 bb e3 6d 36 3d 4e f0 a9 3d
       0.0011202495 -0.0022069195 0.04453839 0.082977876
0002b0 0e 89 d9 bc 0e 3e 8c 3c a4 b1 11 bd 1c 47 94 3c
       -0.02655461 0.017119434 -0.035569802 0.018100314
0002c0 5d 7d 2e bb d5 a4 91 bb 7f f0 1e bc ce 81 96 bc
       -0.0026625015 -0.0044446983 -0.009700893 -0.018372443
0002d0 23 db fa bc b4 a8 1d bd b7 61 ac 3c 62 33 8a bd
       -0.03062207 -0.038490966 0.021042688 -0.06748082
0002e0 cf ce 63 3d c7 a0 ff 3c 2f 1f d0 bb c5 fa 4c bb
       0.05561715 0.031204594 -0.0063513736 -0.00312774
0002f0 05 5e 46 ba c8 e9 11 3d c2 57 94 bd 42 5b 0c 3c
       -0.00075671106 0.03562334 -0.07243301 0.008566679
000300 2f 1e 8e bc c2 fc a5 bc 08 42 f0 3b ba cf 29 3d
       -0.017348377 -0.020262126 0.0073320903 0.04145787
000310 98 0f ba bc bd 11 3d 3b b8 6e 86 3c 05 a1 ce 3c
       -0.022712514 0.0028849684 0.016410217 0.025223264
000320 42 b3 99 bb 54 ba 51 bd bc f8 9d bc 29 37 09 bd
       -0.0046905586 -0.051203087 -0.019283645 -0.03349987
000330 83 d8 6a bd f0 7e a0 bd 3f 44 6d bd 7c 1c 0c be
       -0.057335388 -0.078367114 -0.057926413 -0.13682741
000340 5b 86 a2 39 6d 4a 36 3d 0a 2c d7 bd 30 dd 79 bd
       0.0003099915 0.04450457 -0.10506447 -0.061001956
000350 b9 b5 f8 bd 69 0a fa bd ca 88 7f bd 2b ed a3 3d
       -0.12144036 -0.12209017 -0.06238631 0.080042206
000360 c9 ea 70 3c 82 17 17 3d 88 64 52 bc 8d 1d b5 bd
       0.014704415 0.036887653 -0.012841351 -0.08843527
000370 c3 89 b6 bd 1a f4 26 bd 8b ad c0 3c 09 22 cb bd
       -0.08912995 -0.040760137 0.023520252 -0.09918601
000380 7a 4d b3 3d 8c 8a 2f 3d 31 5d 93 3c 2c 6b e6 bb
       0.08755012 0.042856738 0.017988773 -0.007031819
000390 19 77 82 bc a2 d0 37 ba 30 65 02 3c 27 51 77 bc
       -0.01592593 -0.00070119847 0.007958695 -0.015095032
0003a0 e3 d8 d8 bc e4 27 f7 bc 68 cc 4a bd 99 b4 a1 3c
       -0.026470607 -0.030170389 -0.049511343 0.019739436
0003b0 ec 75 29 3d c0 9b 9a bd 8b 0a 7a 3c b4 57 65 bd
       0.041372225 -0.07549238 0.015261303 -0.055991843
0003c0 ae 42 ac bc 30 a9 2c ba ac 9f 8f bb 5d b3 f6 3c
       -0.02102789 -0.000658649 -0.004383048 0.030114824
0003d0 60 b0 db bc f6 42 1c 3d 93 46 89 bc 0f b4 16 bd
       -0.0268175 0.038149796 -0.016757285 -0.03679281
0003e0 a6 3f 05 bd 50 f7 2b 3d 44 e4 11 3e 64 ca d8 bd
       -0.032531403 0.041983902 0.14247233 -0.10585478
0003f0 fd e5 a0 3d dd 9a c4 3d a0 a8 41 3e 9a 0f f4 bd
       0.07856367 0.0959985 0.18911982 -0.11917038

fc1.bias f4 [400]
000000 05 fd 91 3d e1 62 d6 bc b8 eb 0b 3c 2a 70 ae 3d
       0.07128338 -0.026170196 0.008540086 0.08517487
000010 d7 d0 60 3d 5e 20 5c 3d 6d 8f ea 3d 55 bf 55 3c
       0.054886665 0.053741805 0.114531375 0.013046105
000020 0a d1 d1 bc 66 ec 53 3b 75 c4 78 bd c4 17 d2 3c
       -0.025612373 0.003233695 -0.06073423 0.025646098
000030 50 ec f4 bd 84 e8 cc bc 7e 78 0f 3e bb d5 2c 3d
       -0.119591355 -0.025013216 0.14010808 0.042196017
000040 7e 52 59 3d f4 dd 2b 3c aa e6 40 bd 42 25 9f bd
       0.053057186 0.0104899295 -0.04709498 -0.07770778
000050 01 bd 6f 3d d9 64 e8 bd 47 88 06 bc 83 48 aa bd
       0.058529858 -0.1134736 -0.008211202 -0.08314612
000060 20 35 05 3d 62 77 1a 3c 4b 03 4a 3b 1d 8f 24 3e
       0.032521367 0.009427877 0.0030824717 0.16070218
000070 27 4d 0a 3c a3 6d c9 3d 5a d9 26 bd d4 79 ae 3d
       0.008441246 0.09835365 -0.040734626 0.085193306
000080 8a 9e 43 bd 2c be 97 bc 39 c3 f7 bc 33 82 4a 3d
       -0.047758617 -0.018523298 -0.030244457 0.049440574
000090 2e 52 28 be 87 09 24 3c 29 18 5b 3c 19 a8 67 3c
       -0.16437599 0.010012037 0.013372459 0.014139199
0000a0 d8 72 b8 3c 90 cd 85 3d 85 2a 8c 3d 5d 20 5e 3d
       0.0225157 0.065333486 0.068440475 0.054230083
0000b0 66 a5 bd bc 74 e0 b0 bd b9 ff 16 3d 30 5b fc 3c
       -0.023150157 -0.08636561 0.03686497 0.0308052
0000c0 f7 1e 92 3c 77 a8 91 3d 0b 4a 9a 3d 1c 3a 94 3d
       0.01783703 0.0711221 0.07533654 0.07237646
0000d0 42 ed 22 bc e8 11 03 39 52 da a6 bc 68 0e f3 3d
       -0.009944262 0.00012499804 -0.020367775 0.11867982
0000e0 ab a6 36 3d 5a f6 ee 3b 7a 87 b1 3d 2e e1 17 3d
       0.04459254 0.007292551 0.08668418 0.037079982
0000f0 b1 ee 97 bc 26 74 76 3d 3d 4e 18 3d 5b a2 1f 3d
       -0.018546434 0.06016936 0.03718399 0.038973194
000100 ce b2 9c bc bf fc 64 3d 64 40 fd 3d 52 f0 9c 3c
       -0.01912823 0.0559051 0.12365797 0.019157562
000110 d9 67 13 3d 72 f7 de bd 79 ad ee 3d 00 62 bb 3d
       0.03598771 -0.1088704 0.11654181 0.091495514
000120 21 b6 da bc 45 b8 dc bc a2 3e 37 3d 56 da 4d 3c
       -0.026698174 -0.026943335 0.044737466 0.012564262
000130 71 4c 53 3d 9f a2 99 3d f0 69 38 3d ee 96 94 bd
       0.051586572 0.07501721 0.045022905 -0.0725535
000140 14 8d 87 3d 44 d6 0e be 37 fb eb bc 9c bb 2f bc
       0.066187054 -0.13948923 -0.028806312 -0.010725882
000150 ee 5c b4 3d c3 a2 8f 3d 1f b5 59 3d 8d fc 4c 3c
       0.088067874 0.07013466 0.053151246 0.012511385
000160 5f ce ae 3c 9b 74 c3 bc fd a0 16 3e 52 c5 ff 3c
       0.02133864 -0.023859313 0.1470985 0.03122202
000170 ee 3b 3b 3d a7 86 a7 bb 93 7a 09 bc e9 4c 60 3d
       0.04571145 -0.0051124874 -0.00839104 0.054760847
000180 69 1c 83 bc f6 dd 2c 3d 1f 5f 56 bd bd b9 07 3e
       -0.016004758 0.042203866 -0.05233681 0.13254447
000190 3e 65 46 3d ed 32 42 3d 0e 15 2b 3d bb c4 5d 3d
       0.048436396 0.047411848 0.041768126 0.054142695
0001a0 92 6b 1b 3d 7c 8d 6f bb 4a 06 08 3c e4 f2 e4 bd
       0.037944384 -0.0036552837 0.008302281 -0.1117914
0001b0 96 50 c2 bd 03 17 c6 3c ae 7f 3e bc 04 18 eb bc
       -0.09488027 0.024180895 -0.011627121 -0.028697975
0001c0 3e da 9d 3c f3 ec 51 3d ff 98 40 3a 48 1a bd 3d
       0.019269105 0.051251363 0.0007347017 0.092335284
0001d0 a8 bd 92 bb aa ab dc 3d a3 f5 b4 bb 6c 7a d5 bc
       -0.004478175 0.1077493 -0.0055224462 -0.026059352
0001e0 a7 85 02 bc c1 6a aa 3d cf 29 f4 3c 58 6c dc 3c
       -0.0079664355 0.08321143 0.029805092 0.026907131
0001f0 5f c3 48 3d 3f bc cb 3d 41 89 c5 3c b6 d3 33 3c
       0.049014445 0.099480145 0.0241133 0.010975769
000200 e0 20 1a 3d d2 e5 5d 3b a9 fe dc 3b 11 52 61 bd
       0.03762901 0.0033858907 0.006744225 -0.055009905
000210 90 c2 00 3e 92 bb 89 3d 6f cd 1e 3c b5 ad c5 3d
       0.1257422 0.06725229 0.009692534 0.096522726
000220 77 25 39 3d 15 ba 55 bd de c6 a6 3d 34 76 a6 3c
       0.045201745 -0.052179415 0.081434 0.020320036
000230 fb 8f c3 3d 89 a4 ce bc 2d 23 78 bc 9a bb 28 bd
       0.095489465 -0.02522494 -0.015145105 -0.041194536
000240 9a 45 09 3e 4a 65 ad 3d 7b c9 d7 bc c9 97 d2 3d
       0.13405457 0.08466585 -0.02634119 0.10282857
000250 1d 3a 97 3d de f1 c1 3c 10 00 69 be 0d 56 a3 3c
       0.07384131 0.023674902 -0.2275393 0.019938493
000260 0b bb 21 3d 32 dc 76 bc 79 8f ff 3d 94 a3 dc 3c
       0.03948502 -0.015067147 0.12478537 0.026933469
000270 1e 6a a6 3d c3 67 cd 3c 25 d4 6e 3d 04 12 4c 3d
       0.08125709 0.025073892 0.058307786 0.04982187
000280 7b cc 41 3d f2 fa 25 3a 6b 00 77 bc 54 7b 2e bd
       0.04731415 0.0006331644 -0.015075783 -0.042598084
000290 e5 e7 1c 3d ca 61 1f 3c 3b 64 e8 bc af f6 b7 3d
       0.03830709 0.009727905 -0.028368106 0.08982598
0002a0 64 b9 15 3b ed 1f ed 3c 36 c1 ed bc 6c 9c 14 bc
       0.0022846097 0.028945887 -0.029022794 -0.009070497
0002b0 b2 4b b1 3c ec 5e ec 3a dd 78 2c 3d 49 72 de 3d
       0.02164254 0.001803366 0.04210745 0.10861642
0002c0 0d 78 19 3d be 88 84 3d 09 22 e3 3d e9 60 89 3d
       0.037468005 0.06471394 0.11090476 0.06707937
0002d0 c4 4a 44 be 55 1f 12 bd b9 38 0f 3d 22 ef bd bc
       -0.19169146 -0.03567441 0.034966204 -0.023185316
0002e0 06 20 e7 bd 7e 80 86 3d 66 03 9c 3c 26 89 7d 3b
       -0.11285405 0.06567477 0.01904459 0.0038686483
0002f0 2e 9f 9a bc f8 7f 30 3c 5a b5 b9 bd f9 6b 73 3c
       -0.01887473 0.010772698 -0.09067793 0.014857286
000300 90 f4 f4 bd b7 21 c8 3d 33 7b 06 bd 74 e3 f2 3d
       -0.11960709 0.097720556 -0.032832336 0.118597895
000310 24 53 cf 3b 2c 2a a2 3c 73 1e a2 bd 76 bb b0 3d
       0.00632705 0.0197955 -0.07915964 0.08629505
000320 ed 53 ad ba 90 80 9a 3d 15 9d 42 3c 26 a3 42 3d
       -0.0013223864 0.075440526 0.011878272 0.04751887
000330 92 56 e2 3b 05 49 11 3d 25 f4 87 bd 0b ac 88 bd
       0.0069072926 0.035470027 -0.06638364 -0.066734396
000340 cb a3 22 bc 26 cb 85 3c c4 78 65 3d 31 c4 0b bd
       -0.009926747 0.01633222 0.056023374 -0.03412265
000350 3f ec 15 3e 94 04 2b 3d d0 0f 2b 3d 7f 06 81 3d
       0.14640902 0.041752413 0.041763127 0.06300067
000360 22 97 ea 3d 74 15 82 3d 8e 54 e4 3c 46 d2 be 3d
       0.114546075 0.06351748 0.02787235 0.0931745
000370 d0 28 52 3c ae ee ee bd 70 c2 5a ba 2c 97 d5 3d
       0.012827113 -0.11666618 -0.00083450135 0.10429224
000380 8f df a8 3d bf 92 1d 3d 9d 87 6b 3d 1c 13 cd 3d
       0.082457654 0.038470026 0.057502378 0.100134104
000390 b5 54 1e 3d bc 7f 67 bd 6e 3d 29 3d a6 62 3c 3d
       0.038655 -0.0565183 0.04131835 0.045992516
0003a0 ab 8a 85 bc e2 13 9a bd ee 11 d3 3c b2 9f 8c bd
       -0.016301474 -0.075233236 0.025765385 -0.06866397
0003b0 09 6a ee 3c 3d 17 ba 3c 68 e1 55 bd d0 77 c2 3b
       0.029103296 0.022716159 -0.052216917 0.005934693
0003c0 b8 53 99 3b df d2 42 3c d4 0b 6d 3d 74 ba df 3d
       0.0046791695 0.011891096 0.05787261 0.10924235
0003d0 e9 6c 90 3d b9 07 f9 bc 1d 08 36 3d e2 ee a0 3b
       0.07052023 -0.03039919 0.04444133 0.0049112896
0003e0 2a ac d4 3d 17 7b b2 3d 75 07 66 3b 0f 7a bd 3d
       0.103844 0.08714884 0.003509966 0.092517965
0003f0 4d 49 61 3c 4c e4 e1 3d 28 94 8c 3d 66 5d 60 3d
       0.013750386 0.11029872 0.06864196 0.05477657

bn1.weight f4 [400]
000000 85 02 21 3f a8 52 42 3f 0e e2 4a 3f ca 94 82 3f
       0.6289447 0.75907373 0.7925118 1.0201657
000010 8b cf 3e 3f a9 53 77 3f 12 6b 8d 3f 8f ec 54 3f
       0.74535435 0.9661203 1.10483 0.8317346
000020 f3 65 56 3f 8f 36 2e 3f 04 4f 69 3f 42 fe 65 3f
       0.8374931 0.68052 0.91136193 0.8984109
000030 f6 98 7c 3f 4e e3 56 3f 10 39 60 3f e0 c8 59 3f
       0.986709 0.8394059 0.8758707 0.85072136
000040 8f c6 47 3f 5a 4b 41 3f 1e 46 3d 3f fd a1 63 3f
       0.7803735 0.755056 0.73935115 0.8891905
000050 f1 99 5b 3f f3 9f 81 3f 4f 3c 53 3f ea a7 6a 3f
       0.8578177 1.0126938 0.825139 0.91662467
000060 fd 67 55 3f f6 ea 4d 3f 46 60 5c 3f 96 ff 62 3f
       0.833618 0.80436647 0.860844 0.88671243
000070 a4 8f 62 3f 01 1b 4b 3f 15 90 92 3f 19 b1 47 3f
       0.8850043 0.7933808 1.145022 0.78004605
000080 2c cb 63 3f 7d 9c 5f 3f 50 ca 5a 3f 8b 54 44 3f
       0.8898189 0.8734816 0.85464954 0.766915
000090 4d 5f 95 3f 98 7b 3e 3f 92 20 59 3f 44 be 59 3f
       1.1669708 0.7440734 0.84815323 0.8505595
0000a0 e5 72 77 3f 6f 3f 81 3f 97 3a 2f 3f 58 13 6d 3f
       0.9665969 1.0097483 0.68448776 0.9260764
0000b0 53 93 40 3f d0 0b b7 3f f2 18 4d 3f eb 6d 35 3f
       0.752248 1.430048 0.8011619 0.70870847
0000c0 d8 77 3f 3f 3f 08 3b 3f 00 dd 6e 3f 0c e9 57 3f
       0.7479224 0.7305946 0.9330597 0.84339976
0000d0 cd a7 83 3f c6 f1 3f 3f 10 4c 48 3f 18 e3 35 3f
       1.0285584 0.7497829 0.7824106 0.7104964
0000e0 a6 5f 41 3f 3a 95 60 3f d6 aa 3e 3f 9d 7b 68 3f
       0.7553657 0.877277 0.74479425 0.9081362
0000f0 95 8f 68 3f 72 08 7e 3f be fd 46 3f 0d ab 44 3f
       0.9084409 0.99231637 0.7773093 0.768235
000100 3e 8d 2d 3f 62 7b 48 3f 61 f5 33 3f 06 ca 4c 3f
       0.67793643 0.7831327 0.70296293 0.79995763
000110 77 4a 57 3f 08 d8 89 3f 3f d9 8b 3f f6 48 38 3f
       0.84098 1.0769053 1.0925673 0.7198633
000120 2b cb 6e 3f 66 db 3b 3f f9 0f 3b 3f 4a 98 46 3f
       0.9327876 0.7338165 0.7307125 0.77576125
000130 68 c5 42 3f cc e1 40 3f 9c 33 20 3f fe 94 97 3f
       0.7608247 0.7534454 0.6257875 1.1842344
000140 05 b7 5c 3f 51 2c 93 3f 17 e2 34 3f cb b4 3f 3f
       0.86216766 1.1497899 0.70657486 0.74885243
000150 a3 93 36 3f f8 9c 52 3f 95 29 45 3f 83 6e 3b 3f
       0.71319026 0.82270765 0.77016574 0.732155
000160 e1 52 43 3f bb ce 3d 3f f2 79 66 3f 3a ed 44 3f
       0.7629834 0.7414357 0.90029824 0.7692448
000170 96 9d 48 3f 15 54 41 3f 67 42 6e 3f 19 7a 39 3f
       0.7836546 0.75518924 0.9307007 0.7245193
000180 3f 9d 55 3f 0b aa 42 3f 32 37 54 3f 67 48 41 3f
       0.83443063 0.76040715 0.8289672 0.755011
000190 98 c9 6d 3f ae af 3f 3f 80 68 57 3f 3f 66 38 3f
       0.9288573 0.7487744 0.8414383 0.72031015
0001a0 35 f3 2e 3f 7b 2f 32 3f 81 d8 51 3f 55 ce 9f 3f
       0.68339854 0.696037 0.81970984 1.2484843
0001b0 69 29 56 3f d4 68 31 3f 36 18 71 3f 77 3f 33 3f
       0.83656937 0.6930058 0.9417757 0.70018715
0001c0 f4 46 41 3f a2 95 4a 3f 22 37 36 3f 3d a2 33 3f
       0.7549889 0.7913457 0.71177876 0.7016943
0001d0 e3 06 41 3f d0 82 51 3f 34 4c 6d 3f 3e 87 46 3f
       0.75401133 0.8184023 0.926944 0.77550113
0001e0 ed 93 40 3f 2b 08 46 3f 98 d0 44 3f f2 f5 57 3f
       0.75225717 0.77356213 0.7688079 0.8435966
0001f0 7e 13 2e 3f 96 af 2b 3f f5 b0 58 3f ea 01 89 3f
       0.6799849 0.670648 0.84645015 1.0703709
000200 3a 48 4f 3f 9b e4 55 3f e3 da 64 3f c6 4d 6d 3f
       0.80969584 0.8355195 0.89396495 0.926968
000210 60 78 37 3f 14 4d 47 3f fe d6 37 3f d8 59 4d 3f
       0.7166805 0.77851987 0.7181243 0.80215216
000220 b6 d9 3f 3f 23 da 7d 3f 4f 57 4d 3f 08 04 51 3f
       0.74941576 0.99160975 0.8021135 0.81646776
000230 e2 a2 31 3f a9 54 33 3f 78 9b 51 3f d3 ce 60 3f
       0.69389164 0.70051056 0.8187785 0.8781559
000240 2f e2 52 3f 93 09 35 3f 47 11 6d 3f cb cf 40 3f
       0.8237638 0.70717734 0.9260449 0.75317067
000250 f7 d0 74 3f 7d 4d 3b 3f 63 1d d3 3f f5 4b 41 3f
       0.95631355 0.7316511 1.6493343 0.75506526
000260 92 49 3b 3f 79 62 40 3f 86 0e 37 3f c4 d8 4b 3f
       0.73159134 0.7515026 0.71506536 0.79627633
000270 62 37 34 3f 58 8a 5a 3f fd c2 21 3f 89 77 42 3f
       0.7039701 0.85367346 0.63188154 0.75963646
000280 0e 47 50 3f f0 d1 46 3f 5b 2e 32 3f e9 bd 3f 3f
       0.8135842 0.7766409 0.6960198 0.74899155
000290 f6 8b 3a 3f 6e f3 43 3f f4 80 4d 3f 33 af 3c 3f
       0.72869813 0.7654332 0.8027489 0.7370483
0002a0 fd 1a 57 3f 8e 3d 5e 3f f3 0e 58 3f a7 01 3d 3f
       0.84025556 0.86812675 0.8439781 0.73830646
0002b0 0c 11 67 3f e8 3f 47 3f c2 ee 3f 3f 1e 95 43 3f
       0.90260386 0.7783189 0.7497369 0.7639941
0002c0 7d d1 5b 3f 05 08 4f 3f d9 18 37 3f 00 29 3e 3f
       0.8586653 0.8087161 0.7152229 0.7428131
0002d0 1a a7 ae 3f f6 97 5b 3f 26 41 37 3f cf 13 25 3f
       1.3644745 0.8577875 0.71583784 0.6448335
0002e0 d5 8e 90 3f b1 fc 44 3f 09 b1 45 3f 5e 13 62 3f
       1.1293589 0.76948076 0.7722326 0.883108
0002f0 84 c5 3d 3f 06 04 78 3f 02 5a 84 3f cf 29 32 3f
       0.7412951 0.9688114 1.0339968 0.69595045
000300 33 b0 41 3f 6c f4 26 3f 70 3e 46 3f a8 1e 3c 3f
       0.75659484 0.6521671 0.7743902 0.7348428
000310 8f 9e 55 3f 7b 60 34 3f 18 b9 5d 3f b7 a0 37 3f
       0.83445066 0.7045972 0.86610556 0.71729606
000320 3e 2f 54 3f 03 cd 3e 3f 08 08 50 3f 2b 51 46 3f
       0.82884586 0.74531573 0.81262255 0.774676
000330 06 a7 45 3f c1 66 45 3f 2f 8d 6d 3f 82 a6 5b 3f
       0.7720798 0.77109915 0.92793554 0.85800946
000340 0e 5c 60 3f e5 df 4c 3f e1 77 7d 3f 32 10 a5 3f
       0.87640464 0.80029136 0.99011046 1.2895567
000350 fc 05 52 3f 67 99 7a 3f e0 f1 37 3f 16 9c 37 3f
       0.8204038 0.97890323 0.71853447 0.71722543
000360 a4 9c 5a 3f 45 65 34 3f a5 51 55 3f c7 b6 44 3f
       0.85395265 0.70467025 0.83327705 0.76841396
000370 75 05 4e 3f ba e3 53 3f 1a 26 50 3f 97 41 61 3f
       0.80477077 0.8276936 0.8130814 0.8799071
000380 20 2d 4b 3f ea dc 41 3f a5 25 31 3f 3d 16 30 3f
       0.7936573 0.75727713 0.69198066 0.6878393
000390 7d 13 69 3f 4c 2f 55 3f 75 df 66 3f 44 bc 29 3f
       0.9104536 0.83275294 0.9018472 0.66302896
0003a0 e8 49 4f 3f b9 d0 72 3f 1a 1c 56 3f 15 a4 94 3f
       0.80972147 0.94849735 0.8363663 1.1612574
0003b0 f2 d5 5a 3f a5 42 3e 3f 87 7f 48 3f ad af 47 3f
       0.85482705 0.7432044 0.7831959 0.78002435
0003c0 c6 0a 58 3f 75 7e 4c 3f fa 88 57 3f ef 55 4a 3f
       0.8439144 0.7988046 0.84193385 0.79037374
0003d0 bc e9 43 3f 36 ae 46 3f c2 1f 2a 3f 4e e0 5f 3f
       0.76528525 0.77609575 0.6645471 0.87451637
0003e0 d9 b0 39 3f ee d4 3c 3f a5 15 30 3f 61 dc 2b 3f
       0.72535473 0.73762405 0.68783027 0.67133147
0003f0 1e 72 47 3f 9d d8 41 3f cd dc 31 3f 6f 6d 2f 3f
       0.77908504 0.7572115 0.6947754 0.6852636

bn1.bias f4 [400]
000000 24 f1 a4 be cc 03 74 be 91 c1 aa be f5 63 38 be
       -0.32215226 -0.23829573 -0.33350804 -0.1800688
000010 7b b7 35 be f7 78 a1 bd 68 d3 e8 bd bd dc 91 be
       -0.17745773 -0.078844 -0.113684475 -0.28488722
000020 e8 f8 37 be 7c 30 83 be 50 b5 ca be 00 af 18 be
       -0.17966044 -0.25622928 -0.39591455 -0.14910507
000030 ed fa f6 bd 9c 1a 90 be 63 3f 11 be a6 3a 1d be
       -0.12059579 -0.281453 -0.14184336 -0.15354404
000040 ff f7 7a be 2c 32 62 be 5b a0 aa be 92 6e 4d be
       -0.24508666 -0.22089452 -0.33325467 -0.2006171
000050 49 c8 01 be 6d ab eb bd 65 72 72 be a6 d1 5d be
       -0.12674059 -0.11507306 -0.2367645 -0.21662006
000060 b0 00 59 be 46 98 6b be f0 14 1d be db 2d 12 be
       -0.21191669 -0.23007306 -0.15340018 -0.14275305
000070 84 b9 5a be 61 3c 84 be 10 eb 5b bd a2 d2 75 be
       -0.21359831 -0.25827315 -0.05369097 -0.24006131
000080 16 b2 b8 be 0e 81 5f be c1 b4 57 be 64 78 97 be
       -0.3607337 -0.21826574 -0.21065046 -0.29584038
000090 93 58 f0 bd 59 4b 86 be 3e 4b 17 be 30 9a 93 be
       -0.11735644 -0.2622936 -0.14774796 -0.28828573
0000a0 60 04 14 be ab ae bd bd 14 8e a4 be 3d a5 d3 bd
       -0.14454794 -0.09261831 -0.32139647 -0.10334251
0000b0 85 86 82 be 7e 33 5f bd 20 7d 41 be 59 a0 ab be
       -0.25493255 -0.054492466 -0.18895388 -0.33520773
0000c0 ae 45 8c be b3 60 76 be 18 65 cf bd e0 4a 6d be
       -0.2739691 -0.24060325 -0.10126704 -0.23173094
0000d0 1b 75 91 bd ef 30 7b be d0 2d 84 be f4 17 92 be
       -0.07102414 -0.24530385 -0.25816202 -0.285339
0000e0 07 23 95 be ae 5f 53 be 82 0f 6d be 69 1b 56 be
       -0.29128286 -0.20641968 -0.23150447 -0.20908894
0000f0 9b fd 27 be 35 93 f2 bd 34 50 71 be 19 bf 73 be
       -0.16405337 -0.11844484 -0.23565751 -0.23803367
000100 09 8c 95 be f0 3e 80 be 4b e3 92 be f9 09 7c be
       -0.292084 -0.25048018 -0.28689036 -0.2461318
000110 ba 1f 47 be c5 04 c0 bd 34 67 07 bd ac 86 81 be
       -0.19445696 -0.0937591 -0.033057407 -0.2529806
000120 cf 0c 8b be d6 04 6f be 44 cf 8b be fb 80 48 be
       -0.2715821 -0.23341689 -0.2730657 -0.19580452
000130 f8 48 6c be 37 6c 90 be 19 ae a0 be 12 44 32 bd
       -0.2307471 -0.2820756 -0.31382826 -0.04352195
000140 79 5c df bd c9 28 e0 bd 47 3d 3f be da 2e 9f be
       -0.1090631 -0.10945279 -0.18675719 -0.31090432
000150 0b 07 90 be 08 fc 23 be e8 23 58 be 41 70 86 be
       -0.28130373 -0.16014111 -0.21107447 -0.26257518
000160 6b d1 73 be 95 da 92 be aa 77 5d be 69 4d 91 be
       -0.23810355 -0.2868239 -0.2162768 -0.28379372
000170 16 f3 46 be 82 b9 83 be ff 1c d1 bd af d5 6c be
       -0.19428667 -0.2572747 -0.10210609 -0.23128389
000180 7d 8f 87 be a7 e4 5e be 31 6c 65 be b6 d7 50 be
       -0.2647666 -0.21766911 -0.22404553 -0.20394787
000190 35 fc 47 be 87 aa 97 be 50 a9 8b be a8 88 8e be
       -0.19529803 -0.2962229 -0.27277613 -0.27838635
0001a0 92 d0 8b be 08 8d 72 be 03 09 56 be 14 5f 19 bd
       -0.27307564 -0.23686612 -0.20901875 -0.03744419
0001b0 2c 58 6c be 23 49 86 be 52 f5 35 be 89 c1 31 be
       -0.2308051 -0.26227674 -0.17769364 -0.17358984
0001c0 4a 5d 63 be d1 59 88 be 9d d7 8f be b9 b0 9a be
       -0.22203556 -0.26631024 -0.28094187 -0.30212954
0001d0 0a ef 72 be df d8 55 be 15 4d 96 be 35 cc 85 be
       -0.23723999 -0.20883511 -0.29355684 -0.2613236
0001e0 cf 5b 4b be dc cf 40 be 5b 7c 3a be 04 cc 81 be
       -0.19859241 -0.18829292 -0.182115 -0.25350964
0001f0 5a 40 9c be 57 f7 77 be 34 ca 21 be a2 17 c5 bd
       -0.30517846 -0.24215446 -0.1579979 -0.09623648
000200 12 9d 8d be 5c ac 4c be 36 fa 44 be 6c 91 5a be
       -0.27658898 -0.19987625 -0.19236073 -0.21344537
000210 66 ce e0 bd 5d d7 92 be 70 20 9f be 6c cc 80 be
       -0.109768674 -0.28679934 -0.31079435 -0.25155962
000220 0a a9 92 be 73 d0 20 be c6 b7 6e be bd 6b 39 be
       -0.28644592 -0.15704517 -0.23312292 -0.18107505
000230 dd 11 6f be 1d 64 80 be fe 32 6a be f8 19 4c be
       -0.23346658 -0.2507638 -0.22871014 -0.19931781
000240 42 ce 4f be 6c 83 84 be cc 07 5f be 40 26 80 be
       -0.20293525 -0.25881517 -0.21780318 -0.25029182
000250 53 5e 28 be ad ae 7a be be 5d 20 3d 8a 01 7f be
       -0.16442232 -0.24480696 0.0391519 -0.24902931
000260 d7 0b 63 be c9 80 6b be b4 f6 8f be 3a dd 6d be
       -0.22172485 -0.22998346 -0.28117907 -0.23228922
000270 ca e1 8c be dc 62 2c be e4 a7 6b be a4 02 61 be
       -0.27516013 -0.16834587 -0.23013264 -0.21973664
000280 76 5f 51 be 54 ef 6a be 6a 0b 91 be c0 6f 96 be
       -0.20446572 -0.22942859 -0.2832902 -0.29382133
000290 6c 83 7c be 8c d6 4d be 99 39 66 be 9e 4b 82 be
       -0.24659508 -0.20101374 -0.2248291 -0.25448316
0002a0 16 d8 21 be cd fe 8d be 8d 94 3a be 09 cf 86 be
       -0.15805086 -0.2773346 -0.1822073 -0.2632983
0002b0 0b 34 22 be 13 e1 8a be 18 1e 8c be 54 59 67 be
       -0.15840165 -0.27124843 -0.2736671 -0.2259267
0002c0 86 f8 40 be 64 0e 64 be 8f 9c 7d be 38 fd 69 be
       -0.18844804 -0.22271115 -0.24766754 -0.22850502
0002d0 49 60 9c bd 9d 9c 5a be 26 2f 5a be cb 1a d0 be
       -0.076355524 -0.21348806 -0.21307048 -0.4064544
0002e0 22 2e d0 bd 5e 0f 89 be c1 0e 78 be 8d 50 1c be
       -0.10165049 -0.26769537 -0.24224378 -0.15265103
0002f0 a0 f7 2e be 59 c1 de bd bd d2 41 be c4 38 64 be
       -0.17086649 -0.10876722 -0.18928047 -0.2228728
000300 b9 3d 8d be 48 fc 9a be 2c 3f 63 be 0c 39 87 be
       -0.27586153 -0.302706 -0.22192067 -0.2641071
000310 24 e5 56 be 0f 94 98 be 97 b5 4c be 23 e6 95 be
       -0.20985848 -0.2980046 -0.19991146 -0.29277143
000320 40 85 55 be cc 0b 58 be ce 6c d0 bd 5e b5 9d be
       -0.20851612 -0.2109825 -0.10177003 -0.30802435
000330 b6 bb 84 be 55 21 66 be 19 aa df bd 28 37 2c be
       -0.25924462 -0.22473653 -0.109211154 -0.16817915
000340 0f fb 1e be c4 19 85 be fe 12 0c be d5 2d 7d bd
       -0.15525459 -0.2599622 -0.1367912 -0.061811287
000350 ea 96 7a be 79 1a 2a be ea da 61 be 37 6a 8a be
       -0.24471632 -0.16611661 -0.22056165 -0.2703416
000360 01 60 5b be 07 96 33 be 5c 15 46 be 0a 70 5f be
       -0.21423341 -0.175377 -0.19344085 -0.21820083
000370 70 ab 51 be e2 f9 6b be a3 57 61 be c6 15 6c be
       -0.20475554 -0.23044541 -0.22006087 -0.23055181
000380 84 83 4e be 26 c4 47 be 4b 7e 81 be 46 d0 9e be
       -0.20167357 -0.19508418 -0.25291666 -0.31018275
000390 50 b4 16 be 6a ac 28 be ac de 16 be 73 ce 8c be
       -0.14717221 -0.16472021 -0.1473338 -0.27501258
0003a0 b3 a8 30 be 44 85 19 be 36 55 95 be 8c 86 ed bc
       -0.17251854 -0.14992243 -0.29166573 -0.028994821
0003b0 6c ba 50 be 22 f7 4f be b3 c5 63 be 0b 95 89 be
       -0.20383614 -0.20309117 -0.22243385 -0.26871523
0003c0 5e 5a 8c be 17 3b 7f be 80 02 47 be df 9a 7b be
       -0.27412695 -0.24924885 -0.19434547 -0.24570797
0003d0 69 dd 4c be 7f 88 5d be 10 ad a8 be d0 f8 3a be
       -0.20006336 -0.216341 -0.32944536 -0.18258977
0003e0 72 40 57 be 7c 32 7a be 20 2e 99 be f6 4b 9b be
       -0.21020678 -0.24433321 -0.29918003 -0.3033139
0003f0 68 3c 88 be 7a 64 8f be 4d 8a 92 be 00 09 9f be
       -0.26608586 -0.28006345 -0.2862114 -0.31061554

fc2.weight f4 [300, 400]
000000 64 d5 8d bd b7 71 f9 3c 4b c9 53 3d 16 e1 23 bd
       -0.06925467 0.030449731 0.05170564 -0.04000958
000010 35 e9 16 3e 9e ed 11 be 42 ae 9f bb 4e ed e3 3d
       0.14737399 -0.142508 -0.004873068 0.11129247
000020 59 8a a6 bc 2a 1f c2 3c 08 b8 86 3c a4 7d 26 bd
       -0.020329641 0.0236965 0.016445175 -0.040647164
000030 a1 42 01 bd f1 61 e8 3d b3 21 91 bd b8 cf 03 bd
       -0.031557683 0.11346806 -0.07086506 -0.032180518
000040 05 e2 81 3d f0 be 85 3d 24 fe e4 3c 70 92 0c 3d
       0.06341938 0.06530559 0.027953215 0.03431934
000050 c1 bd f0 3b 33 71 97 bc 84 ec fb 3a a2 c3 99 3c
       0.007346839 -0.018486595 0.0019220267 0.018770043
000060 2d ae 92 3d c9 bb 2e 3d 3c 18 d1 3d 8e 8a a4 bd
       0.07162128 0.042659555 0.102097005 -0.0803424
000070 22 85 e7 3b 43 92 1d bd d2 8e 81 3c fb c3 a2 bd
       0.007065431 -0.038469564 0.015815172 -0.079475366
000080 7a f1 1e 3d 4f 9c 05 be 35 50 e2 3d e4 5c 7a 3d
       0.03880451 -0.13047908 0.110504545 0.061123744
000090 f5 64 c1 3c 23 78 5d 3c 70 28 ae 3d 24 0f 60 3d
       0.02360771 0.013517412 0.085038066 0.05470194
0000a0 92 b2 d7 3d 80 dc fc bd cb 72 90 bd a3 e8 a7 3d
       0.105321065 -0.123467445 -0.07053145 0.08198669
0000b0 91 8e 94 3d 73 26 36 bd a2 07 05 3e e4 23 9e 3d
       0.07253755 -0.04447026 0.12991193 0.07721689
0000c0 4d e5 22 3d 86 42 98 3c 98 a1 51 3b 8d 8f 8a 3d
       0.03976946 0.018586408 0.0031987187 0.067656614
0000d0 e1 23 0b 3e 1f 71 0e 3c a1 4b b7 3d 6b b9 b4 3c
       0.13587905 0.008693962 0.08949972 0.02206107
0000e0 06 a2 d5 bb d3 f2 18 3d 6a a9 db 3c 7d 06 1d bd
       -0.006519559 0.03734095 0.026814181 -0.038336266
0000f0 66 32 ac 3d a1 23 2f bd d1 1d 96 3d 4b d8 a4 bc
       0.0840805 -0.042758588 0.07329906 -0.020122668
000100 93 fb df 3c a9 20 32 3c 44 6e 7c 3b d4 df be 3c
       0.02734164 0.010872045 0.0038517872 0.023300089
000110 8c b4 a5 3c b9 c7 17 3e e1 2e c6 bb 00 c8 98 3d
       0.020227693 0.14822282 -0.006048069 0.07460022
000120 21 1e c5 3b ea ef 54 3d 17 46 43 3d b6 7a 17 bd
       0.0060155545 0.051986612 0.047674265 -0.03698226
000130 5d 25 b0 bc de 41 d9 bd 96 41 d4 bc 44 69 7b 3d
       -0.021502191 -0.10608266 -0.02591018 0.061379686
000140 cd 33 ba 3d d5 a8 fb bd 50 f4 38 bc b3 28 26 bc
       0.090919115 -0.122880615 -0.011288717 -0.010141539
000150 46 e1 fe 3a 02 26 33 3d 65 3f 13 3d 76 a7 3c 3d
       0.0019445799 0.04373742 0.03594913 0.04605814
000160 93 a8 89 bc 40 4c 20 bc ef fd 01 3d 61 dd f3 3d
       -0.016804015 -0.009783804 0.03173631 0.11907459
000170 30 e8 75 bb 4b e7 d5 3d 31 d4 ff 3d 7a 32 30 3c
       -0.0037522428 0.10444506 0.12491644 0.010754222
000180 75 1b 5e bc e9 ca b4 3d 03 c9 66 bc 70 e3 0a 3d
       -0.013556351 0.088277645 -0.014086011 0.033908308
000190 3d 4a f5 bc 85 02 17 3c 07 df c7 3b b4 fe 49 3d
       -0.029942626 0.009216909 0.006099585 0.04931517
0001a0 0f d5 91 ba 7d ad ec ba 18 4e 8b 3d a8 b2 e5 3b
       -0.0011126118 -0.0018057075 0.068020046 0.007009823
0001b0 9c 33 3c 3d d2 2a 6e 3d 0e a0 a0 3d 4e 0c f8 3d
       0.045947656 0.058146305 0.07843028 0.12111722
0001c0 c7 2c eb 3d de c4 1d 3d 07 98 32 bc c6 14 db bc
       0.1148315 0.038517825 -0.010900504 -0.026743304
0001d0 7a 39 13 bd 86 ea 4d bd 94 70 af 3d ed 07 2e 3d
       -0.035943486 -0.050272487 0.085663944 0.042488027
0001e0 fe 3f a8 3c b4 6f 47 3d 56 ba 12 3d 84 54 19 3d
       0.020538326 0.048690513 0.035822235 0.037434116
0001f0 ce 06 48 3d 2c ad 99 3d 72 97 80 3d 2f 2e 16 3c
       0.048834614 0.07503733 0.06278886 0.009166284
000200 22 06 55 3d 9b 37 d4 bc 56 ab 91 bd c0 62 2e 3d
       0.0520078 -0.025905421 -0.07112758 0.042574644
000210 22 db 61 3d b9 59 a8 bc 93 e9 da 3d 5e 56 0b 3d
       0.055140622 -0.020550596 0.10689082 0.034017913
000220 42 e0 58 3d 48 c3 31 bc 3e ab 23 3d e4 01 7a bd
       0.052948244 -0.010849781 0.03995823 -0.06103696
000230 12 5c da bd a7 40 0e bd 53 a7 6e 3c 38 a6 aa 3d
       -0.10662092 -0.034729626 0.01456626 0.08332485
000240 97 94 13 3e de ba aa bc 95 05 ba 3d db 5c df 3d
       0.14412151 -0.020841058 0.09083096 0.10906383
000250 2a 7b 58 bd 9d 5b af 3d f5 12 26 3e df aa 5a 3d
       -0.052851833 0.08562396 0.16218169 0.05338561
000260 be 30 f7 3c 3e 39 54 3d ce ff ad bd 86 a3 f6 bc
       0.03017461 0.051812403 -0.084960565 -0.03010727
000270 0b d5 e1 3c bd a6 cf bc 9c 26 92 bd 7b d2 d4 3d
       0.027567407 -0.025348062 -0.071362704 0.103917085
000280 b3 50 a4 bd 4d e1 98 3d 6d 53 75 3d b1 bd 4e bd
       -0.08023205 0.07464848 0.059894014 -0.050473873
000290 71 74 a0 3d 4d a9 98 bd 51 ee 5f 3d e5 c5 43 3d
       0.078347094 -0.074541666 0.054670636 0.04779615
0002a0 b1 93 05 3e 41 d6 9d 3c ff c5 a4 3d eb 97 04 3d
       0.13044621 0.019267203 0.08045577 0.032371443
0002b0 f6 b9 05 3d fb 46 ef 3c 0f ca 2a 3d ad 78 31 bd
       0.03264805 0.02920865 0.041696604 -0.043327976
0002c0 98 5e 9d bd 0b 9a 24 bd e2 1e 21 bd 60 dc 78 3c
       -0.07684058 -0.04018597 -0.039336093 0.01518926
0002d0 ed 56 08 3e 0c e4 17 3e 89 1c ac 3d d6 93 a2 bd
       0.1331441 0.14833087 0.0840388 -0.07938354
0002e0 89 58 40 bd b0 92 51 bd 50 0c 0b 3d 18 32 14 3b
       -0.046959434 -0.051165283 0.03394729 0.0022612866
0002f0 c8 1b 92 3c 03 a4 56 bc 7f 8d 9e 3d 2d bb 08 3c
       0.017835513 -0.013100627 0.07741832 0.008345407
000300 a7 17 07 3d 84 10 b3 bc d4 e5 9c 3d d4 e4 f4 3b
       0.03298154 -0.021858461 0.07661024 0.0074735675
000310 ae 8e dc 3c ab e6 b1 bd 98 56 d4 3d f2 ca ea bd
       0.026923504 -0.086865745 0.10368079 -0.1146449
000320 df 7f 6d bd 71 f3 e4 3c 67 8c 78 bc da bc 3c bd
       -0.057983276 0.027948113 -0.015170193 -0.04607854
000330 46 f1 51 bb 7d 29 89 bc fa 4b b8 3d b9 9f 53 3d
       -0.003203468 -0.016743416 0.089988664 0.051665995
000340 15 24 ac bd f8 80 3d 3d d8 fd 6f 3d 05 1a d0 3d
       -0.084053196 0.046265572 0.058591694 0.10161213
000350 41 f3 bf bc 3d 78 b1 3c 7c 24 6f 3d 94 84 8e bd
       -0.023431422 0.02166378 0.058384404 -0.06958881
000360 e6 7e 2d 3d 8d aa 21 3d 52 05 d6 3c 34 f6 91 bc
       0.042357348 0.03946929 0.026125584 -0.017817594
000370 50 6c 5f bc ad 56 84 bc 77 c5 ad 3d b9 d3 15 3d
       -0.013636664 -0.016154611 0.08484929 0.036578868
000380 61 93 f7 3c 94 1c 6e 3c 02 da ae bb 3b fe 81 3d
       0.030221643 0.014533181 -0.005336047 0.06347319
000390 b4 21 bc bd 97 96 8c 3d 24 46 f6 3d d0 37 bf bd
       -0.09186116 0.0686466 0.12025097 -0.09336817
0003a0 13 8a 50 3d 5c f5 fe bb fa 66 c3 3d 9b 4f dc bd
       0.050912928 -0.007780714 0.095411256 -0.10757371
0003b0 cd be fc 3c 7a 2c ec 3d 35 f0 78 bd 2b 95 8d 3c
       0.0308527 0.11531921 -0.060775954 0.017283043
0003c0 dd 08 3c 3d c5 ac 27 3e 28 4e df bc ed 36 8b 3d
       0.04590689 0.163745 -0.027258947 0.06797586
0003d0 4b 22 a4 3b 6f 6c 88 bb bb 05 97 ba f0 ce fc 3c
       0.005008971 -0.004163317 -0.0011522094 0.030860394
0003e0 5a 5f 75 bd ac 31 48 bd c6 14 a9 bc fb 09 a4 3d
       -0.059905387 -0.048875496 -0.020639788 0.08009716
0003f0 1d aa cd bc c2 89 6b 3c 86 09 df 3c 2e d7 40 ba
       -0.02510553 0.014376106 0.02722622 -0.0007356283

fc2.bias f4 [300]
000000 9b 0c 06 bc 5d bc 43 3d c6 5b 96 3d e7 83 ab 3b
       -0.008181716 0.04778706 0.07341723 0.00523423
000010 61 a9 14 3d 4f 4d b0 3c c9 8a ca 3d 39 b0 ce 3b
       0.036294345 0.021521239 0.098897524 0.0063076285
000020 c3 47 e2 bb e4 86 5f 3c f6 fa 54 bc d5 72 f0 3c
       -0.0069055273 0.013643 -0.012999287 0.029351631
000030 28 83 9e 3d 8a 07 08 3d b4 e3 9a 3d 00 d5 a3 3d
       0.0773986 0.033210315 0.07562962 0.07999611
000040 1c 19 15 bc a1 ba 9a 3b 40 ca 22 3d 6e e6 8e 3a
       -0.009100225 0.004721955 0.039743662 0.0010902414
000050 ec 07 8e 3d a8 eb 38 3d e3 6e 1a 3e 43 a9 50 3d
       0.06935105 0.045146614 0.15081362 0.05094267
000060 be 91 c6 3d 57 37 cd 3b 27 9f 29 bc 56 7e 7c 3d
       0.09695767 0.0062627005 -0.010352886 0.06164392
000070 8b 85 9d 3c 4d e2 98 3d c7 17 76 3b 68 b8 a8 bb
       0.019228717 0.074650384 0.0037550793 -0.005148936
000080 d3 b8 9c 3d c4 4f 4f 3d 8d 2b 8d 3d db b4 76 3d
       0.0765244 0.05061318 0.06893072 0.06023107
000090 48 50 0f 3c cf 8d ca 3d 6d b5 8c bc 0b 94 ad 3a
       0.008747168 0.09890329 -0.017176354 0.0013242973
0000a0 59 fe 34 3d 6b ce 60 3d 8c 1b df 39 a4 65 96 3c
       0.044187877 0.054884356 0.00042554399 0.018359013
0000b0 8c 2e fd bc 4b 8f e5 3c 24 51 48 3d 3d 6d 70 3d
       -0.030905984 0.028022429 0.048905507 0.058697928
0000c0 b3 50 3c 3d db 3b 8b 3d 2a d0 b1 3d 46 d6 42 3d
       0.0459754 0.06798526 0.08682282 0.04756763
0000d0 f2 c5 ce 3c 2e 10 9c bc 43 e1 79 3d 46 1f 34 bc
       0.025240872 -0.019050684 0.061005842 -0.010993784
0000e0 87 cd a0 3b 62 df 8b 3d 23 b4 df 3c 7a 15 5f 3d
       0.0049073133 0.06829716 0.027307576 0.05446384
0000f0 d5 ff 77 3d d2 8f f7 3d a2 88 57 3d 19 0b 1e 3c
       0.060546715 0.120879784 0.052620538 0.009646201
000100 b9 4f 6a 3d b5 cc 01 bc 67 39 a9 3c 01 d0 24 3d
       0.057204936 -0.007922341 0.020657254 0.04023743
000110 22 03 8a 3d f8 e5 aa 3d 05 06 8e 3e 03 8f 98 3b
       0.06738879 0.08344644 0.27738968 0.00465572
000120 86 b3 c2 3c 4f c6 08 3d 63 6c 29 3a 19 2a b8 3c
       0.023767244 0.033392247 0.0006462989 0.022481011
000130 e4 81 70 bc 97 f2 87 3c ba c0 8a 3c 48 de 93 3d
       -0.014679406 0.016595168 0.016937602 0.07220131
000140 74 e8 67 bc a2 fc 1b bb 58 d8 08 3d 35 29 9e 3b
       -0.014154542 -0.0023801704 0.033409446 0.0048266896
000150 16 00 82 3b 2f 30 93 3d ba 7f 93 3c 07 aa 97 3d
       0.0039672954 0.07186925 0.01800524 0.07405477
000160 db e0 dc b9 8e 65 6b bb 6c dd 16 3d 4d 30 38 3d
       -0.000421292 -0.0035918686 0.036832258 0.04496794
000170 23 f6 f4 bb 4f 86 7e 3d a9 51 39 3b 84 ad d8 3c
       -0.007475631 0.062139805 0.0028277433 0.026449926
000180 94 3d 2b 3c be 2b 1e 3d 7e 7d 88 3c 69 be 14 3d
       0.010451693 0.038615935 0.016661402 0.0363144
000190 ab dc c7 bb b8 9b 16 3e 3a 88 39 3c c1 99 7d 3d
       -0.0060993037 0.1470784 0.011323983 0.06191421
0001a0 46 13 6f 3d 44 54 96 3d bf a2 2b 3d 23 2a b8 3c
       0.05836799 0.07340291 0.041903254 0.02248103
0001b0 fa b4 71 3d a9 45 e4 3c e4 c2 36 3d 36 e0 62 3c
       0.059010483 0.027865248 0.044619456 0.013847401
0001c0 bd e9 3b 3d 55 66 08 bc fc 10 52 bc 53 c3 79 3a
       0.045877207 -0.008325179 -0.012821432 0.0009527702
0001d0 36 ec 16 bc b0 de 15 3d 00 29 10 3d 5f 8a 0f 3c
       -0.0092115905 0.036589324 0.03519535 0.008761018
0001e0 8f 62 a5 3c 9b db 26 3e 5a 34 81 bc 1a f0 60 3c
       0.020188598 0.1629471 -0.015772033 0.01372912
0001f0 b3 35 fd 3c 4f d5 3d bb be e6 98 3d 43 d7 ec 3c
       0.030909395 -0.0028966253 0.074658856 0.028911239
000200 98 10 69 3c ff fb 1f bc 70 34 eb 3c ca 64 10 3c
       0.014225148 -0.00976467 0.028711528 0.0088130925
000210 fc d6 cb 3b af ac b0 bc 73 b9 4c 3d fe e9 1c 3d
       0.0062206965 -0.021566717 0.049981546 0.03830909
000220 f7 b5 9c 3c f4 1f 46 39 23 5c 00 bc 99 61 37 3d
       0.019129736 0.00018894655 -0.007834467 0.04477081
000230 bd 20 81 3d 01 37 02 3d d9 5a 6f 3d 3b 4c 41 bc
       0.063050725 0.031790737 0.05843625 -0.01179796
000240 ea be 3b 3d c5 d5 cf 3b e4 6b 9f 3d 98 d9 a5 3c
       0.045836367 0.006342622 0.077842504 0.020245358
000250 06 fc b3 3d aa ec c6 b8 f8 9d 07 3d 7e 35 38 3d
       0.08788304 -9.485458e-05 0.033109635 0.04497289
000260 97 88 4c 3c e5 7f 94 3d 90 71 26 3c 1b ef aa bb
       0.012483737 0.072509564 0.010158911 -0.005216492
000270 c9 eb 98 bb b3 76 80 3d f3 3e 11 3d 0e 65 b4 3c
       -0.0046667797 0.0627264 0.035460424 0.022020843
000280 ec f4 25 3d 1a cb db bb ec e1 fb bc 9c 99 2d 39
       0.04051678 -0.006707561 -0.030747376 0.0001655579
000290 50 4d 45 3d 66 54 fa 3c 4e 46 83 3c 88 26 31 3d
       0.048169434 0.030557822 0.016024735 0.043249637
0002a0 dd e9 9e 3c 94 9b 94 3d c8 3f 75 3d 76 55 19 3b
       0.019398624 0.07256237 0.05987528 0.0023396886
0002b0 bd 20 82 3d c9 47 88 3d ae 87 95 3c 0a 75 b6 3c
       0.063539006 0.06654317 0.018253174 0.022272605
0002c0 68 ae 41 3d c4 f2 c4 bc 7a 2e 1c 3d eb 7b 93 3c
       0.047285467 -0.02404154 0.03813026 0.018003425
0002d0 8c d8 64 3c f0 f2 70 3b 7a 90 58 3d 4f 3d 2c 3d
       0.013967644 0.0036765896 0.05287216 0.042050656
0002e0 87 1b 08 bd 84 04 0c 3d 77 c1 49 3d 8e cb 5c 3d
       -0.033229377 0.034183994 0.049256768 0.053905062
0002f0 b5 b6 e3 bb 64 af 5d 3c c4 4f be 3c f1 91 1c bd
       -0.0069492706 0.013530586 0.023231395 -0.038225118
000300 70 76 8d 3d c9 0e 5d bc df 24 c8 3c 40 a0 0e 3d
       0.06907356 -0.013492295 0.024431644 0.034820795
000310 a0 e2 e7 3c c2 0b 69 3d 7f 7e b0 bc fc 2b 0c bd
       0.028306305 0.05689598 -0.021544693 -0.034221634
000320 a6 1e 26 3d 0a df 61 3d b3 31 81 3d d3 2f fd 3c
       0.040556572 0.055144347 0.063083075 0.030906593
000330 e6 43 92 3d ff ee 4d 3d 8e ed 8c 3d 4d c6 14 3c
       0.07141857 0.050276753 0.068812475 0.009080482
000340 e8 71 82 3c f3 f3 63 3c 49 23 3e 3d fc a7 05 3d
       0.015923455 0.0139131425 0.04642037 0.032630906
000350 85 60 1f bc 67 37 3a 3c 12 7c 89 3d f3 d3 b9 3d
       -0.009727602 0.011365748 0.06713118 0.09073629
000360 dd 11 b7 3c 29 90 98 3d 81 fa 85 3d ba 86 3a 3d
       0.022347385 0.07449371 0.065419205 0.04553864
000370 b3 61 11 ba 34 d8 d2 bb 17 fe 57 3d 21 01 14 bc
       -0.00055458694 -0.006434465 0.052732553 -0.009033472
000380 38 f6 13 3b 6a 60 44 3e d4 9d 30 3d 11 43 fe 3c
       0.0022577178 0.19177404 0.043119267 0.03103784
000390 cd 69 1b 3e c6 9f 4f 3d 09 34 02 bb 75 5c 9d 3d
       0.15177079 0.05068948 -0.001986744 0.076836504
0003a0 e3 31 62 bc aa 39 93 3d d9 5f 12 bc 19 b9 7c 3c
       -0.013805839 0.07188733 -0.008933985 0.01542499
0003b0 88 7a f1 3b 83 3a 39 3d 4f 13 17 3e e1 e6 86 3d
       0.007369343 0.045221817 0.1475346 0.065870054
0003c0 ef f6 38 3d db 46 85 3b e5 70 c6 3c 5b 92 d4 bc
       0.04515737 0.0040672845 0.024223754 -0.025948694
0003d0 d4 4b 0c 3d 52 b4 f5 3c 1e 50 fe 3c 87 5c a5 3c
       0.034252003 0.02999321 0.031044062 0.020185722
0003e0 ce 93 f1 3c 5a 20 34 3c 2b 0b fa 3b 17 40 72 3b
       0.029489424 0.010994041 0.007630726 0.003696447
0003f0 26 ba 75 3d 6a 5b f2 3d 0e 44 d3 bb d6 be 22 3c
       0.059991978 0.11833842 -0.0064473217 0.009933194

bn2.weight f4 [300]
000000 4e 11 d0 3f 28 28 b4 3f 12 b4 96 3f dd 94 9f 3f
       1.6255281 1.4074755 1.1773703 1.2467304
000010 15 c8 86 3f a2 ad 91 3f 2d 7b 2d 3f b0 55 60 3f
       1.052981 1.1381114 0.67766076 0.8763075
000020 27 38 63 3f 20 d3 8e 3f 12 82 9c 3f 05 07 85 3f
       0.88757557 1.115818 1.2227194 1.0392767
000030 87 b9 98 3f ef f6 2d 3f 77 a2 89 3f 25 42 0a 3f
       1.1931618 0.67954916 1.0752705 0.5400718
000040 13 b5 a9 3f c3 dd 89 3f 6b 76 9e 3f 08 0a 9c 3f
       1.3258384 1.0770801 1.2379888 1.2190561
000050 d3 fb 98 3f 9b d1 6b 3f cf 1a e3 3e d3 35 b9 3f
       1.1951851 0.9211671 0.4435639 1.4469551
000060 3b 30 02 3f ea c3 a7 3f 3d cd ac 3f 12 77 c1 3f
       0.50854844 1.3106663 1.3500134 1.5114462
000070 b9 b5 9a 3f da 38 06 3f 0e 8a 65 3f 9d 3c 82 3f
       1.2086707 0.524305 0.8966378 1.0174748
000080 98 82 8e 3f fe b2 98 3f 91 62 33 3f 4c de 44 3f
       1.1133604 1.1929624 0.70072275 0.769017
000090 56 fe bf 3f 88 1f 08 3f 0d e5 93 3f 66 56 84 3f
       1.4999492 0.5317311 1.1554276 1.0338867
0000a0 60 21 99 3f 30 d5 a0 3f 42 c2 95 3f e5 50 6b 3f
       1.196331 1.256506 1.1699908 0.9192031
0000b0 3a 2a 99 3f 3f 6f 7c 3f d7 a4 9b 3f 9a 45 ab 3f
       1.1966012 0.9860725 1.215968 1.3380616
0000c0 6a 7d 86 3f 19 67 54 3f 6f 20 2a 3f 03 91 53 3f
       1.0507023 0.82969815 0.6645574 0.82643145
0000d0 21 28 78 3f ab 6a 8a 3f a3 7d 9c 3f 3e ad a0 3f
       0.9693623 1.0813802 1.2225841 1.2552869
0000e0 0b 39 87 3f 36 17 86 3f 3b 6e 89 3f bb a7 84 3f
       1.0564283 1.0475833 1.0736765 1.0363687
0000f0 f1 12 8b 3f 0c 08 ef 3e 91 b7 ba 3f 5c 3f 91 3f
       1.0865155 0.46685827 1.458727 1.1347461
000100 a9 9b 8f 3f 17 e2 9f 3f 41 73 9f 3f e8 c7 95 3f
       1.1219379 1.2490872 1.2457048 1.1701632
000110 be c7 90 3f e3 c3 71 3f 1d c8 6f 3e 39 ae 81 3f
       1.1310956 0.94439524 0.23416181 1.0131294
000120 1c 96 8a 3f 02 22 b6 3f cc 49 98 3f 1e 19 99 3f
       1.082706 1.4229128 1.1897521 1.196079
000130 a5 59 69 3f f0 28 98 3f ae d1 8e 3f df 91 7a 3f
       0.9115241 1.1887493 1.1157739 0.9787883
000140 54 fb b9 3f 4e 24 75 3f 72 43 84 3f c1 2d 99 3f
       1.4529824 0.9575852 1.0333083 1.1967088
000150 da f0 89 3f 4d cb 71 3f a8 6d 94 3f 3c 82 f0 3e
       1.0776627 0.9445084 1.1595964 0.4697436
000160 8e e7 55 3f 05 b1 89 3f df aa 7e 3f 2a 95 a8 3f
       0.8355645 1.0757147 0.9947948 1.3170521
000170 fe e2 8d 3f aa 86 87 3f 5a 49 89 3f 4c 38 88 3f
       1.1084898 1.0587971 1.072551 1.064218
000180 30 03 d5 3f e8 f7 5c 3f 84 25 3d 3f 33 df 8e 3f
       1.6641598 0.86315775 0.7388537 1.1161865
000190 f0 54 d3 3f ab 74 d7 3e f7 d6 49 3f 3e 92 99 3f
       1.6510296 0.42081198 0.78843635 1.1997755
0001a0 59 48 97 3f bc 0f 71 3f 1c b2 9a 3f 92 98 83 3f
       1.1818954 0.94164634 1.2085605 1.0280936
0001b0 b8 ec 8c 3f 7c 67 b7 3f 7f 0d 9c 3f 3a 00 a0 3f
       1.1009741 1.4328456 1.2191619 1.2500069
0001c0 90 c1 8b 3f 88 47 67 3f fb f9 81 3f bf 6b 8b 3f
       1.0918446 0.90343523 1.0154413 1.0892256
0001d0 85 84 a7 3f 42 b1 95 3f 7f 0d ad 3f f4 5e 97 3f
       1.3087317 1.169472 1.3519744 1.1825852
0001e0 fe 0b 68 3f d4 0b e0 3e 5e a1 9f 3f 60 4c ae 3f
       0.906433 0.43759024 1.247112 1.3617058
0001f0 a4 fe 96 3f 03 7b 84 3f 6a 9b 9d 3f bd 87 a0 3f
       1.179646 1.035004 1.2313054 1.2541424
000200 d4 05 96 3f 7c 6d 83 3f 12 b5 95 3f 98 a9 83 3f
       1.1720529 1.0267787 1.1695883 1.0286131
000210 51 6d 5d 3f d8 b9 ab 3f c9 2f 9d 3f 11 ed cc 3f
       0.8649493 1.341609 1.2280208 1.6009847
000220 7c 21 a4 3f 8b b9 a1 3f a2 94 97 3f 1c e9 ad 3f
       1.2822719 1.2634748 1.1842234 1.3586764
000230 80 67 8a 3f 6c 1f a5 3f 1e 8c 74 3f fd 8b b1 3f
       1.0812836 1.2900214 0.955263 1.3870846
000240 24 16 9b 3f 24 e1 87 3f ea a6 94 3f 06 0f a3 3f
       1.2116132 1.0615582 1.1613438 1.273896
000250 04 ce f7 3e 6c 23 87 3f 83 03 7f 3f 4c f0 91 3f
       0.48399365 1.0557685 0.99614733 1.1401458
000260 95 e7 bb 3f 5e 8e 44 3f 27 e2 c7 3f bb 18 9f 3f
       1.4680048 0.76779735 1.5615891 1.2429422
000270 b6 76 70 3f 6e 41 9c 3f 8f 7b 0d 3f 61 1a a3 3f
       0.9393114 1.2207468 0.5526666 1.2742425
000280 dd 02 a8 3f 1f 21 8d 3f 13 2c aa 3f 8a 60 9d 3f
       1.3125874 1.1025733 1.32947 1.2295086
000290 ab 40 bc 3f d3 15 8f 3f e6 35 ac 3f 4e 88 84 3f
       1.4707235 1.1178535 1.3453948 1.0354097
0002a0 97 a6 33 3f 37 22 7f 3f 20 76 7d 3f 5b 29 b8 3f
       0.7017607 0.9966158 0.9900837 1.4387621
0002b0 3a 75 94 3f 7c 41 a6 3f bd 72 84 3f 0a af be 3f
       1.1598275 1.2988734 1.0347515 1.4897168
0002c0 dd c4 14 3f 4d d6 8d 3f ed d6 a8 3f 66 d7 af 3f
       0.5811289 1.1081024 1.319059 1.3737609
0002d0 18 70 a2 3f 53 5c 8e 3f e4 92 a7 3f 4b b5 79 3f
       1.2690458 1.1121925 1.3091702 0.97542256
0002e0 27 2a a2 3f 41 cb 8d 3f 77 c5 94 3f 21 f5 af 3f
       1.2669114 1.1077653 1.1622761 1.3746682
0002f0 57 96 73 3f 30 38 89 3f 78 66 81 3f 1d e6 a4 3f
       0.95151275 1.0720272 1.0109396 1.2882725
000300 9c ac 20 3f 93 77 bc 3f d6 c3 2a 3f 21 47 92 3f
       0.6276338 1.4723991 0.6670507 1.1427957
000310 62 4d 2b 3f 07 7d 00 3f 4d 13 a0 3f 3e 3f c8 3f
       0.6691495 0.50190777 1.250589 1.56443
000320 80 8e 72 3f df 9f 9b 3f 6f f2 c9 3f c5 56 84 3f
       0.9474869 1.2158164 1.577711 1.033898
000330 ec 91 98 3f 2f a7 9f 3f 70 c0 05 3f 03 26 8d 3f
       1.1919532 1.2472895 0.5224676 1.1027225
000340 b2 e4 8c 3f d6 7f b6 3f 4d 6e ae 3f c7 22 8a 3f
       1.1007292 1.4257762 1.3627411 1.0791863
000350 0b 75 b5 3f 6d ff 85 3f 3d 68 89 3f ff 55 68 3f
       1.4176344 1.0468575 1.0734936 0.9075622
000360 f1 85 9f 3f 3b fb 86 3f 1f 55 0c 3f b4 1b 7b 3f
       1.2462751 1.054542 0.54817384 0.98089147
000370 01 5d 2e 3f 32 c3 ac 3f 15 a1 8e 3f 9b 27 7c 3f
       0.6811066 1.3497069 1.1142908 0.98497933
000380 d9 c1 79 3f 24 aa 93 3e 97 4d 8c 3f 79 02 90 3f
       0.97561413 0.28840744 1.0961179 1.1250755
000390 f0 d6 ed 3e 8e ec aa 3f 4d 72 89 3f 4e 22 56 3f
       0.46453047 1.3353441 1.0738007 0.83646095
0003a0 01 e5 9a 3f 3f c6 9a 3f f0 0e 7c 3f 3e e1 5b 3f
       1.2101136 1.209175 0.9846029 0.8589057
0003b0 e2 5c 87 3f 43 11 8d 3f 59 a3 f1 3e 14 4e 99 3f
       1.057522 1.1020893 0.47194937 1.1976953
0003c0 57 18 b4 3f 13 29 30 3f da 9e a7 3f ef 58 a9 3f
       1.4069928 0.68812674 1.3095353 1.3230265
0003d0 14 5c a1 3f 15 6d a4 3f a0 9a 69 3f de 85 7d 3f
       1.2606225 1.2845789 0.91251564 0.9903239
0003e0 ae 7e 93 3f ff 11 8f 3f 6d 66 8b 3f d8 e3 9c 3f
       1.1523035 1.1177367 1.0890633 1.2257032
0003f0 d8 e2 7f 3f c8 60 04 3f ee 84 a5 3f 76 bd a1 3f
       0.9995551 0.51710176 1.2931192 1.2635944
