models/ddpg_ant_300.pt (torch, 669566 bytes, 10 tensors)

fc1.weight f4 [400, 105]
000000 3e 67 27 3c 64 27 24 3d e9 22 a8 bd 1c 20 55 bd
       0.010217486 0.04007663 -0.082097836 -0.052032575
000010 26 2b 0d be b2 9e 2d 3d 08 7d a3 3d a2 3f 95 bb
       -0.13785991 0.04238767 0.07982832 -0.0045547048
000020 91 18 46 3d c2 ec 57 bd 7d bf fc bd a5 a5 85 3d
       0.048363272 -0.052716024 -0.12341211 0.06525735
000030 50 d3 0e 3e 90 f1 58 bc 63 96 46 3d 6d e5 8f bd
       0.13947797 -0.013241187 0.048483264 -0.07026181
000040 7e e2 0c 3d a0 8c 0e bc cc e1 53 3d 63 33 9d 3a
       0.034395687 -0.00870052 0.05172901 0.0011993464
000050 03 16 b1 3c 79 37 75 3c f9 ce 11 bc 82 1b b6 bb
       0.021616941 0.014966839 -0.008899444 -0.0055574784
000060 b8 d0 6e bb af 95 ad ba 1b 2a 4f 3c ad 75 96 ba
       -0.0036440324 -0.0013243462 0.012644316 -0.0011479162
000070 06 47 ed 3c d2 9e 63 bb eb ec ef 3c b4 8e 06 3d
       0.02896453 -0.0034732115 0.029287776 0.032850936
000080 6b 06 81 3d 7f 76 59 bc 3a cb 1d 3d a3 65 2c 3d
       0.06300052 -0.013272881 0.03852389 0.042089116
000090 90 1b c6 3c fd 4c ca bb 76 8c 96 3b 07 18 09 3c
       0.024183065 -0.0061737285 0.004594381 0.008367545
0000a0 ea 1e 59 bb 68 14 b1 bd 39 24 da 3d ca ed 91 3d
       -0.0033129998 -0.0864647 0.1065144 0.07125433
0000b0 4e d1 99 3b 27 ba 8a 3d c4 a9 8f bd 60 85 8a bc
       0.0046941405 0.06773787 -0.07014802 -0.016909301
0000c0 2f 4d 38 3d e4 57 ec bc f2 22 b6 bc c1 75 a8 3c
       0.044995483 -0.028850503 -0.02223346 0.020563962
0000d0 04 ea 12 bd 8d 69 d5 3c 38 10 92 bc 94 7e e7 3c
       -0.035867706 0.026051307 -0.01783 0.0282586
0000e0 db b0 67 3b a0 e1 1d bc 90 dd 86 3d d6 7b 07 be
       0.0035353217 -0.009636313 0.065852284 -0.13230833
0000f0 c9 bc 3d 3d 62 81 dc 3d e9 ff 02 3e 94 e5 e4 3c
       0.046322618 0.10766865 0.12792934 0.027941503
000100 94 af 8b 3d 4c 29 c8 3c d5 91 ef 3c a5 a1 03 3e
       0.06820598 0.024433754 0.029244343 0.12854631
000110 a1 9f df bd 2f 6a 62 3b 01 73 05 3d c9 86 04 bd
       -0.10919119 0.0034548154 0.03258038 -0.032355104
000120 90 bc 12 bd bc 0f eb 3c 5b 62 b7 3c 46 db 60 bb
       -0.03582436 0.028694026 0.022385767 -0.0034310385
000130 1a 3f c5 3c a4 01 d0 bd 37 ee bf bd ef d1 7e bd
       0.02407794 -0.10156563 -0.09371608 -0.062211927
000140 44 52 90 bc 8d f2 a6 3b c0 41 f2 3d 23 8e 9a bd
       -0.017617352 0.0050948323 0.11828947 -0.07546642
000150 c6 65 85 bc 5a 6d db 3d e1 f9 13 bc 41 40 ba 3c
       -0.01628388 0.107142165 -0.009031744 0.022735717
000160 30 53 20 bd 6e 38 00 3d 4d f2 1f bc f9 d4 23 bd
       -0.039141834 0.031303816 -0.009762359 -0.03999803
000170 b1 99 d3 3c 96 15 85 bc 55 8d 14 bd 72 d3 4a 3d
       0.025830122 -0.016245645 -0.036267597 0.049518056
000180 36 a4 b8 3d 72 43 45 3d b7 56 2e 3c 33 1d 2d be
       0.09015696 0.048160024 0.010640792 -0.1690567
000190 37 3c 86 3d 36 08 8e bd eb cd 8d 3d 59 0f 29 be
       0.06554454 -0.0693516 0.06924041 -0.16509761
0001a0 75 67 6f bb b4 bb 26 3e 17 99 d3 3c 6e e4 a7 3e
       -0.003653017 0.1628254 0.025829835 0.32791466
0001b0 74 bf ca 3d 83 fa dc bc d2 c0 51 3d 63 ed e3 3b
       0.09899798 -0.026974922 0.05120928 0.006955789
0001c0 e5 da 8d 3c 22 33 42 bd 29 ac 08 3d 7b 36 06 bd
       0.017316291 -0.047412045 0.03336731 -0.0327668
0001d0 1a b7 a1 3d e5 8e 4f bd 5d 12 8f bd 4d a7 66 3c
       0.07896252 -0.050673384 -0.069859244 0.014077974
0001e0 8a 44 21 bb b3 5f 43 3d 49 ac f9 bc 73 d2 2a 3d
       -0.0024607503 0.047698688 -0.03047766 0.041704606
0001f0 04 e2 31 bc 27 49 41 bd da 8a 51 bb e7 8a 4e 3c
       -0.010857109 -0.047188904 -0.003197363 0.012606359
000200 6d cf 01 bd ec a6 b7 3b bc ba 61 3b af b5 92 3c
       -0.031691957 0.0056046154 0.0034443578 0.0179089
000210 4d 28 0e 3d 82 15 c1 bd 51 dc da bd 4c b9 61 bc
       0.034706403 -0.094279304 -0.10686553 -0.013777088
000220 59 f6 c5 3b bd 5a 02 3e b5 b7 15 3d 2e 56 05 bd
       0.00604133 0.12729926 0.03655215 -0.03255289
000230 d7 da a5 bc 3f a6 57 bc 08 01 e7 3c cd 34 b6 3c
       -0.020245953 -0.013162195 0.028198734 0.022241974
000240 2b 13 00 3e 79 97 de bb 00 65 0c 3d 84 9d d5 bd
       0.12507312 -0.0067929593 0.03427601 -0.10430434
000250 23 cf 7f bc c9 93 ec ba 63 54 81 bd 19 3c 13 3e
       -0.01561335 -0.0018049415 -0.063149236 0.14378394
000260 90 63 99 bd 6d ef 5b bd d1 dd 9e bc ad 31 81 3b
       -0.07489693 -0.05369513 -0.01939288 0.0039426894
000270 ad 92 de bb ca e5 c0 3c b3 31 eb bc 28 f1 fd bc
       -0.0067923875 0.023547072 -0.028710222 -0.030998781
000280 5e 05 dc bc 9b fe 30 3c 49 22 12 be 33 22 f3 bc
       -0.026858028 0.01080289 -0.14270891 -0.029679393
000290 35 11 cf 3d 5a 92 a3 bd ca 4b a6 bc e7 f7 a5 3c
       0.10110704 -0.07986899 -0.02029981 0.02025981
0002a0 23 4d d8 ba c2 0e da 3c 0d 35 a2 3d 88 90 1b 3d
       -0.0016502481 0.026618365 0.07920275 0.037979633
0002b0 18 a6 01 bd 0c 4f 98 3c 38 e4 18 bd b0 79 9b 3c
       -0.03165254 0.01859238 -0.03732702 0.018978924
0002c0 75 20 37 bb 69 d7 98 bb 55 db 26 bc 62 b4 9d bc
       -0.002794293 -0.0046643508 -0.010184129 -0.019251052
0002d0 83 8a 80 bd 12 e8 43 bd 53 9f 44 3c 6f 0e 46 bd
       -0.06276419 -0.04782874 0.0120008765 -0.04835361
0002e0 18 57 8d 3c 95 4f 0a 3d eb 80 ca bc c8 2c 5a bc
       0.017253444 0.0337673 -0.024719676 -0.013316341
0002f0 2c de 15 bd bf 1d 80 3d a1 28 1a bd 14 43 ca 38
       -0.036588833 0.062556736 -0.037636403 9.644605e-05
000300 00 36 95 bc 8b f8 ad bc 04 fb fb 3b 82 24 32 3d
       -0.018214226 -0.021236679 0.0076898355 0.043491848
000310 8f 3c c3 bc 17 6d 46 3b 10 2f 87 bc c9 90 78 3d
       -0.023832588 0.0030277425 -0.016501933 0.060684953
000320 16 d6 ba 3c b0 88 19 bd 96 f1 05 bd 8b ca 9c bc
       0.022807162 -0.03748387 -0.032701097 -0.019139549
000330 96 86 4f bd 43 44 b6 bd 01 7e 47 bd 4c 40 85 bd
       -0.05066546 -0.08899739 -0.04870415 -0.06506404
000340 1e fe a6 b6 02 04 35 3d 8b 7c b8 bd 33 9d 36 bd
       -4.9767687e-06 0.044193275 -0.0900813 -0.04458351
000350 0d 7d 16 be 5b ca 07 bd 6c 93 63 bd c0 59 f4 3c
       -0.1469614 -0.033151966 -0.055560514 0.029827952
000360 24 92 1b 3d 86 ec ba bc 66 fb 2f bd 14 c9 f4 bd
       0.037981167 -0.022817861 -0.04296436 -0.11952415
000370 01 cb c1 bd 87 e7 85 bd c3 b7 34 3d 33 08 a1 bd
       -0.09462548 -0.06538301 0.04412056 -0.07862892
000380 6b 4a 6c 3d 29 e1 26 3c f4 4f 48 bc 5c ec be bb
       0.057688158 0.010185518 -0.012226094 -0.005826516
000390 a7 97 72 bc 14 77 2a 3c 0a e0 da bb d4 96 dc bb
       -0.014806665 0.010404367 -0.0066795396 -0.0067318473
0003a0 d0 b5 09 bc ea 22 1d bc ab b8 dc bc 54 55 c4 3b
       -0.008405164 -0.009590844 -0.026943525 0.005991617
0003b0 f3 34 c0 3c f7 01 f1 bd 98 41 d9 bc 81 1d 91 bc
       0.023462748 -0.11767953 -0.026520535 -0.017714264
0003c0 6f 47 67 3c 21 b5 d4 bc ae d6 ba bb fe 7e 01 3d
       0.014116152 -0.025965275 -0.0057018613 0.03161525
0003d0 3e 7c e6 bc 48 fe 23 3d a8 d4 8f bc a3 e6 1d bd
       -0.028135415 0.040037423 -0.017557457 -0.03855003
0003e0 f8 b9 0b bd 43 52 4d 3d 9a 65 39 3e 5d 70 c0 bd
       -0.0341129 0.05012728 0.18105164 -0.093964316
0003f0 9e 04 c9 3d f8 75 c9 3d 21 2d 9b 3d 37 c0 4c bd
       0.09815334 0.09836954 0.07576967 -0.049987998

fc1.bias f4 [400]
000000 63 34 4a 3d 52 4f 59 bc f6 ba c9 3c d4 db 68 3d
       0.049366366 -0.01326354 0.024625283 0.05685027
000010 70 0e 3b 3d 4f ea 58 3d 00 62 df 3d 03 0a d1 3b
       0.045668066 0.05295783 0.10907364 0.0063793673
000020 65 75 10 bd 7a 87 04 bb 12 e2 46 bd 42 7c b7 3c
       -0.035268206 -0.0020222352 -0.04855544 0.022398118
000030 f8 5b cf bd c2 c2 d2 bc 83 df ef 3d 1f 2c e5 3c
       -0.101249635 -0.025727633 0.11712553 0.02797514
000040 3a 7c 17 3d 9d 2b e4 ba 79 84 64 bd 0e 75 ab bd
       0.036983706 -0.0017408017 -0.0557904 -0.08371936
000050 2b e5 64 3d 69 6f cd bd bc 84 d0 3b 3d 17 60 bd
       0.055882614 -0.100310154 0.0063634794 -0.05470966
000060 ce 64 0a 3d 27 1c 53 3c 75 f0 d6 bc 63 d9 09 3e
       0.03378754 0.01288513 -0.026237706 0.13461833
000070 d1 6b 68 bc a0 bc ab 3d d1 b2 f7 bc ed 36 b1 3d
       -0.014185862 0.08385587 -0.030236633 0.086530544
000080 9b 72 34 bd e0 4e b8 bc a0 55 04 bd b7 76 00 3d
       -0.04405461 -0.022498548 -0.03230822 0.031363215
000090 74 e3 0b be 05 1b 86 bc 07 2f 0b bc ef af 83 bb
       -0.13660985 -0.016370306 -0.008495099 -0.0040187757
0000a0 fb 4b e2 3c 52 14 2a 3d 15 4c 73 3d ec 9a 8c 3d
       0.027624121 0.041523285 0.05939873 0.068654865
0000b0 33 1f dd ba 66 de 61 bd d3 9f b8 3c fd f4 bc 3a
       -0.001687026 -0.055143736 0.022537148 0.0014416274
0000c0 57 5a 89 3c f2 5d 71 3d 97 c2 84 3d 45 95 72 3d
       0.01676671 0.058927484 0.064824276 0.059224386
0000d0 33 13 e3 bc 0e 35 56 3a b7 b3 1e bd 31 c5 c3 3d
       -0.027719116 0.0008171358 -0.03874561 0.09559096
0000e0 ad 35 f8 3c 61 57 7e 39 6d 68 a0 3d a7 4b 9e 3c
       0.030299032 0.00024255879 0.07832418 0.019323183
0000f0 f4 25 09 bc 58 71 85 3d ec 1c 94 3c e4 88 db 3c
       -0.008370865 0.06515759 0.018080197 0.026798673
000100 b7 84 be bc 87 d0 64 3d 3a a1 d1 3d 82 a8 d5 3c
       -0.023256643 0.05586293 0.1023583 0.026081327
000110 f3 13 23 3d 54 a3 db bd 30 3d f6 3d 29 8c 9c 3d
       0.039813947 -0.10724512 0.12023389 0.07643921
000120 84 cb 8e bc d5 03 b8 bc d8 9b 5c 3d e3 85 ec 3b
       -0.017431028 -0.022462765 0.05385956 0.007218109
000130 af d6 5f 3d f6 27 8d 3d 13 f6 2b 3d 7c ed 8f bd
       0.054648098 0.068923876 0.04198272 -0.070277184
000140 52 fd 3d 3d 03 1c e0 bd b6 c8 2a bd 54 5c 8b bb
       0.046384163 -0.10942843 -0.04169532 -0.0042529497
000150 e0 92 a3 3d 2c 23 4a 3d 9a b2 42 3d e1 9f 1b bb
       0.079869986 0.04934995 0.04753361 -0.0023746418
000160 5b 2c c6 ba e4 c2 87 bc 75 3d e3 3d 48 13 10 3d
       -0.001511942 -0.016572423 0.110957064 0.035174638
000170 57 d6 3e 3d 6d 98 0f 3b 91 04 c6 3c 50 ac 51 3d
       0.04659113 0.0021910921 0.0241721 0.05118972
000180 46 f6 a5 bc 95 bf 54 3d 35 a9 50 bd 4e 2f 08 3e
       -0.020259034 0.05194052 -0.05094262 0.13299295
000190 76 5c f7 3c c0 0a aa 3d 1a 63 35 3d 22 2d f7 3c
       0.030195456 0.08302832 0.044283964 0.030172888
0001a0 12 b7 20 3d c9 5c 9b 3a 59 b6 1d bb 29 bf a5 bd
       0.03923709 0.0011853214 -0.0024064987 -0.080931015
0001b0 2c c3 a0 bd fb b6 6d 3c ee 57 a1 3b f4 46 b6 bc
       -0.07849726 0.014508958 0.004923812 -0.02225063
0001c0 c2 a8 b3 3c 09 f4 4c 3d a8 87 5c bc 0d f4 99 3d
       0.021931056 0.050037418 -0.013460077 0.07517252
0001d0 19 1f 0d bb de 59 c6 3d bc 81 60 bc ab be 30 bd
       -0.0021533428 0.096851096 -0.013702806 -0.043150585
0001e0 ea 91 fe bb 97 73 9e 3d e4 56 08 3d 9d bd fe 3b
       -0.007768859 0.07736891 0.03328599 0.0077740685
0001f0 03 13 f7 3c d3 55 ae 3d 41 98 d0 3c 8c 7b 4e 3d
       0.030160433 0.085124634 0.025463225 0.050410792
000200 0f 0c 07 3d dd 09 b4 3c f2 99 a8 bb 58 03 31 bd
       0.032970484 0.02197736 -0.005145305 -0.04321608
000210 06 c0 d9 3d bc d4 2b 3d 32 40 f2 3b 41 0a a7 3d
       0.10632329 0.041950926 0.0073929066 0.08156253
000220 db d7 1f 3d 09 53 57 bd d6 13 91 3d 72 de ba 3c
       0.039024215 -0.052569423 0.070838615 0.022811148
000230 59 a8 9d 3d c0 0c 56 bc bd ae 87 bc f0 f4 55 bd
       0.076981254 -0.013064563 -0.016562814 -0.052235544
000240 96 50 ed 3d 5c d9 a2 3d d2 fa 68 bc 50 f2 c2 3d
       0.11587636 0.07951614 -0.0142199565 0.09518874
000250 b6 db 5a 3d cb 54 ac 3b 93 c6 55 be 04 94 b2 3c
       0.05343219 0.0052591315 -0.20876531 0.021799095
000260 e3 ea 1d 3d 48 42 c5 bc 28 21 c2 3d 28 a8 b5 ba
       0.038554084 -0.024079457 0.0947898 -0.0013859319
000270 a5 91 58 3d d0 38 69 3c c4 f4 3f 3d f0 cf 5d 3d
       0.052873272 0.014234737 0.046864286 0.054153383
000280 0e f7 30 3d 94 1c 82 3c cd ac 05 bc 9a cb 04 bd
       0.04320436 0.015882768 -0.008158875 -0.032420732
000290 ca 3d 4a 3d e4 d5 aa bb f0 25 f9 bc a6 91 a9 3d
       0.049375333 -0.005213486 -0.030413598 0.08279733
0002a0 fb d5 b3 3c d2 9c 25 3c f6 ae 4b bd bf 3d 63 bc
       0.02195262 0.01010819 -0.049727403 -0.013869702
0002b0 15 fd fd 3c f9 22 39 39 f9 27 b2 3c 73 75 bc 3d
       0.031004468 0.00017656003 0.021747576 0.09202089
0002c0 08 97 06 3d 47 a7 40 3d c2 0a e2 3d df e2 7b 3d
       0.03285888 0.047034528 0.11037208 0.061495658
0002d0 fa c4 27 be 2e 20 a3 bc 56 cf df 3c 43 46 1c bd
       -0.16383734 -0.019912805 0.027320545 -0.038152944
0002e0 21 a7 aa bd e5 79 8e 3d 70 d4 f7 3c 34 75 80 bc
       -0.083326586 0.06956843 0.030252665 -0.015680887
0002f0 65 72 02 bc dc 5f 88 3c 87 0c 9d bd 42 df b2 bb
       -0.007961844 0.016647272 -0.07668405 -0.0054587433
000300 e1 f4 bd bd 37 2e 8e 3d 9c 47 ea bc 2d 9f e0 3d
       -0.092752226 0.069424085 -0.0285986 0.1096786
000310 d2 1b 6a bb c8 60 b1 3c 78 7b 84 bd cf 4e 9f 3d
       -0.0035722149 0.021652594 -0.06468862 0.077787034
000320 0d f0 8f bc e3 c1 3b 3d 13 ef a8 3b 7e 48 1b 3d
       -0.01757052 0.0458392 0.005155453 0.03791093
000330 fd 4f a6 3c d4 28 a6 3c d5 10 48 bd cd 11 8e bd
       0.020301813 0.02028314 -0.048844177 -0.06936989
000340 56 59 2a bd 13 cc 81 3c fb bb 4f 3d fe 26 a3 3b
       -0.041589104 0.01584438 0.05071638 0.0049790135
000350 88 a9 f1 3d 8e 3b 80 3c db 18 34 3d d8 a0 42 3d
       0.11799914 0.015653398 0.043969017 0.047516674
000360 84 33 ca 3d 47 6a 09 3d da 86 1c 3d f3 9b 94 3d
       0.09873107 0.03354862 0.038214542 0.072563075
000370 ef 83 cc 3b 11 74 d7 bd e8 75 9a bb 0e d0 a2 3d
       0.0062413136 -0.10520185 -0.0047137626 0.079498395
000380 fe d2 9a 3d 79 2c be 3c 7d 7c 62 3d 0a 3d 82 3d
       0.07559775 0.023214566 0.055294503 0.063592985
000390 dc 83 b5 3c f9 67 80 bd 49 01 1a 3d 45 1f 17 3d
       0.022157602 -0.06269831 0.037598882 0.036895055
0003a0 77 72 64 3b d8 5d 75 bd 6b 27 80 bb 87 5c 87 bd
       0.0034858265 -0.05990395 -0.003910949 -0.06609445
0003b0 5a 29 3c 3d ef 62 43 3c e0 63 6b bd 17 0d 2f 3a
       0.045937873 0.011925443 -0.057468295 0.0006677671
0003c0 9e 73 89 bc 4b 2d 4e bb 7c 05 78 3d e1 d6 9b 3d
       -0.016778763 -0.0031460102 0.060552105 0.07609344
0003d0 89 42 4b 3d 09 eb 7c bc 2f a9 19 3c ff 8e 15 3b
       0.049624 -0.015436896 0.009378715 0.0022820828
0003e0 c9 9e a7 3d fb 7c ba 3d fd 49 b4 bb 3d 8d 96 3d
       0.08184583 0.091058694 -0.005501984 0.07351158
0003f0 e4 3b d2 ba 16 77 c2 3d a9 0f 50 3d 9f 60 ec 3c
       -0.0016039577 0.0949537 0.050796185 0.028854666

bn1.weight f4 [400]
000000 8f 2c 3a 3f 39 3e 59 3f e8 0e 52 3f 35 95 80 3f
       0.7272424 0.8486057 0.82053995 1.0045534
000010 27 df 4d 3f 38 65 83 3f 51 d6 8b 3f 79 aa 57 3f
       0.8041863 1.0265265 1.0924779 0.84244496
000020 7b 3c 5f 3f 36 dd 43 3f e4 f5 70 3f 96 2d 6b 3f
       0.8720166 0.76509416 0.941252 0.91866434
000030 11 19 85 3f 36 ef 64 3f 9b 89 67 3f e7 56 69 3f
       1.0398275 0.89427507 0.90444344 0.9114823
000040 32 61 58 3f 82 ec 4f 3f f1 cc 51 3f 8b 6f 77 3f
       0.8452331 0.8122026 0.8195334 0.96654576
000050 ff b7 65 3f 71 e8 86 3f a4 1e 6a 3f 76 59 79 3f
       0.8973388 1.0539685 0.91453004 0.9740213
000060 57 ce 5f 3f 5d bb 5b 3f ef 4d 6c 3f ed 82 73 3f
       0.87424225 0.8583277 0.9230642 0.9512165
000070 b1 4a 6f 3f d9 c0 5b 3f ba ab 93 3f 27 91 53 3f
       0.93473345 0.8584114 1.1536782 0.8264336
000080 15 c7 6b 3f 84 df 6d 3f 1e f7 66 3f d1 b2 55 3f
       0.9210065 0.9291918 0.9022082 0.8347598
000090 c5 a6 91 3f eb 27 49 3f f7 17 65 3f 2c 0a 5d 3f
       1.1379019 0.78576535 0.8948969 0.86343646
0000a0 0c b2 6f 3f d2 01 82 3f 4b 1c 42 3f 90 ae 77 3f
       0.9363105 1.0156806 0.7582442 0.96750736
0000b0 85 e0 51 3f 77 8c ad 3f b7 ad 5a 3f 0b f1 4b 3f
       0.81983215 1.3558491 0.8542132 0.7966468
0000c0 b6 24 50 3f 73 8d 4d 3f c9 bf 74 3f 87 3d 63 3f
       0.81306016 0.8029396 0.9560514 0.8876576
0000d0 25 5a 87 3f 5c 3d 55 3f 7c 23 58 3f 75 df 47 3f
       1.0574385 0.8329675 0.84429145 0.78075343
0000e0 95 e8 47 3f fc 44 6d 3f ef 84 56 3f 90 88 6d 3f
       0.78089267 0.92683387 0.8379659 0.927865
0000f0 b3 09 6e 3f 02 fe 7a 3f ef ab 54 3f a1 3d 58 3f
       0.9298355 0.98043835 0.8307485 0.8446904
000100 1e 66 46 3f f2 cc 54 3f 91 a1 4e 3f 5f c4 5c 3f
       0.7749957 0.8312522 0.8071528 0.8623714
000110 53 c9 62 3f 0f 17 8d 3f de 43 8d 3f 23 97 4d 3f
       0.88588446 1.1022662 1.1036336 0.8030874
000120 4b c5 76 3f 30 b8 4e 3f cc 94 48 3f 56 0a 54 3f
       0.96394795 0.807498 0.78352046 0.8282827
000130 01 0b 57 3f c1 6b 4e 3f 25 de 3e 3f 07 95 96 3f
       0.84001166 0.8063317 0.74557716 1.176423
000140 83 fd 70 3f 6b 7f 95 3f db c6 4d 3f 84 e0 47 3f
       0.9413683 1.167951 0.80381554 0.7807696
000150 9a 50 46 3f 18 6a 65 3f 77 d6 55 3f bb 75 55 3f
       0.7746674 0.8961501 0.8353037 0.8338277
000160 4e 49 51 3f 5e c7 4f 3f d3 ea 65 3f d9 5a 53 3f
       0.8175248 0.81163585 0.8981144 0.825605
000170 ee 41 5b 3f 42 5a 4c 3f 25 cf 72 3f fa 21 46 3f
       0.85647476 0.7982522 0.9484733 0.77395594
000180 e9 cc 66 3f 68 3b 5c 3f 2f e2 60 3f d3 98 51 3f
       0.9015642 0.86028147 0.8784513 0.81873816
000190 e7 68 75 3f 12 3d 4e 3f c7 54 66 3f 23 72 4f 3f
       0.95863193 0.80561936 0.8997311 0.81033534
0001a0 95 3f 47 3f 86 a6 47 3f 30 be 60 3f 32 17 9f 3f
       0.77831393 0.7798847 0.87790203 1.2428954
0001b0 f2 e7 64 3f 6d 0c 4a 3f c4 45 77 3f ef 9f 45 3f
       0.8941642 0.7892521 0.9659083 0.77197164
0001c0 77 ff 50 3f b8 7a 57 3f 6a d2 4d 3f 34 fe 49 3f
       0.8163981 0.8417163 0.8039919 0.7890351
0001d0 eb 6b 55 3f 0f de 60 3f e9 c7 7a 3f 9c 69 51 3f
       0.83367795 0.87838835 0.9796129 0.8180177
0001e0 eb 98 54 3f 1c bd 56 3f 5b 3e 57 3f d3 45 60 3f
       0.83045834 0.8388231 0.8407952 0.87606543
0001f0 a0 7d 45 3f 96 ff 3f 3f 55 08 67 3f 8d 55 8d 3f
       0.77144814 0.7499937 0.9024709 1.1041733
000200 b1 eb 5b 3f 7d c1 5f 3f 36 38 6d 3f 97 c6 76 3f
       0.8590651 0.87404615 0.92663896 0.96396774
000210 4a 54 53 3f 0b e5 50 3f e4 06 47 3f eb 05 5c 3f
       0.8255049 0.8159949 0.7774489 0.8594653
000220 94 36 4c 3f 52 98 7e 3f 90 f4 59 3f 11 82 57 3f
       0.7977078 0.9945117 0.851388 0.8418284
000230 18 a0 4d 3f d7 c9 4a 3f 4a 12 5d 3f d0 1b 65 3f
       0.8032241 0.79214233 0.8635603 0.89495564
000240 50 e8 52 3f ac 47 48 3f 94 cf 72 3f 5d 9e 53 3f
       0.8238573 0.7823436 0.9484799 0.8266352
000250 0b a3 74 3f 71 df 4e 3f 3a 68 cb 3f 0a f5 50 3f
       0.95561284 0.80809695 1.5891182 0.816239
000260 c2 af 48 3f 9d 74 56 3f 87 e3 49 3f 7a d4 54 3f
       0.78393185 0.8377169 0.78862804 0.83136714
000270 45 6a 47 3f ce 44 62 3f b2 fd 3d 3f 2d 1f 57 3f
       0.7789653 0.8838624 0.74215233 0.84031945
000280 a9 0a 5f 3f b2 d3 58 3f 6f b7 4a 3f 08 ea 49 3f
       0.8712564 0.8469802 0.7918615 0.7887273
000290 af d5 4d 3f 99 1d 5c 3f a6 e3 63 3f 09 03 54 3f
       0.8040418 0.8598266 0.8901924 0.8281713
0002a0 5a fe 68 3f 1b ca 6e 3f 4b af 66 3f 5e e4 56 3f
       0.9101311 0.9327714 0.90111226 0.8394221
0002b0 a5 c8 71 3f 54 f6 56 3f 1c e8 4e 3f 0d d6 51 3f
       0.94446784 0.83969617 0.8082292 0.8196724
0002c0 01 cf 66 3f 82 ae 63 3f 72 e5 4c 3f 80 08 4f 3f
       0.9015961 0.8893815 0.80037606 0.80872345
0002d0 52 ec af 3f ef 4a 66 3f f1 cc 4b 3f a6 68 3d 3f
       1.3743994 0.8995809 0.7960959 0.73987806
0002e0 aa 6a 8b 3f 7d ae 52 3f ef 1a 57 3f 7a ed 66 3f
       1.0891926 0.822975 0.8402547 0.9020611
0002f0 5f 50 51 3f b2 ff 77 3f 0c 3f 83 3f aa d8 46 3f
       0.8176326 0.96874535 1.0253615 0.77674353
000300 27 0d 4c 3f 9f 9f 40 3f 49 7e 59 3f aa 95 4f 3f
       0.7970757 0.7524356 0.8495832 0.81087744
000310 55 05 64 3f b3 74 4b 3f d0 0c 6d 3f a2 49 4c 3f
       0.89070636 0.79474944 0.92597675 0.79799855
000320 93 ec 65 3f 18 15 51 3f 7c 1e 5d 3f e7 c1 55 3f
       0.8981411 0.8167281 0.8637464 0.83498996
000330 24 e9 53 3f 94 65 58 3f 4e 35 71 3f d8 36 6a 3f
       0.8277762 0.84529996 0.9422196 0.91489935
000340 46 00 6f 3f 69 b9 5c 3f fb 71 7e 3f fd 23 9a 3f
       0.9335979 0.86220413 0.9939267 1.2042233
000350 36 84 58 3f d9 0d 70 3f c7 a7 4d 3f 10 54 53 3f
       0.8457674 0.9377113 0.8033413 0.82550144
000360 16 aa 5e 3f df e6 50 3f 32 56 63 3f ca e9 4d 3f
       0.8697828 0.8160228 0.888034 0.8043486
000370 5c 83 5d 3f ce 10 61 3f 60 81 5f 3f 1d 4b 6b 3f
       0.86528563 0.87916267 0.87306786 0.9191149
000380 c8 66 63 3f b1 31 58 3f cc 05 4a 3f 95 01 47 3f
       0.88828707 0.84450823 0.78915095 0.7773679
000390 73 99 6e 3f e7 19 63 3f a3 3d 6f 3f 6c e1 44 3f
       0.93202895 0.887114 0.93453425 0.76906466
0003a0 35 cf 60 3f bb 5c 78 3f d7 19 5b 3f 36 5d 8b 3f
       0.8781617 0.97016495 0.85586303 1.0887821
0003b0 70 f6 5e 3f a8 58 50 3f 02 f8 57 3f 70 5e 5a 3f
       0.87094784 0.8138528 0.84362805 0.8530035
0003c0 4e 5d 60 3f 93 50 63 3f be 8a 67 3f 80 18 5e 3f
       0.8764237 0.8879482 0.9044608 0.86756134
0003d0 af 49 59 3f 80 47 59 3f a6 b5 3e 3f 27 f1 69 3f
       0.8487806 0.84874725 0.74495924 0.91383594
0003e0 ad b6 4b 3f 89 a1 49 3f 63 f7 48 3f 01 5f 43 3f
       0.79575616 0.7876211 0.7850248 0.7631684
0003f0 82 b2 5d 3f ac 38 58 3f e3 38 46 3f ea b2 46 3f
       0.86600506 0.84461474 0.7743055 0.7761675

bn1.bias f4 [400]
000000 1f 1b 83 be 09 aa 22 be a7 3e 69 be 95 55 31 be
       -0.2560663 -0.15885176 -0.22777806 -0.17317803
000010 c7 d9 00 be 4d 22 0c bd 33 e2 b7 bd ca bb 6a be
       -0.12583075 -0.0342124 -0.08978691 -0.22923198
000020 88 20 16 be 2c bc 51 be 00 d6 94 be c6 ed f4 bd
       -0.14660847 -0.20481938 -0.2906952 -0.11959414
000030 61 7a d7 bd a7 f9 51 be 62 6c fb bd c0 7b cb bd
       -0.10521389 -0.20505391 -0.12276532 -0.09935713
000040 b1 b1 4a be 35 dc 21 be 10 57 83 be 02 0d 19 be
       -0.19794346 -0.15806659 -0.2565236 -0.14946368
000050 85 96 6a bd aa 76 dd bd 23 9a 22 be ed 5d 13 be
       -0.057272453 -0.10813649 -0.15879111 -0.14391299
000060 f2 b8 00 be ce a2 4d be 2d c5 1b be e5 9e cc bd
       -0.12570551 -0.20081636 -0.15211935 -0.09991244
000070 44 0c 35 be 41 46 50 be e1 c3 26 bd ed 8a 3d be
       -0.1768046 -0.203393 -0.04071415 -0.18510027
000080 82 f6 82 be 4b 5a 31 be 4c 1f 1e be 8f bd 6a be
       -0.25578696 -0.173196 -0.15441626 -0.22923873
000090 6d 5e cb bd d3 b2 51 be 85 fc db bd 75 df 57 be
       -0.0993012 -0.20478372 -0.10741524 -0.21081336
0000a0 70 e7 db bd 94 e2 c2 bd f6 e2 65 be c9 c1 80 bd
       -0.107375026 -0.095158726 -0.2244986 -0.062869616
0000b0 42 22 39 be 34 4f 97 bd c1 83 19 be 18 2d 8c be
       -0.18079475 -0.07388154 -0.14991666 -0.27378154
0000c0 81 00 47 be a0 b8 1c be 2e 07 bb bd eb 71 43 be
       -0.19433786 -0.15304804 -0.09132229 -0.19086425
0000d0 1c 22 6b bd 4a 73 2d be 4f d4 3d be d0 79 5a be
       -0.057405576 -0.1693851 -0.1853802 -0.2133553
0000e0 97 53 7a be 6e 9f 22 be 76 b3 28 be 1f 2c 41 be
       -0.2444595 -0.1588113 -0.16474709 -0.18864487
0000f0 8b e5 f4 bd b8 b1 9b bd 19 b7 49 be c9 fb 3a be
       -0.11957844 -0.076022565 -0.19698752 -0.18260111
000100 14 98 4a be 38 ab 53 be d6 c5 65 be 8c 36 2b be
       -0.19784576 -0.20670784 -0.2243875 -0.16720027
000110 37 41 09 be 41 02 c8 bd 82 2d 49 bd 78 00 5c be
       -0.13403784 -0.09766055 -0.049115665 -0.21484554
000120 4c 00 54 be ba 07 35 be 60 b1 58 be af ad 08 be
       -0.20703238 -0.17678729 -0.21161413 -0.13347505
000130 35 4e 32 be 41 4e 64 be 54 f8 57 be 74 25 75 bd
       -0.17412646 -0.22295476 -0.21090823 -0.05985017
000140 3f 3d a0 bd dd f3 d1 bd 4e 79 0c be e5 4d 7c be
       -0.07824182 -0.10251591 -0.13718149 -0.2463909
000150 cf 2e 57 be fc 12 ce bd 0b bf 29 be 8c f3 49 be
       -0.2101395 -0.10062215 -0.16576783 -0.19721812
000160 ce d1 2d be 50 aa 52 be 96 27 3c be cd 70 6d be
       -0.16974565 -0.20572782 -0.18374476 -0.23187561
000170 3e 95 17 be 5c 09 5b be fb 1a a3 bd a7 de 34 be
       -0.14803025 -0.21390289 -0.079641305 -0.1766306
000180 e6 a1 30 be e3 7f 0b be 2b 48 3a be 18 c3 0d be
       -0.1724926 -0.13623004 -0.18191592 -0.13843954
000190 61 e4 1c be 34 cd 36 be c4 61 3b be b0 db 4b be
       -0.15321495 -0.17851716 -0.18299013 -0.19908023
0001a0 45 93 4d be 9e 54 32 be b1 3f 0b be da fa 71 bd
       -0.2007571 -0.17415091 -0.13598515 -0.05907712
0001b0 73 64 25 be d0 4d 47 be 8e d6 0b be 1c 49 08 be
       -0.161516 -0.19463277 -0.13656065 -0.13309139
0001c0 16 59 26 be 13 8d 4f be b9 0a 5a be db a3 66 be
       -0.16244921 -0.2026866 -0.21293153 -0.22523443
0001d0 ff 6f 30 be 4d dc 1b be 1f fa 51 be a4 64 58 be
       -0.17230223 -0.15220757 -0.2050557 -0.21132141
0001e0 06 b0 0f be de a8 14 be 3a 86 d8 bd f4 8e 50 be
       -0.14031991 -0.14517543 -0.10572477 -0.20367032
0001f0 3e c7 67 be 0e ee 32 be 25 f6 d6 bd 12 50 1b bd
       -0.22634599 -0.17473623 -0.10496167 -0.037918158
000200 87 56 4f be e6 af 25 be 39 fc 21 be 67 72 25 be
       -0.20247851 -0.16180381 -0.15818872 -0.16156922
000210 ef bd a9 bd 67 b2 65 be e9 16 6a be 1c 30 43 be
       -0.0828818 -0.22431336 -0.22860302 -0.19061321
000220 0a 36 44 be d4 40 03 be 47 7a 44 be df f7 0a be
       -0.1916124 -0.12817699 -0.1918727 -0.13571118
000230 d2 2a 2c be 3e f6 3a be a0 38 2c be 90 aa 1e be
       -0.1681321 -0.18257996 -0.16818476 -0.15494752
000240 75 2c 21 be 1c 4f 3e be 9b f2 32 be 1c 8d 34 be
       -0.15739615 -0.18584865 -0.17475359 -0.17631954
000250 88 c6 00 be 5d 87 4c be 92 52 ac 3b 09 4d 42 be
       -0.12575734 -0.19973512 0.0052588666 -0.18974699
000260 78 48 0a be 2f cf 30 be 2d 13 5a be 34 52 34 be
       -0.13504207 -0.17266534 -0.21296377 -0.17609483
000270 79 6b 5b be b4 84 00 be 1e 6e fc bd ac 62 0f be
       -0.21427716 -0.12550622 -0.12325691 -0.14002484
000280 c7 19 19 be 32 f2 23 be 55 55 4a be ee 23 62 be
       -0.1495124 -0.16010359 -0.19759114 -0.22084019
000290 5f 4a 35 be 5f 49 14 be d2 f9 2e be 29 86 54 be
       -0.17704152 -0.14481114 -0.17087486 -0.20754303
0002a0 1b be d3 bd 94 0d 5d be 30 ce 06 be 24 8f 4d be
       -0.10338994 -0.21587211 -0.13164592 -0.20074135
0002b0 36 ac eb bd f1 08 2f be 82 1c 61 be dc 68 32 be
       -0.11507456 -0.17093255 -0.21983531 -0.17422813
0002c0 d5 aa 0b be 32 6b 30 be 6c 7f 22 be e6 10 28 be
       -0.13639386 -0.17228392 -0.1586892 -0.16412696
0002d0 39 15 9c bd a5 09 0e be ec b4 1c be 16 18 9c be
       -0.076212354 -0.13870867 -0.15303391 -0.30487126
0002e0 56 a1 ba bd ce 8a 63 be b6 21 35 be 90 9b 14 be
       -0.09112804 -0.22220919 -0.17688641 -0.14512467
0002f0 53 7b f1 bd 1f d1 93 bd 5b 23 21 be 73 bb 16 be
       -0.117911 -0.07217621 -0.15736143 -0.14719944
000300 e5 44 55 be 38 37 81 be ae 9e 26 be 20 13 5c be
       -0.20827062 -0.2523744 -0.16271469 -0.2149167
000310 a8 a1 12 be af 38 67 be 8e 8c 17 be 36 fc 5a be
       -0.1431948 -0.22580217 -0.14799711 -0.21385273
000320 d3 71 30 be c8 86 2e be c6 ae 41 bd d5 ba 64 be
       -0.1723092 -0.17043602 -0.047285818 -0.22336896
000330 a3 0b 22 be 5b 0e 37 be c7 1a f0 bd 03 fb 05 be
       -0.15824752 -0.1787657 -0.117238574 -0.13084035
000340 60 6c f1 bd 64 73 5a be 2a d2 e5 bd dc 51 6a bd
       -0.11788249 -0.2133308 -0.11221726 -0.057206973
000350 e8 58 4f be da 32 03 be 96 d9 19 be 11 c6 3f be
       -0.20248759 -0.12812367 -0.15024409 -0.187279
000360 2e c7 3e be 89 74 01 be 51 b5 11 be 80 e5 01 be
       -0.18630669 -0.12642111 -0.14229323 -0.12685204
000370 14 45 1a be 36 70 3d be 38 50 2f be 17 0d 36 be
       -0.15065414 -0.18499836 -0.17120445 -0.17778431
000380 80 4f 1f be 5a 5a 02 be 98 87 42 be 0c 46 71 be
       -0.1555767 -0.12729779 -0.18997037 -0.23561877
000390 6a 75 f3 bd dd 9c 1a be 2c 9d e3 bd 82 32 2d be
       -0.11887629 -0.15098901 -0.111139625 -0.16913798
0003a0 da 1a f7 bd c2 55 09 be bd d5 69 be d9 d7 29 bd
       -0.120656684 -0.1341162 -0.22835441 -0.041465614
0003b0 cd a8 24 be 8e 67 0c be a6 aa 31 be f5 78 43 be
       -0.16080017 -0.13711378 -0.17350253 -0.1908911
0003c0 ea df 71 be 8d 25 3f be 1d 8e 11 be 07 91 49 be
       -0.23620573 -0.18666668 -0.14214368 -0.1968423
0003d0 25 97 17 be 0a b6 2c be e3 e9 7f be 1d 9e 25 be
       -0.14803751 -0.16866317 -0.24991564 -0.16173597
0003e0 ab b3 01 be 1d 55 41 be 9c 40 46 be 47 e8 69 be
       -0.12666194 -0.18880124 -0.19360584 -0.22842513
0003f0 f6 18 4c be 84 08 64 be ac 69 58 be 89 d4 66 be
       -0.19931397 -0.22268873 -0.2113406 -0.22542013

fc2.weight f4 [300, 400]
000000 8b a8 51 bd 1a 94 82 3c 11 f9 83 3d 47 da 9b bd
       -0.051186126 0.015939761 0.0644399 -0.076099925
000010 9f 7c cc 3d 0f 52 16 bd 99 c0 3a bd e4 12 cb 3d
       0.09984707 -0.03669935 -0.04559383 0.099157125
000020 52 60 e9 3c cc 8e 59 3d 9a 47 2c bc af 94 4a bd
       0.028488312 0.053114697 -0.010515118 -0.049458202
000030 c6 51 22 bd 8c fc e4 3d 11 5f 12 bd af 93 74 bd
       -0.039628766 0.11180982 -0.035735194 -0.059711155
000040 09 08 01 3c 0d e5 a8 3c 4b 47 c2 bc 90 1d 2e b9
       0.007875451 0.020617032 -0.023715636 -0.00016604946
000050 2c 29 c6 bc 0e 61 42 3b c7 dd a3 3c 23 eb 17 3d
       -0.024189554 0.00296599 0.020003213 0.03708948
000060 49 b4 8f 3d 10 0d d1 3c 89 f4 01 3e b1 07 9d bd
       0.070168085 0.025518924 0.12690939 -0.07667483
000070 7a 62 43 bd 5a f5 18 bd cf 93 00 3c 4c 7b 69 bd
       -0.047701336 -0.03734336 0.00784774 -0.05700235
000080 6c 16 16 3d 37 19 8a bd 29 f8 69 3d 5b 15 0c 3d
       0.036642477 -0.067430906 0.05712143 0.034200054
000090 bc bd 8d 3b 56 f4 af bc fb a2 e1 3c df c1 ad 3d
       0.0043255966 -0.021478813 0.027543535 0.084842436
0000a0 17 c8 82 3d 0c b8 45 bd 64 96 93 bd c7 0f ec 3d
       0.0638582 -0.048271224 -0.07206419 0.11526447
0000b0 ad 89 a5 3d e7 ed 13 3d dd e5 bd 3d d1 45 45 3d
       0.080829 0.036115553 0.092723586 0.048162285
0000c0 2c 19 b8 3c 1a 4a 78 3b 39 26 3e 3d d3 dd 8a 3d
       0.02247294 0.0037885965 0.04642317 0.06780591
0000d0 2e 94 f3 3d 5b 3d f6 ba 71 fd 85 3d 86 50 71 3c
       0.118934974 -0.0018786596 0.06542481 0.014728671
0000e0 9b 1f 1a 3b 8c 42 31 3d 7d 33 00 3d b6 95 90 bc
       0.0023517373 0.043276355 0.031299103 -0.017649513
0000f0 88 bc f8 3d 19 4a 71 bd df a6 12 3d 85 0a fd bb
       0.121453345 -0.058908556 0.035803672 -0.0077222013
000100 4f e1 64 bc e1 83 cb 39 58 e2 ca bb bb 0b 83 3d
       -0.013969733 0.00038817435 -0.006191533 0.06398722
000110 79 25 59 3d dd 18 2c 3e 71 dc 81 3c 7e e9 60 3d
       0.053014252 0.1680636 0.015852185 0.054910176
000120 62 51 ed bc 31 01 ef 3b 80 73 62 3c a3 d3 cd bc
       -0.02896947 0.007293843 0.013821483 -0.02512533
000130 58 3f 86 3c 00 7a 41 bd 2b 2e 16 bd 9a 5e 52 3d
       0.016387627 -0.04723549 -0.036665123 0.05135975
000140 c2 c8 e5 3d f1 03 3f be 64 86 cf bc 74 9f b6 bc
       0.11219932 -0.18653847 -0.025332637 -0.02229283
000150 16 99 13 bd d3 2f 41 3d 2d 18 4f 3d a7 1d 50 3d
       -0.036034666 0.04716475 0.050560165 0.05080953
000160 8f 2f 4c bd be 4c a5 bc fa 75 2f 3d eb 13 e5 3d
       -0.049850043 -0.020178195 0.04283712 0.1118544
000170 54 45 67 3c cb c0 87 3d a3 f2 c4 3d 8b 81 14 bc
       0.01411565 0.06628569 0.09616592 -0.009064089
000180 b4 f0 92 3c a3 8f 9a bb f3 95 0e bd f7 ee fd 3b
       0.017937042 -0.00471683 -0.03481097 0.007749434
000190 ac 91 bd 3c b9 ef db 3c 8f 7c 8c 3c ef 82 83 3d
       0.02314075 0.026847707 0.017149238 0.06421458
0001a0 36 ba 97 3b 31 c3 88 3c 44 23 95 3d 1a bd 84 3d
       0.0046303524 0.016694637 0.07282117 0.06481381
0001b0 5e 12 8e bc 2d 06 8f 3d 44 2d 45 3d 29 f2 ae 3d
       -0.017342743 0.069836 0.04813887 0.08542282
0001c0 36 8e e1 3d f4 97 22 3c 14 93 33 bd eb d2 31 bd
       0.11013453 0.009923924 -0.043841437 -0.043414038
0001d0 e1 8e 54 bd c5 d9 96 bd 1b 63 85 3d 92 04 38 3c
       -0.051894072 -0.07365755 0.065130435 0.011231558
0001e0 bc 75 5e bb c7 18 5a 3d f9 a7 35 3d b1 ba 0e 3d
       -0.0033944687 0.053246286 0.044349644 0.03484601
0001f0 06 e4 23 3c 34 e2 87 3d f7 0b 86 3d 33 ed 2a bd
       0.0100030955 0.06634942 0.06545251 -0.041730117
000200 13 51 4c 3d de d3 00 bb 56 33 07 bd d6 36 40 3d
       0.049882006 -0.0019657533 -0.033007942 0.046927296
000210 2b 38 fe 3c 72 13 fe bc a1 8b c4 3d 5f a3 06 3d
       0.031032642 -0.031015132 0.095969446 0.032870647
000220 6f 68 9a 3d 44 84 5b bc 89 27 25 bb c1 bf 17 bc
       0.075394504 -0.013398234 -0.0025200567 -0.009262026
000230 58 b7 f8 bd ba 55 c3 bc 40 78 ae bb 01 0b 85 3d
       -0.12144345 -0.023844589 -0.0053243935 0.064962395
000240 cd 07 1d 3e db 62 15 bd bc fd 8a 3d 8e 77 af 3d
       0.15335007 -0.03647123 0.06786677 0.08567725
000250 6a 06 b9 bc 65 47 ba 3d 61 82 bf 3d 80 0a 3b 3d
       -0.022586066 0.09095649 0.0935104 0.04566431
000260 e3 25 c1 3c fd 26 c6 3c 38 cd 90 bd 90 e3 4e bd
       0.023577636 0.024188513 -0.07070392 -0.05050999
000270 5d bd a6 3c 11 94 97 3c ee 98 d5 bd f6 95 81 3d
       0.020353967 0.01850322 -0.1042956 0.06327431
000280 47 58 c5 bd 32 8b 49 3d 5d ff 77 3d bc 21 2c bd
       -0.09635978 0.049205013 0.060546268 -0.04202436
000290 e8 0d a0 3d fa f6 bc bd 15 b9 af 3d 3d 7e a6 ba
       0.078151524 -0.092267945 0.085802235 -0.0012702417
0002a0 ad 1a ed 3d 28 5e cf bc 36 0a 7c 3d 7d 0f 45 bc
       0.115773536 -0.025313452 0.061533175 -0.0120276185
0002b0 be 97 32 bc ff 46 c4 3c c0 4c 22 3d 7b 71 36 bd
       -0.010900436 0.023959635 0.039623976 -0.044541817
0002c0 93 c8 8e bd 52 40 b6 bc 0e d2 73 bd 96 99 01 3d
       -0.0697185 -0.022247467 -0.059526496 0.03164061
0002d0 59 01 12 3e 0d 52 ef 3d e8 8f 79 3d 21 d2 c5 bd
       0.14258327 0.11685572 0.060928255 -0.096592195
0002e0 57 87 39 bc e8 91 89 3c 46 93 92 3c cf 49 8d 3c
       -0.011323771 0.016793206 0.017892491 0.017247109
0002f0 7f fc 69 bc 02 14 29 3b fb 8d 76 3d 8e 94 a9 bc
       -0.014281391 0.002579928 0.060193997 -0.02070072
000300 bb 20 06 bc e5 dd 03 bd 0f d2 80 3c e9 68 01 3c
       -0.0081865145 -0.032194037 0.015725164 0.007898548
000310 4e 59 a6 bb b1 df 39 bd d2 9b 84 3d b5 d8 ef bd
       -0.005076564 -0.045379344 0.06475033 -0.117112555
000320 da c2 84 bd ff 3b 2c bb 6b 0f c3 bd 09 c6 c9 bc
       -0.064824775 -0.0026280878 -0.09524425 -0.024630563
000330 e9 ff 86 bc de 09 b0 bc ef f5 9c 3d 65 fd 78 3d
       -0.01647945 -0.02148908 0.076640956 0.06078853
000340 a1 b9 df bc b9 a2 bd 3c c7 ae 3e 3c 2c 51 af 3d
       -0.027310194 0.023148881 0.01163835 0.08560404
000350 e5 f5 be 3c e2 3d c0 bc 15 5a 8c 3c cc b3 07 be
       0.023310611 -0.023467008 0.017132798 -0.13252181
000360 54 ab 9e 3d 2f a3 1c bc b0 36 66 3d 34 c1 5a bd
       0.07747522 -0.00956039 0.056204498 -0.05340691
000370 ca 9a de bc e4 d6 90 bd bc a1 3b 3d a0 4e e0 bc
       -0.027173419 -0.07072237 0.04580854 -0.027381241
000380 09 8d 94 3d 3e ed f7 3c fa aa 55 bd 26 01 4a 3d
       0.07253463 0.030264493 -0.05216501 0.0493175
000390 8a 02 29 bd bf 7b 6f 3d d2 bf 6f 3d ae 4c 85 bd
       -0.041262187 0.058467623 0.058532543 -0.06508766
0003a0 95 37 3b 3d 4a 0d 37 bd f7 b1 91 3d 27 e8 f1 bc
       0.045707304 -0.044690408 0.07114022 -0.029529644
0003b0 d9 a7 2d bc 82 2b b3 3d ed b7 c5 bc 91 0f d4 3a
       -0.0105991 0.08748533 -0.024135554 0.0016178956
0003c0 fb b3 cc 3c e4 ba 2f 3e 58 e8 11 bd a2 00 88 3c
       0.024988165 0.17161137 -0.03562197 0.016601864
0003d0 a8 90 54 3d d6 7b 23 3d 16 4e 82 bc e3 e5 58 3d
       0.051895767 0.03991302 -0.015906375 0.052953612
0003e0 4e 7e 68 bd 2b 6d 87 bd f9 00 f6 bc 80 4b 04 3d
       -0.05676108 -0.06612619 -0.03002976 0.032298565
0003f0 28 35 b0 bd ae 03 54 3c ac 3c a4 3d 24 a0 14 bd
       -0.08603889 0.01294033 0.08019385 -0.036285535

fc2.bias f4 [300]
000000 5a dc b4 bc 39 cc 1f 3d f1 50 6e 3d cd ff 43 bc
       -0.022077728 0.03901312 0.05818266 -0.011962843
000010 e6 25 cd 3c fa 59 5e 3c 4e 09 be 3d 3d a2 31 bc
       0.025042485 0.013571257 0.092791185 -0.010841903
000020 e9 f2 71 bc 62 ab f0 b9 3b df e8 bc 51 ee bb 3c
       -0.014767387 -0.00045904057 -0.028426757 0.022940787
000030 32 84 92 3d 9d 75 b0 3c 62 6a 63 3d 9f 19 77 3d
       0.071541205 0.021540457 0.055521376 0.06032717
000040 e5 48 a2 bc fe 09 4d bc 33 13 1d 3d 53 78 b3 bb
       -0.01981015 -0.012514589 0.038348388 -0.0054769902
000050 3d 6e 7b 3d c6 04 0c 3d 3f 98 ca 3d 2e 58 39 3d
       0.06138443 0.03418424 0.0989232 0.04525011
000060 24 ad 95 3d e2 82 2e bb 00 a9 17 bc 9f e2 5a 3d
       0.073084146 -0.0026628305 -0.009256601 0.05343878
000070 2e 98 4b 3c f7 5a 20 3d 66 d5 e8 bb 56 45 b6 bc
       0.012426419 0.03914925 -0.007105517 -0.022249859
000080 40 b8 87 3d 97 df 1a 3d df c3 8f 3d cc f8 4c 3d
       0.0662694 0.03781089 0.07019781 0.05004196
000090 65 31 8e 3b 91 d3 b4 3d 78 44 e6 bc f0 e5 6c bc
       0.0043393844 0.088294156 -0.02810882 -0.014459118
0000a0 0e 46 13 3d f2 1e 44 3d 82 72 12 bc 65 c0 33 3b
       0.03595548 0.047881074 -0.008938434 0.0027427908
0000b0 bb e4 0e bd 8d 88 92 3c ac a6 1f 3d 9e 89 44 3d
       -0.034886103 0.017887378 0.03897731 0.047982804
0000c0 97 df 36 3d ea c5 6c 3d 50 5b b2 3d cb 7c 43 3d
       0.044646826 0.057805933 0.08708823 0.047726434
0000d0 44 44 6d 3c 7a 46 ec bc a4 57 43 3d 91 22 02 bd
       0.014481608 -0.0288422 0.047691002 -0.031771246
0000e0 4f e8 07 bc 82 1a 7a 3d fd 30 a4 3c 99 8b 40 3d
       -0.008295133 0.061060436 0.02004289 0.04700813
0000f0 7a dc 3e 3d ab d6 95 3d 5a 3f 28 3d 12 7e c5 3b
       0.04659698 0.07316335 0.04107604 0.0060269916
000100 e3 32 39 3d d7 5f af bc 31 af 1d 3c 6d 7b be 3c
       0.045214545 -0.021408005 0.009624288 0.023252213
000110 c0 c6 50 3d db dc 8e 3d 80 89 18 3e dd 24 f8 bb
       0.050970793 0.069757186 0.14896202 -0.007572754
000120 6e df 41 3c 1d 5d 0f 3d 46 02 ed bb d1 c0 8a 3c
       0.011833055 0.03500091 -0.007232937 0.016937645
000130 4e 12 e2 bc 62 d8 8a 3b 81 73 61 3c 45 95 75 3d
       -0.027596619 0.0042372206 0.013760448 0.059956808
000140 34 f1 bb bc 5f a0 90 bc 32 50 bf 3c 5c 4b 0b bc
       -0.022942163 -0.017654596 0.02335367 -0.008501854
000150 33 bd d7 bb ea 1b 82 3d 1d 15 bd 3b 22 75 c6 3c
       -0.0065838336 0.063529804 0.005770339 0.024225775
000160 3a 1a 44 bc 30 39 9e bc 19 ed 00 3d 5a 0c 05 3d
       -0.0119691435 -0.019314378 0.031476114 0.032482482
000170 c4 7a df bc 72 94 66 3d 0b ad b7 bb f4 b6 9d 3c
       -0.027280219 0.056293912 -0.005605345 0.019252278
000180 88 51 4c 3b 41 bc ad 3c f7 83 16 3c ce 6e fe 3c
       0.0031176526 0.02120793 0.009186736 0.031058695
000190 8d 4e 91 bb af 70 d1 3d c1 5d 7c bb 93 09 7c 3d
       -0.004434413 0.10226571 -0.003850803 0.06153257
0001a0 36 7d 45 3d 0b 34 82 3d b7 00 cd 3c e9 73 f2 3b
       0.048215114 0.06357583 0.025024755 0.0073990715
0001b0 fd 95 3e 3d 3f 69 aa 3c 06 93 10 3d b9 a9 16 3c
       0.04652976 0.020802138 0.035296462 0.0091957385
0001c0 c7 57 08 3d 4c 6a b8 bc 55 d7 ca bc 67 78 b3 bb
       0.033286836 -0.022511624 -0.024760881 -0.0054769996
0001d0 ee 5a ac bc de 1b e1 3c cf 92 01 3d 31 5f 84 bb
       -0.021039452 0.027479108 0.03163415 -0.004039668
0001e0 f4 74 29 3c 4b 07 e0 3d 03 73 fa bc 3c 5d 02 3b
       0.010342825 0.10938891 -0.03057242 0.0019891998
0001f0 65 db b2 3c 74 30 83 bc e4 0c 8a 3d 1b be a3 3c
       0.021833131 -0.016014315 0.0674074 0.01998811
000200 32 86 2e 3c 88 48 d6 bc f5 d0 9e 3c 1a 51 b9 bb
       0.010652112 -0.026157632 0.019386748 -0.00565542
000210 7d 59 e1 bb 7c 41 04 bd 8e a5 03 3d a8 79 11 3d
       -0.006877123 -0.032289013 0.032140307 0.03551641
000220 bb 28 5d 3b 27 77 30 bc 23 1f b4 bc a3 c7 27 3d
       0.00337462 -0.010770596 -0.021987503 0.040961873
000230 2f 1b 58 3d e6 27 11 3d 9e a8 59 3d 3e c4 15 bc
       0.0527603 0.03543844 0.05313932 -0.009141026
000240 5e 6e 00 3d 90 73 02 bc 99 c4 91 3d 98 95 83 3c
       0.031355254 -0.007962123 0.07117576 0.016062543
000250 92 60 6c 3d 01 90 19 bc cb 58 fe 3c aa de 2f 3d
       0.057709284 -0.009372712 0.0310482 0.04293696
000260 fc b5 02 3b ad 4e 70 3d 77 24 c4 3b dd 21 ac bc
       0.0019944897 0.05866878 0.0059857923 -0.021012241
000270 ca 5d 56 bc 31 a4 66 3d a3 28 c5 3c d8 4d 82 3c
       -0.0130838845 0.05630893 0.024067229 0.01590626
000280 05 43 da 3c 7a 5e c2 bc 2b ba f4 bc 0a 1e 30 bc
       0.026643286 -0.02372669 -0.029873928 -0.010749349
000290 e2 0f 3f 3d 02 be 3b 3c fa 29 e7 3b 72 37 0b 3d
       0.046646006 0.011458876 0.0070545645 0.033988424
0002a0 89 07 56 3c 43 9e 84 3d a1 ad 50 3d 8c 80 4e bb
       0.01306332 0.064754985 0.050946835 -0.0031509725
0002b0 cc e7 41 3d f6 05 69 3d 84 82 44 3c 6f 33 8d 3c
       0.0473402 0.05689045 0.011994008 0.01723644
0002c0 94 34 06 3d 41 e0 11 bd e6 12 1b 3d 7e a4 0a 3c
       0.032764986 -0.035614256 0.03785982 0.00846207
0002d0 43 67 7b 3a 56 6d bb bb 91 d7 59 3d 96 df 0c 3d
       0.00095902773 -0.005719821 0.053184096 0.034392916
0002e0 ee 84 21 bd f9 71 c8 3c 16 37 26 3d e4 3d 5b 3d
       -0.039433412 0.024468409 0.040579878 0.05352582
0002f0 c2 8b a7 bc d3 55 f8 39 ec 83 8f 3c df 9b 0e bd
       -0.020452384 0.0004736619 0.01751896 -0.03481662
000300 a3 65 76 3d 30 e9 a5 bc c9 6f 88 3c eb 36 03 3d
       0.060155522 -0.020252794 0.016654866 0.032034796
000310 ef 9c 87 3c 29 e0 a2 3c ef 6b 17 bd ed a3 03 bd
       0.016554324 0.019882279 -0.036968168 -0.032138754
000320 1d 69 11 3d d9 c7 35 3d 28 d4 56 3d fe 68 ad 3c
       0.035500634 0.044380043 0.05244842 0.021168228
000330 36 be 8a 3d 3c a1 33 3d 30 f1 3b 3d 93 59 48 3c
       0.06774561 0.043854937 0.04588431 0.012228387
000340 08 c4 2b bb 50 d4 9b 3b 9b d4 3e 3d ba 30 ae 3c
       -0.0026209373 0.004755534 0.046589475 0.021263469
000350 22 8b bc bc 42 5d 34 3b 91 4f 7a 3d f8 ed a1 3d
       -0.023015562 0.0027521406 0.061111037 0.07906717
000360 a0 b0 83 3c 83 04 87 3d a1 af 41 3d 60 71 0e 3d
       0.016075432 0.065926574 0.047286633 0.03477609
000370 1f b2 62 bc 66 59 d7 bb 1a 9b 28 3d 5c fa ba bc
       -0.013836413 -0.0065719364 0.04116354 -0.022824459
000380 2c 30 45 bc 55 a4 98 3d 71 4a 0e 3d d4 53 e6 3c
       -0.012035411 0.07453219 0.03473896 0.028116144
000390 99 63 cd 3d f5 e2 55 3d b5 05 88 bc 95 59 93 3d
       0.10028762 0.052218396 -0.016604284 0.07194821
0003a0 a1 67 c9 bc 77 3d 7d 3d 25 5f f5 bc 83 48 66 ba
       -0.024585547 0.061826196 -0.029952595 -0.0008784609
0003b0 ed b0 62 3b 35 fd 11 3d a6 72 c2 3d 4f c1 5d 3d
       0.003459032 0.035641868 0.09494524 0.05413943
0003c0 39 95 1f 3d 03 12 9a bb 2c 98 11 3c 87 ce f2 bc
       0.03896067 -0.004701854 0.008886378 -0.029639496
0003d0 be 6a eb 3c 09 60 cd 3c bb a8 98 3c 39 06 06 3c
       0.028737422 0.025070207 0.018635144 0.008180195
0003e0 19 24 d3 3c 4a d9 9a bb 04 6d 8a b9 44 10 01 3c
       0.025774049 -0.00472561 -0.00026402634 0.007877413
0003f0 01 ff 59 3d 4d a9 b7 3d bf 09 90 bc 29 46 22 bb
       0.053221706 0.089678384 -0.017582772 -0.0024761057

bn2.weight f4 [300]
000000 e5 90 cd 3f 07 50 bd 3f 69 47 9d 3f de a0 a5 3f
       1.6059843 1.4790047 1.2287418 1.2939718
000010 80 5d 87 3f a2 51 98 3f 5a ac 4c 3f 03 de 6b 3f
       1.0575409 1.1899912 0.7995049 0.9213564
000020 dc 23 70 3f dc 18 91 3f 53 60 9c 3f 38 68 88 3f
       0.9380472 1.1335711 1.2216896 1.0656805
000030 65 9d 9d 3f 46 7f 4f 3f 81 74 8f 3f ef 1e 3b 3f
       1.2313658 0.8105358 1.1207429 0.73094076
000040 86 70 a9 3f 8c 33 92 3f dc d1 9f 3f 48 27 a2 3f
       1.3237464 1.1421981 1.2485919 1.2668238
000050 d5 b8 99 3f b7 f6 72 3f d2 c8 30 3f 02 2c b8 3f
       1.2009531 0.94907707 0.6905643 1.438843
000060 5c 7a 37 3f 4c 2a ad 3f 1f c5 a7 3f 27 08 bc 3f
       0.7167108 1.3528533 1.3107032 1.4689988
000070 d4 e4 99 3f 1d 79 3b 3f 0c 92 5f 3f 09 e1 88 3f
       1.2022958 0.7323168 0.87332225 1.0693675
000080 13 fd 93 3f 74 35 97 3f a3 21 52 3f fa 15 51 3f
       1.1561607 1.1813188 0.82082576 0.8167416
000090 8b 28 c6 3f d6 d2 36 3f a7 98 9b 3f 11 8f 87 3f
       1.5481123 0.7141546 1.2155961 1.0590535
0000a0 31 f1 9f 3f e9 19 a5 3f a9 00 96 3f 9b 79 6b 3f
       1.2495481 1.2898532 1.1718951 0.9198243
0000b0 46 02 a0 3f 70 81 83 3f 90 ed a3 3f 3f 1f b6 3f
       1.2500694 1.0273876 1.2806873 1.4228286
0000c0 3b 57 88 3f 23 9b 61 3f 8c 28 4e 3f 7f c5 64 3f
       1.0651621 0.88127345 0.8053062 0.89363855
0000d0 04 d2 7e 3f f7 af 8f 3f 25 a9 9b 3f 30 21 aa 3f
       0.9953921 1.1225575 1.2160994 1.3291378
0000e0 3a 37 8c 3f 32 50 90 3f fa 79 8e 3f 83 01 85 3f
       1.0954354 1.1274474 1.1130974 1.0391086
0000f0 58 f1 8e 3f e4 91 32 3f 4a ae c0 3f 85 b9 90 3f
       1.1167402 0.6975386 1.5053189 1.1306616
000100 9a 4d 92 3f aa 79 a5 3f b1 24 9d 3f a0 42 94 3f
       1.1429932 1.2927754 1.2276822 1.1582832
000110 4e 20 8e 3f b9 67 70 3f 68 fa 17 3f 24 aa 86 3f
       1.1103609 0.9390827 0.59366465 1.0520673
000120 23 b4 90 3f b4 9e a8 3f 0b 80 9e 3f 1c 7c 99 3f
       1.1304973 1.3173432 1.2382826 1.1991
000130 11 64 68 3f 11 46 9a 3f 34 e9 92 3f 65 d5 80 3f
       0.9077769 1.2052633 1.1477418 1.0065123
000140 66 88 b9 3f 46 ff 7d 3f 15 f0 8d 3f 85 8e 98 3f
       1.449475 0.9921764 1.1088892 1.1918494
000150 18 e1 90 3f c3 9c 79 3f 89 a0 96 3f 23 76 33 3f
       1.1318693 0.97504824 1.1767741 0.7010214
000160 47 a2 63 3f f6 88 8e 3f a4 66 7f 3f 02 d0 a4 3f
       0.8891949 1.1135547 0.9976599 1.2875979
000170 50 2f 93 3f 0f b8 88 3f 3f 02 8e 3f 42 26 8c 3f
       1.1498814 1.068117 1.1094435 1.0949175
000180 de 52 c8 3f c6 ab 62 3f 7c 1c 50 3f 8e 95 90 3f
       1.5650289 0.88543355 0.81293464 1.129564
000190 6b ef cf 3f 67 07 2e 3f 49 0d 53 3f 4e ac 9e 3f
       1.624494 0.67980045 0.82442147 1.2396333
0001a0 0b 62 9b 3f 93 45 7c 3f 48 85 96 3f a9 4c 8a 3f
       1.2139295 0.9854366 1.1759424 1.0804645
0001b0 cf 63 91 3f 05 9a b6 3f 5f 19 9f 3f 73 b1 a5 3f
       1.1358584 1.4265753 1.2429618 1.2944778
0001c0 28 8d 8a 3f dd 82 6e 3f 02 e9 85 3f 50 1d 92 3f
       1.0824327 0.9316843 1.0461733 1.1415195
0001d0 80 0f a6 3f d9 f5 9b 3f 4f 8b af 3f bc aa 96 3f
       1.297348 1.2184402 1.3714389 1.1770854
0001e0 e5 0b 66 3f af e8 2f 3f 8c 95 a6 3f 53 c0 ae 3f
       0.898619 0.6871442 1.3014388 1.3652443
0001f0 b1 ea 97 3f 0d d7 83 3f c6 86 9c 3f f6 24 a5 3f
       1.1868497 1.0300003 1.222863 1.2901905
000200 1d 97 96 3f 45 e0 86 3f 61 0c 96 3f 7e 70 85 3f
       1.1764866 1.0537192 1.1722528 1.0424955
000210 d0 2f 69 3f 0c 6b a9 3f ce 9d 9f 3f aa e8 c1 3f
       0.9108858 1.3235793 1.2470033 1.5149128
000220 c4 af 9f 3f 67 16 a4 3f 7b e4 95 3f ee a3 af 3f
       1.2475514 1.2819337 1.1710352 1.3721902
000230 60 fa 8b 3f d1 a2 a5 3f 1d ee 83 3f 1f 3b b4 3f
       1.0935783 1.2940313 1.0307041 1.4080542
000240 5f 96 9e 3f 27 49 8e 3f be 99 9a 3f be 2e a6 3f
       1.238964 1.1116074 1.2078168 1.2983015
000250 35 25 3a 3f 0e ee 88 3f c3 43 84 3f 99 04 95 3f
       0.72713023 1.0697649 1.0333179 1.1642028
000260 11 64 b4 3f 6f a2 54 3f e2 c4 c9 3f d5 7f a5 3f
       1.4093038 0.83060354 1.5763209 1.2929636
000270 0f 57 77 3f 77 2e 9a 3f 3b 0c 41 3f cd dc 9a 3f
       0.96617216 1.204543 0.7540929 1.2098633
000280 d1 ce a8 3f ee 53 8e 3f ff 68 b4 3f 72 e1 9c 3f
       1.3188115 1.1119363 1.4094542 1.22563
000290 01 6f bf 3f f2 dc 91 3f c2 7b b6 3f f8 a3 89 3f
       1.4955751 1.1395552 1.4256518 1.0753164
0002a0 5c 96 45 3f 82 63 85 3f 79 73 81 3f 07 b8 ad 3f
       0.77182555 1.0420992 1.0113364 1.3571786
0002b0 a9 b7 9b 3f a1 12 ab 3f 49 bc 87 3f f4 68 b6 3f
       1.2165424 1.336506 1.0604335 1.4250779
0002c0 2d b7 3f 3f 50 bd 8f 3f cc 35 af 3f 04 72 b8 3f
       0.7488888 1.1229649 1.3688293 1.4409795
0002d0 5a 36 a6 3f bd 79 94 3f b3 d3 a7 3f d6 08 7b 3f
       1.2985337 1.1599652 1.311148 0.9806036
0002e0 b7 6e 9b 3f 2d bb 91 3f 14 e4 92 3f db 76 ae 3f
       1.2143162 1.1385247 1.1475854 1.3630022
0002f0 2f d9 78 3f 82 ed 8e 3f 3c da 86 3f 18 1b ac 3f
       0.97206396 1.1166232 1.053535 1.3445768
000300 45 45 44 3f be 3c b9 3f 6e 1a 52 3f b9 dc 90 3f
       0.76668197 1.4471662 0.8207158 1.1317359
000310 1f 32 4c 3f 16 a1 39 3f 72 b1 a0 3f 6f 25 c5 3f
       0.7976398 0.7251142 1.2554152 1.5402049
000320 72 9a 74 3f 8b 4e a0 3f 38 b5 c3 3f 0b 44 88 3f
       0.95548165 1.252397 1.5289679 1.0645765
000330 57 81 9f 3f b0 57 a3 3f 04 08 37 3f be e0 93 3f
       1.2461346 1.2761135 0.71496606 1.1552961
000340 b9 72 8d 3f 07 ec b1 3f e3 bf 9a 3f c3 9f 8d 3f
       1.1050636 1.3900155 1.2089809 1.106438
000350 eb bb a8 3f 00 50 87 3f 8a 96 8d 3f a9 bf 6a 3f
       1.3182348 1.0571289 1.1061566 0.916987
000360 64 63 a2 3f 39 2d 8d 3f 89 19 42 3f b2 86 78 3f
       1.2686582 1.1029426 0.75820214 0.9708053
000370 3d f3 4b 3f 25 f9 b4 3f f7 86 90 3f 23 b5 82 3f
       0.7966803 1.4138533 1.1291188 1.0211529
000380 d4 bd 81 3f 33 bd 1d 3f 5e a8 8b 3f 33 e8 96 3f
       1.0136056 0.6161682 1.0910757 1.1789612
000390 b1 d7 30 3f 4b 35 ae 3f 74 bd 8f 3f a2 d4 66 3f
       0.6907912 1.3610014 1.1229692 0.901682
0003a0 26 bf 95 3f a2 df 96 3f a6 da 83 3f 4f cb 64 3f
       1.1698959 1.1786997 1.0301101 0.89372724
0003b0 05 52 89 3f c7 2b 90 3f 9e e3 34 3f 3f b8 9c 3f
       1.0728155 1.126336 0.70659816 1.2243727
0003c0 96 7d b1 3f 20 f2 52 3f 75 d7 a8 3f db 73 af 3f
       1.3866451 0.82400703 1.3190752 1.3707231
0003d0 78 2f a3 3f 1b ba ac 3f cb fd 70 3f 00 9a 81 3f
       1.2748861 1.3494295 0.9413726 1.0125122
0003e0 23 f8 8c 3f 34 7e 92 3f d0 5a 92 3f 45 57 a1 3f
       1.1013225 1.1444764 1.1433964 1.2604758
0003f0 af ae 7c 3f 01 8c 3b 3f d4 cc a7 3f 3b 2c 97 3f
       0.98704046 0.73260504 1.3109384 1.1810373
