models/ddpg_ant_200.pt (torch, 669566 bytes, 10 tensors)

fc1.weight f4 [400, 105]
0	0x3d460b28	0.048350483
1	0x3d85a669	0.06525881
2	0xbd635da5	-0.05550923
3	0xbcef11c7	-0.029183282
4	0xbdd5e3d3	-0.10443845
5	0x3cb099f3	0.021557784
6	0x3d75519d	0.059892286
7	0x3d1168ed	0.035500456
8	0x3d231bb6	0.03982135
9	0xbd363ee2	-0.044493563
10	0xbe0d705e	-0.13812396
11	0x3da58e51	0.08083785
12	0x3da57bb9	0.08080239
13	0x37fba2c8	2.9997333e-05
14	0x3c2704a3	0.010193977
15	0xbdae866c	-0.08521733
16	0x3cd9f52a	0.026606161
17	0xbd02aec8	-0.031904966
18	0x3ce201f9	0.027588831
19	0x3cd93c6d	0.026518071
20	0xbc012092	-0.0078813005
21	0xbb9a5bad	-0.0047106356
22	0xbc37e6c7	-0.011224455
23	0xbc535fa1	-0.012901218
24	0xbbf42b03	-0.0074514165
25	0xb9370502	-0.00017454106
26	0x3a3599f3	0.0006927542
27	0xbc86d4a8	-0.016458824
28	0xbc56dbdc	-0.013113942
29	0xbd4dfc66	-0.050289534
30	0x3d425e64	0.0474533
31	0x3c7ca7df	0.015420883
32	0x3d064708	0.032782584
33	0xbc631553	-0.013860065
34	0x3d24dcf2	0.040249772
35	0x3d3412c8	0.043963224
36	0x3ccebf42	0.025237683
37	0xbbd34342	-0.0064472267
38	0x3b9d0132	0.0047914023
39	0x3d3033d9	0.043018196
40	0x3c26f5b6	0.010190418
41	0xbd3b20a1	-0.045685414
42	0x3d8c9087	0.06863504
43	0x3d9107a7	0.07081538
44	0x3ce92534	0.028460123
45	0x3d7c8bd0	0.061656773
46	0xbdaa78a4	-0.083237916
47	0xbcdb014b	-0.026734015
48	0x3d0216bc	0.031759962
49	0x3c0c7d5d	0.008574811
50	0xbc88e01d	-0.016708428
51	0x3cafc745	0.021457324
52	0xbd195ec0	-0.037443876
53	0x3cdebe50	0.027190357
54	0xbc9884f4	-0.018618084
55	0x3cf1b23c	0.029503934
56	0x3b71e7dd	0.0036911883
57	0x3c0c26b2	0.008554148
58	0x3cc2d377	0.023782475
59	0xbd828b59	-0.06374235
60	0x3cd8de9c	0.026473336
61	0x3d52ac07	0.05143359
62	0x3db374ff	0.087625496
63	0x3db8c962	0.09022786
64	0x3aff72b6	0.0019489143
65	0x3d1d4d4d	0.038403798
66	0x3ce99d84	0.028517492
67	0x3e1258f2	0.14291742
68	0xbd9b6563	-0.07587697
69	0x3b6c4725	0.0036053148
70	0x3d0b4277	0.033998933
71	0xbd0a563f	-0.033773657
72	0xbd19314c	-0.03740053
73	0x3cf5641c	0.029954962
74	0x3cbf5f6c	0.02336093
75	0xbcb791d2	-0.0224084
76	0x3c8eae03	0.01741696
77	0xbddbf43b	-0.10739943
78	0xbdb63428	-0.08896667
79	0xbd369072	-0.044571348
80	0x3d18b7b7	0.03728458
81	0x3d60bfda	0.054870464
82	0x3db690b8	0.08914322
83	0xbd4415a7	-0.04787221
84	0xbbc43d25	-0.0059887343
85	0x3dd2ef54	0.102995545
86	0x3b2c6e1c	0.0026310747
87	0x3cc27a7b	0.023740044
88	0xbd276d32	-0.04087562
89	0x3d0607e4	0.03272237
90	0xbc270c4f	-0.010195806
91	0xbd2aeefb	-0.041731816
92	0x3cdccd52	0.026953373
93	0xbc0e8a6c	-0.0086999945
94	0x3b69e860	0.0035691485
95	0x3d802094	0.06256214
96	0x3d838aac	0.06422934
97	0xbc20620e	-0.009789003
98	0x3cd08da7	0.02545817
99	0xbdf2a32e	-0.1184753
100	0x3cf48b57	0.029851599
101	0xbc5bdeb3	-0.013419795
102	0x3d8bc0d3	0.06823888
103	0xbdbd67a8	-0.092482865
104	0xbd387906	-0.045037292
105	0x3e1bfff7	0.15234362
106	0x3c82eddd	0.015982563
107	0x3ea25246	0.31703395
108	0x3df33761	0.11875797
109	0xbd4f956f	-0.05067962
110	0x3c8541b4	0.016266681
111	0x3bed8f9f	0.007249787
112	0x3d496bf3	0.049175214
113	0xbd5ae501	-0.05344105
114	0x3c886945	0.016651759
115	0xba3eb3f5	-0.00072747405
116	0x3d8c8f4e	0.06863271
117	0xbd7ccce9	-0.061718855
118	0xbd76136f	-0.060077127
119	0xbc871f4d	-0.016494418
120	0x3d2e5dbd	0.042569865
121	0x3d0edc59	0.03487811
122	0xbccc5b73	-0.02494595
123	0x3d3d6c6a	0.04624597
124	0xbb7889e5	-0.0037923988
125	0xbd3fe69c	-0.046850786
126	0x3c786d27	0.015162743
127	0x3c1906f6	0.0093400385
128	0xbcfafbbe	-0.030637618
129	0x3bae0e36	0.0053117527
130	0x3b4528b3	0.0030084073
131	0xbb7f0020	-0.0038909987
132	0x3d05855a	0.032597877
133	0xbd6782cb	-0.05652122
134	0xbde55ad7	-0.11198967
135	0xbcfd8b1a	-0.030950118
136	0x3da6f899	0.08152885
137	0x3dd27a19	0.102771945
138	0x3d1c2c71	0.03812832
139	0xbd0b25a4	-0.033971444
140	0xbcacf4d9	-0.021112846
141	0xbc6123ea	-0.013741473
142	0x3cf12c51	0.029440077
143	0x3cbe18bd	0.023205156
144	0xbc5915c7	-0.013249821
145	0xbd991867	-0.074753575
146	0xbc871ad8	-0.016492292
147	0xbcc1a120	-0.0236364
148	0xbc912d7f	-0.01772189
149	0x3c28b9e4	0.010298226
150	0xbd2f656c	-0.042821333
151	0x3e0152c8	0.12629235
152	0xbdc1fa32	-0.09471549
153	0xbc3948f5	-0.011308898
154	0x3c32fe04	0.01092482
155	0xbcb239ea	-0.021756131
156	0xbbe841c7	-0.0070879194
157	0x3cc94a58	0.024571583
158	0xbcf58613	-0.029971158
159	0xbd04b88b	-0.032402556
160	0xbce5b478	-0.028040156
161	0x3c38bde3	0.011275741
162	0xbe4ace52	-0.19805267
163	0xbc455996	-0.012045285
164	0x3db57781	0.08860684
165	0xbd55dce8	-0.052212626
166	0xbb42d09a	-0.0029726387
167	0x3cf0da7c	0.029401056
168	0xbcb8b652	-0.022547875
169	0x3d527f25	0.051390786
170	0x3c7bcd7b	0.015368815
171	0x3caaa985	0.020832786
172	0x3a3adb26	0.00071279926
173	0x3c46a254	0.012123663
174	0xbd1f7870	-0.038933218
175	0x3ca2500e	0.019813564
176	0xbb3f1808	-0.002915861
177	0xbb9f6a59	-0.0048649726
178	0xbc2e078a	-0.010621915
179	0xbca4c3d2	-0.020112906
180	0xbd103b9e	-0.035213105
181	0xbd8cbd07	-0.068719916
182	0x3cec287e	0.028827902
183	0xbd98d9cf	-0.07463419
184	0x3d81aba4	0.06331566
185	0xbd11a80a	-0.035560645
186	0xbd7935d1	-0.06084234
187	0xbc6d5c70	-0.014487371
188	0xbd02eac9	-0.03196219
189	0x3d40a40a	0.04703144
190	0xbbb2746e	-0.0054460084
191	0x3cd64b0f	0.026158838
192	0xbc9baabc	-0.019002311
193	0xbcb5b7d3	-0.02218238
194	0x3c03aeb4	0.008037258
195	0x3d39e3ca	0.045383252
196	0xbccba7b8	-0.024860248
197	0x3b4f170f	0.0031599437
198	0xbd98c740	-0.07459879
199	0x3d41db8d	0.04732852
200	0xbc1b344e	-0.00947292
201	0xbbf39c23	-0.0074343844
202	0xbc844ebf	-0.01615083
203	0xbd3b604b	-0.04574613
204	0xbc2f8446	-0.010712689
205	0xbd59809c	-0.053101167
206	0xbd6d2823	-0.057899605
207	0xbd80fbff	-0.062980644
208	0xbd0ad1a8	-0.03389135
209	0x3d46eb3c	0.04856418
210	0xbd18e7b1	-0.037330333
211	0x3c9cfcf2	0.019163582
212	0xbd83d0bf	-0.064362995
213	0xbcb8cc81	-0.022558453
214	0xbd121365	-0.035663027
215	0x3d4122fd	0.047152508
216	0x3d1aeaed	0.0378217
217	0xbd8a68da	-0.0675828
218	0xbce4bd52	-0.027922306
219	0xbd7d1b5c	-0.06179367
220	0xbd379605	-0.044820804
221	0xbdf88121	-0.121340044
222	0x3cfd33e4	0.030908532
223	0xbd7ed798	-0.062217325
224	0x3d7aca6e	0.06122821
225	0xbc9f6bf6	-0.01946066
226	0xbd17977c	-0.0370097
227	0xbb4906b6	-0.0030674166
228	0xbaa9fe94	-0.0012969547
229	0x3be7ce1b	0.0070741302
230	0xbcd525af	-0.026018946
231	0x3b2211df	0.002472989
232	0xbbd6cffe	-0.0065555563
233	0xbc586ddd	-0.013209787
234	0xbd019363	-0.0316347
235	0xbc0d436d	-0.008622033
236	0x3cec3c0e	0.02883723
237	0xbdc56e48	-0.09640175
238	0xbd8deb0a	-0.06929596
239	0x3b38b30b	0.002818289
240	0x3d980b34	0.07424012
241	0xbcc797cb	-0.024364373
242	0xbd89047d	-0.06690309
243	0x3d074e74	0.033033803
244	0xbcf09ead	-0.029372538
245	0x3d2b184a	0.04177121
246	0xbc964964	-0.018345542
247	0xbd24fb19	-0.040278528
248	0xbd11cfeb	-0.035598677
249	0x3c77b38a	0.015118489
250	0x3e03a5c7	0.12856208
251	0xbd666e6b	-0.056257647
252	0x3df541fb	0.119754754
253	0x3d93ac17	0.07210558
254	0x3b36c6fa	0.0027889595
255	0xbcd2c573	-0.025728917

fc1.bias f4 [400]
0	0x3d20dcb1	0.039272968
1	0x3c93990e	0.018017318
2	0x3cd00ef1	0.02539775
3	0x3d14b45e	0.036304824
4	0x3d4ab726	0.04949107
5	0x3d0b7891	0.034050528
6	0x3dabca08	0.08388144
7	0x3c15245a	0.009102905
8	0xbd0700d0	-0.03295976
9	0xbbca9fd9	-0.006183606
10	0xbbd51b1f	-0.006503477
11	0xbc46af31	-0.01212673
12	0xbd933a81	-0.07188893
13	0xbcea0d1c	-0.028570704
14	0x3dceb5c7	0.10093265
15	0xba94b39e	-0.0011345034
16	0x3cb7932b	0.022409042
17	0xbabd3b7e	-0.0014437286
18	0xbd35a2e6	-0.044344805
19	0xbd6cf200	-0.057847977
20	0x3d3777d5	0.044792015
21	0xbda6bf42	-0.08141948
22	0xbbd01f9e	-0.0063514253
23	0xbc9e7b01	-0.019345762
24	0x3c172ca3	0.009226951
25	0xbb2948e0	-0.002583079
26	0xbd19a618	-0.037511915
27	0x3dcaf8f0	0.09910762
28	0xbd2f4267	-0.042787936
29	0x3d93416b	0.07190212
30	0xbccc68ca	-0.024952311
31	0x3d9da03d	0.07696579
32	0xbd530a14	-0.051523283
33	0xbcdffb61	-0.027341546
34	0xbd2e3681	-0.042532448
35	0x3b7ac14b	0.0038262184
36	0xbdc90efe	-0.09817313
37	0xbc846218	-0.016160056
38	0x397818b3	0.00023660324
39	0xbc8d937f	-0.017282246
40	0x3ce83a26	0.02834804
41	0x3d11d762	0.035605796
42	0x3d1e6c5a	0.03867755
43	0x3d8580d0	0.0651871
44	0x3cfbcee4	0.030738302
45	0xbca402cd	-0.020020867
46	0x3c874ae3	0.016515201
47	0x3bbda174	0.005787069
48	0x3caa093d	0.020756358
49	0x3d8d70e3	0.06906297
50	0x3d5c43c7	0.053775575
51	0x3d81c34b	0.06336077
52	0xbc7f5370	-0.015583858
53	0xbb79c060	-0.003810905
54	0xbd301e60	-0.042997718
55	0x3da6aa35	0.08137933
56	0x3cbaae88	0.022788301
57	0x3c26c2f2	0.0101783145
58	0x3d5d7afc	0.054072365
59	0x3ca08c1a	0.019598056
60	0xbbe47d97	-0.0069729793
61	0x3d91ec2d	0.07125125
62	0x3c768b32	0.015047835
63	0x3c248428	0.010041274
64	0xbcad0316	-0.021119636
65	0x3d48d640	0.04903245
66	0x3d99105d	0.07473824
67	0x3d198b46	0.037486337
68	0x3d5d9fe5	0.054107565
69	0xbd9bf04c	-0.07614192
70	0x3dd3d32e	0.10343014
71	0x3daff0ef	0.08590876
72	0xbc8d4e04	-0.017249115
73	0x3b969cd6	0.004596333
74	0x3d7b2f70	0.061324537
75	0x3c331429	0.0109300995
76	0x3d13c03b	0.036071997
77	0x3d54ea76	0.051981412
78	0x3d347e76	0.044065915
79	0xbcdcb62d	-0.026942337
80	0x3d08436f	0.033267435
81	0xbda68d30	-0.08132398
82	0xbd1eabf9	-0.038738225
83	0x3c97f873	0.018551087
84	0x3d9299e9	0.07158262
85	0x3cc5aa3c	0.024129026
86	0x3d0eb8aa	0.034844078
87	0xbc85830f	-0.016297845
88	0xbc06a99b	-0.008219148
89	0xbc8ca996	-0.017170709
90	0x3db338db	0.08751079
91	0x3d02fd37	0.031979766
92	0x3d1ec309	0.03876022
93	0x3cefeb77	0.029287083
94	0x3cf6d655	0.030131498
95	0x3d42bc38	0.04754278
96	0xbc572086	-0.013130313
97	0x3d4a864a	0.049444474
98	0xbd420b02	-0.04737378
99	0x3df6ea9b	0.12056466
100	0x3cc62083	0.024185425
101	0x3d8eae27	0.06966811
102	0x3d505bc4	0.050868765
103	0x3c000154	0.007812817
104	0x3cdf4a6b	0.027257165
105	0x3bd9ef0e	0.006650812
106	0xbb9b74f3	-0.004744166
107	0xbd3c8c3a	-0.046032168
108	0xbda9f4a3	-0.08298614
109	0xbc48bba2	-0.012251766
110	0x3cb162d2	0.021653567
111	0xbc3be92f	-0.0114691695
112	0x3d073e44	0.033018366
113	0x3d21d93e	0.03951382
114	0xbd09a206	-0.033601783
115	0x3d4f0412	0.05054099
116	0x3c9e1d1f	0.019300995
117	0x3da7810f	0.08178913
118	0xbbde04a9	-0.006775458
119	0xbd6afae2	-0.057368167
120	0xbcb4bd90	-0.022063047
121	0x3d891ea9	0.06695301
122	0x3c081300	0.008305311
123	0x39e69f42	0.00043987675
124	0x3c137f06	0.009002453
125	0x3dbcbf42	0.09216167
126	0x3cb005b3	0.021487093
127	0x3d59153c	0.052998766
128	0x3ce05403	0.02738381
129	0x3d15f174	0.03660722
130	0xbb933109	-0.0044919294
131	0xbc9d9188	-0.019234434
132	0x3d8e6fcf	0.069549195
133	0x3ce9dd08	0.028547779
134	0xbc170404	-0.009217266
135	0x3d6ca885	0.0577779
136	0x3d37ca3c	0.0448706
137	0xbd43eef6	-0.047835313
138	0x3d9c0dae	0.07619797
139	0x3d0a4d8f	0.033765372
140	0x3d537411	0.05162436
141	0x3bfb1f29	0.0076636267
142	0xbcb95ef6	-0.022628289
143	0xbd2dfed4	-0.04247935
144	0x3db814ca	0.0898834
145	0x3da5d252	0.08096756
146	0x3c10884d	0.008821559
147	0x3da9866d	0.08277593
148	0x3d0a98fe	0.03383731
149	0x3b1e10b9	0.0024118854
150	0xbe372e45	-0.17888744
151	0x3ca29cc2	0.019850139
152	0x3d2ed87a	0.042686917
153	0xbd188c42	-0.037243135
154	0x3d89441a	0.067024425
155	0xbce189db	-0.027531555
156	0x3d8807a9	0.06642086
157	0xbc0660bf	-0.008201777
158	0x3d2a8af5	0.041636426
159	0x3d81be29	0.06335098
160	0x3d249572	0.040181585
161	0x3c039577	0.008031241
162	0xbc3c2729	-0.011483946
163	0xbced2283	-0.02894712
164	0x3d57db6d	0.052699495
165	0xbc8f5e94	-0.017501153
166	0xbcfcc912	-0.030857597
167	0x3d86224c	0.0654951
168	0x3b1fc0ba	0.0024376349
169	0xbbc96dc2	-0.0061471174
170	0xbd0ada81	-0.033899788
171	0xbcd2618a	-0.025681276
172	0x3d759dee	0.059965067
173	0xbc92555a	-0.017862964
174	0x3c228062	0.009918304
175	0x3d9ef818	0.07762164
176	0x3cebfb4d	0.028806353
177	0x3d368bff	0.044567104
178	0x3dbfb580	0.0936079
179	0x3d51b34e	0.05119639
180	0xbdf1581f	-0.11784386
181	0xbc0453d2	-0.008076625
182	0x3ca3883b	0.01996242
183	0xbd0c40a4	-0.034241334
184	0xbd65c837	-0.056099143
185	0x3d8726a8	0.0659917
186	0x3cebf579	0.028803574
187	0x3b048447	0.0020220445
188	0xbc3aed3b	-0.011409099
189	0x3c5356cb	0.012899111
190	0xbd55a3d0	-0.052158177
191	0xbccc4289	-0.02493407
192	0xbd31ec2b	-0.043438118
193	0x3d8a342c	0.06748232
194	0xbca17ada	-0.0197119
195	0x3dcf756f	0.101298206
196	0xbb5fb5a9	-0.0034135378
197	0x3cad95aa	0.02118953
198	0xbd487546	-0.048939966
199	0x3d728645	0.05921008
200	0xbcd9cccb	-0.02658691
201	0x3cdae4d6	0.026720446
202	0xbbe628b6	-0.007023896
203	0x3ccd7b1d	0.025083119
204	0x3c855d40	0.016279817
205	0x3bc1d047	0.005914721
206	0xbd1147ef	-0.03546899
207	0xbd79247f	-0.06082582
208	0xbd722286	-0.059114955
209	0x3c8262c7	0.015916241
210	0x3cbcd1fb	0.023049345
211	0x3d0a4232	0.033754535
212	0x3dbf513c	0.09341666
213	0x3b8c1ada	0.004275662
214	0x3ccfa2c1	0.025346162
215	0x3ce22dc0	0.027609706
216	0x3dac29d1	0.08406413
217	0x3c80abd1	0.015706928
218	0x3c942f9b	0.018089106
219	0x3d4033eb	0.046924513
220	0xbc9d04b6	-0.019167285
221	0xbdc46a46	-0.095905825
222	0xbc5784ef	-0.013154252
223	0x3d8eebbe	0.06978558
224	0x3d43871e	0.04773628
225	0x3c70c737	0.014695934
226	0x3d7b4a55	0.061350185
227	0x3d177bdf	0.036983367
228	0x3c83822f	0.016053287
229	0xbd8509a6	-0.06495981
230	0x3ce20eb9	0.027594911
231	0x3d2e6f84	0.04258682
232	0x3c10e19e	0.008842854
233	0xbd201596	-0.039083086
234	0xbccc4c53	-0.024938738
235	0xbd6c7f52	-0.05773861
236	0x3d42f603	0.047597896
237	0xbc5fa700	-0.013650656
238	0xbd528dfa	-0.05140493
239	0xbc38d534	-0.0112813
240	0xbcc6e8d9	-0.024280952
241	0xbc1e0748	-0.009645291
242	0x3d8d1a42	0.06889774
243	0x3d84d687	0.0648623
244	0x3d2fab1d	0.042887796
245	0xbcae88f5	-0.02130554
246	0xbca09e35	-0.019606689
247	0x3ba67a56	0.0050805015
248	0x3d5cd303	0.053912174
249	0x3daa7f8e	0.083251104
250	0xbc5e1939	-0.013555818
251	0x3d68e3df	0.05685794
252	0xbc2cef1a	-0.010555053
253	0x3d507703	0.05089475
254	0x3d13f151	0.03611881
255	0x3bb5433c	0.0055316966

bn1.weight f4 [400]
0	0x3f50b4be	0.8152579
1	0x3f697026	0.9118675
2	0x3f5f531c	0.8723619
3	0x3f80d01d	1.0063511
4	0x3f5b7c53	0.8573658
5	0x3f8430f0	1.0327435
6	0x3f883075	1.0639788
7	0x3f60fe75	0.8788827
8	0x3f6aec05	0.9176639
9	0x3f55c101	0.83497626
10	0x3f6e63cd	0.93121034
11	0x3f74f6d1	0.9568911
12	0x3f87e8fd	1.0617977
13	0x3f722e30	0.94601727
14	0x3f7522a2	0.9575597
15	0x3f6c13cc	0.9221771
16	0x3f68b575	0.9090188
17	0x3f65937a	0.89678156
18	0x3f609438	0.87726164
19	0x3f7d9b87	0.9906544
20	0x3f6c998b	0.9242179
21	0x3f852c5c	1.0404162
22	0x3f77931d	0.9670885
23	0x3f820da1	1.0160409
24	0x3f68f658	0.9100089
25	0x3f6aa6cd	0.9166077
26	0x3f756040	0.9584999
27	0x3f7d5d5b	0.98970574
28	0x3f76fa3b	0.9647557
29	0x3f681d0a	0.9066931
30	0x3f963601	1.1735231
31	0x3f6926fd	0.91075116
32	0x3f7505dd	0.9571207
33	0x3f775405	0.9661258
34	0x3f76dc75	0.9643014
35	0x3f60dabc	0.8783376
36	0x3f8f1330	1.117773
37	0x3f592e89	0.8483663
38	0x3f6f0448	0.9336591
39	0x3f6eb934	0.9325135
40	0x3f738e1c	0.95138717
41	0x3f8272f6	1.0191333
42	0x3f51bde0	0.8193035
43	0x3f7d2dc8	0.9889798
44	0x3f631a45	0.8871196
45	0x3fa91ed7	1.3212537
46	0x3f65c315	0.89750797
47	0x3f571cfa	0.8402859
48	0x3f66a4f8	0.9009547
49	0x3f5f9888	0.8734212
50	0x3f7ff18e	0.9997796
51	0x3f6e4e4f	0.9308824
52	0x3f8512fe	1.0396421
53	0x3f653205	0.8952945
54	0x3f67def5	0.9057458
55	0x3f526c3a	0.8219639
56	0x3f52794c	0.82216334
57	0x3f7b14d9	0.98078686
58	0x3f64b74e	0.893422
59	0x3f78b578	0.971519
60	0x3f765c21	0.9623433
61	0x3f7d1d06	0.9887241
62	0x3f684195	0.9072507
63	0x3f675ef8	0.90379286
64	0x3f5b5c20	0.85687447
65	0x3f5f4713	0.87217826
66	0x3f5b42d7	0.85648865
67	0x3f67d73d	0.905628
68	0x3f713dd5	0.94234973
69	0x3f9269df	1.1438559
70	0x3f905fb6	1.1279209
71	0x3f5e524d	0.8684433
72	0x3f7e66e5	0.99375755
73	0x3f6353d7	0.88799804
74	0x3f54fa4c	0.8319442
75	0x3f641fde	0.89111125
76	0x3f6112ef	0.87919515
77	0x3f5d7fa2	0.8652288
78	0x3f560f28	0.83616877
79	0x3f953007	1.1655282
80	0x3f744ebb	0.95432633
81	0x3f92cffc	1.1469722
82	0x3f61819f	0.8808841
83	0x3f5253e4	0.82159257
84	0x3f5b225f	0.8559932
85	0x3f7228cd	0.9459351
86	0x3f634a9c	0.8878572
87	0x3f674d1b	0.9035203
88	0x3f5d1647	0.8636212
89	0x3f653926	0.89540327
90	0x3f6589b5	0.8966325
91	0x3f6480b3	0.8925888
92	0x3f654779	0.89562184
93	0x3f5d48cf	0.8643922
94	0x3f7b95e7	0.9827561
95	0x3f56c208	0.8388982
96	0x3f73e585	0.95272094
97	0x3f6c69c7	0.92348903
98	0x3f6570ec	0.8962543
99	0x3f5f81bd	0.8730734
100	0x3f7b47b9	0.98156315
101	0x3f5aa46d	0.85407144
102	0x3f71770a	0.94322264
103	0x3f684edf	0.9074535
104	0x3f58f62d	0.84750634
105	0x3f589d6b	0.846152
106	0x3f6ff528	0.93733454
107	0x3fa0f166	1.2573669
108	0x3f6f02ab	0.93363446
109	0x3f5e2601	0.8677674
110	0x3f818577	1.0118855
111	0x3f58b13b	0.8464543
112	0x3f627a75	0.88468105
113	0x3f6b2ed5	0.91868335
114	0x3f6455aa	0.89193213
115	0x3f56faeb	0.8397662
116	0x3f62f609	0.8865667
117	0x3f6b3656	0.91879785
118	0x3f7d4073	0.98926467
119	0x3f5b7afc	0.85734534
120	0x3f67ffee	0.9062489
121	0x3f6b88e1	0.92005736
122	0x3f67de43	0.9057352
123	0x3f65d2ef	0.89774984
124	0x3f55efdb	0.83569115
125	0x3f58511a	0.8449875
126	0x3f6ef9a1	0.93349653
127	0x3f8e3d98	1.1112547
128	0x3f674dd2	0.9035312
129	0x3f670c6d	0.90253335
130	0x3f70b39c	0.9402406
131	0x3f73dba6	0.9525703
132	0x3f65ad1e	0.8971728
133	0x3f5f6e3c	0.8727758
134	0x3f5a7339	0.85332066
135	0x3f64796d	0.8924778
136	0x3f60d30e	0.87822044
137	0x3f775f6c	0.9662998
138	0x3f69556f	0.91145986
139	0x3f61e767	0.88243717
140	0x3f605fe9	0.8764635
141	0x3f5c469d	0.8604525
142	0x3f68dc72	0.9096137
143	0x3f6ccd77	0.92501014
144	0x3f5dfd2d	0.8671444
145	0x3f58a571	0.84627444
146	0x3f7885e2	0.9707929
147	0x3f61a7aa	0.8814646
148	0x3f735927	0.9505791
149	0x3f58d23d	0.846958
150	0x3fcc239b	1.5948366
151	0x3f5d472b	0.8643672
152	0x3f601d55	0.8754476
153	0x3f656547	0.8960766
154	0x3f5f814b	0.8730666
155	0x3f6265c2	0.8843652
156	0x3f57ecf0	0.8434591
157	0x3f67e995	0.9059079
158	0x3f552484	0.83258843
159	0x3f65918d	0.8967522
160	0x3f660b37	0.8986086
161	0x3f68b833	0.90906066
162	0x3f567972	0.8377906
163	0x3f5996f6	0.84995973
164	0x3f5e62f7	0.8686976
165	0x3f6960d8	0.91163397
166	0x3f772b15	0.9655011
167	0x3f6041aa	0.87600195
168	0x3f7645e9	0.96200424
169	0x3f7b5b2a	0.9818598
170	0x3f6c5f26	0.92332685
171	0x3f61d782	0.88219464
172	0x3f806b81	1.0032808
173	0x3f68e02e	0.9096707
174	0x3f55bb11	0.83488566
175	0x3f5b8e2e	0.85763824
176	0x3f70c101	0.940445
177	0x3f6fbf24	0.9365103
178	0x3f5a1510	0.8518839
179	0x3f60c69d	0.8780306
180	0x3fa91751	1.3210241
181	0x3f71234b	0.9419448
182	0x3f5a3a23	0.8524496
183	0x3f4f78e6	0.8104385
184	0x3f8aa0ab	1.0830282
185	0x3f5c6161	0.8608609
186	0x3f6074f0	0.8767843
187	0x3f73ccce	0.9523438
188	0x3f60a5de	0.87753093
189	0x3f783ee9	0.96970993
190	0x3f85405b	1.0410265
191	0x3f5a8ba8	0.8536935
192	0x3f5f3407	0.8718876
193	0x3f58d33f	0.84697336
194	0x3f63afab	0.88939923
195	0x3f6261bb	0.88430375
196	0x3f6d816b	0.927756
197	0x3f5a7484	0.8533404
198	0x3f7d260d	0.98886186
199	0x3f5d1262	0.86356175
200	0x3f67c4d5	0.90534717
201	0x3f58d5a1	0.8470097
202	0x3f6d14f9	0.92610127
203	0x3f654864	0.89563584
204	0x3f64705c	0.89233947
205	0x3f6502df	0.89457506
206	0x3f797aa5	0.97452766
207	0x3f784bbd	0.9699057
208	0x3f81403b	1.0097727
209	0x3f6763cb	0.90386647
210	0x3f7dd798	0.99157095
211	0x3f9347b6	1.150626
212	0x3f60793e	0.87685
213	0x3f721df5	0.9457696
214	0x3f634e06	0.8879093
215	0x3f63bc77	0.8895945
216	0x3f66055a	0.89851916
217	0x3f65c3e7	0.8975205
218	0x3f740ab8	0.95328856
219	0x3f64f54a	0.8943678
220	0x3f6fcf35	0.9367555
221	0x3f6c039b	0.92193
222	0x3f69f7a4	0.91393495
223	0x3f7894c4	0.97102
224	0x3f6e8c1b	0.93182534
225	0x3f661b7e	0.898857
226	0x3f5eacab	0.8698222
227	0x3f58f936	0.84755266
228	0x3f6eb5e2	0.9324628
229	0x3f6d6e93	0.9274685
230	0x3f7724f1	0.96540743
231	0x3f586c5d	0.8454035
232	0x3f6e2a3a	0.9303318
233	0x3f7838ea	0.96961844
234	0x3f67ce93	0.9054958
235	0x3f86ed50	1.0541172
236	0x3f67697b	0.90395325
237	0x3f62d65e	0.8860835
238	0x3f6840d6	0.9072393
239	0x3f674508	0.9033971
240	0x3f6921b7	0.9106707
241	0x3f69b364	0.91289353
242	0x3f77c566	0.9678558
243	0x3f650a39	0.89468724
244	0x3f68c211	0.9092112
245	0x3f69f6bb	0.91392106
246	0x3f5409d3	0.8282749
247	0x3f6f96a5	0.9358924
248	0x3f5e6498	0.86872244
249	0x3f55ed62	0.8356534
250	0x3f5cbc9e	0.86225307
251	0x3f5930c7	0.84840053
252	0x3f68650a	0.90779173
253	0x3f61d65c	0.8821771
254	0x3f5d4a81	0.8644181
255	0x3f5d1476	0.86359346

bn1.bias f4 [400]
0	0xbe2f6e63	-0.17131953
1	0xbdcde98c	-0.10054311
2	0xbe312962	-0.17300943
3	0xbe0e9a06	-0.13925943
4	0xbda92421	-0.08258844
5	0xbd628620	-0.055303693
6	0xbd99c808	-0.07508856
7	0xbe224766	-0.15847549
8	0xbdd3e9d1	-0.10347331
9	0xbe1ec385	-0.15504272
10	0xbe44d67b	-0.19222443
11	0xbdf54afd	-0.119771935
12	0xbdba5281	-0.090977676
13	0xbe0cbde5	-0.13744314
14	0xbdba548a	-0.09098156
15	0xbda55784	-0.08073333
16	0xbdf25672	-0.118328944
17	0xbde8311e	-0.11337493
18	0xbe2dd967	-0.16977464
19	0xbdbbce16	-0.09170167
20	0xbd1fdedd	-0.0390309
21	0xbdd7a631	-0.10529745
22	0xbdda6c33	-0.106651686
23	0xbdcda47e	-0.1004114
24	0xbd94a92a	-0.07258828
25	0xbe246578	-0.16054332
26	0xbe06284b	-0.13101308
27	0xbd675ef5	-0.056487042
28	0xbe27fa77	-0.16404139
29	0xbe13b545	-0.14424618
30	0xbc9e90f3	-0.019356227
31	0xbdfacc2f	-0.12245976
32	0xbe3bf29e	-0.1835427
33	0xbe157f8a	-0.14599434
34	0xbdd2af3f	-0.10287332
35	0xbe2d2d27	-0.16911756
36	0xbda4f8a4	-0.08055237
37	0xbe0c29f2	-0.13687876
38	0xbdbc59da	-0.09196825
39	0xbe25b6d2	-0.16183022
40	0xbda7a1ab	-0.081851326
41	0xbd9d3817	-0.07676714
42	0xbe11ec9d	-0.14250417
43	0xbd2aa577	-0.041661706
44	0xbe008dce	-0.12554094
45	0xbd884c16	-0.06655137
46	0xbde73580	-0.11289501
47	0xbe505987	-0.20346652
48	0xbdfb6c16	-0.12276475
49	0xbda2ea63	-0.07954862
50	0xbdb2c964	-0.087298185
51	0xbe154944	-0.1457873
52	0xbd516787	-0.051124122
53	0xbdef8634	-0.11695519
54	0xbe0f45a1	-0.13991405
55	0xbe222b28	-0.15836775
56	0xbe2c9f8f	-0.16857742
57	0xbdf4d39b	-0.11954423
58	0xbe003450	-0.12519956
59	0xbe06cec5	-0.13164814
60	0xbdc2ad9b	-0.09505769
61	0xbd5f422f	-0.054506477
62	0xbe1c366b	-0.15255134
63	0xbe1d0ec5	-0.15337665
64	0xbdf31272	-0.118687525
65	0xbe12c3f3	-0.14332561
66	0xbe3315b8	-0.17488754
67	0xbdefaa1f	-0.1170237
68	0xbdc38a81	-0.09547902
69	0xbd7ebbf3	-0.06219096
70	0xbda98667	-0.08277588
71	0xbe193fa9	-0.1496569
72	0xbe0b3328	-0.13593733
73	0xbdfd1f6d	-0.123595096
74	0xbe103981	-0.14084436
75	0xbdaef265	-0.08542327
76	0xbe068865	-0.13137968
77	0xbe2db40b	-0.16963212
78	0xbde7546a	-0.112953976
79	0xbd10e6f9	-0.035376523
80	0xbd43ace4	-0.047772303
81	0xbdd2e6b4	-0.102979094
82	0xbda8a2cd	-0.08234177
83	0xbe322d46	-0.17400083
84	0xbe0d8761	-0.13821174
85	0xbd9932ae	-0.074803695
86	0xbdeec8ca	-0.11659391
87	0xbe190da2	-0.14946607
88	0xbde67c0d	-0.112541296
89	0xbe1bc0ce	-0.15210268
90	0xbe09d504	-0.13460165
91	0xbe21b9d2	-0.15793541
92	0xbde921c5	-0.11383394
93	0xbe14f554	-0.1454671
94	0xbd6ccc02	-0.057811745
95	0xbdfa6e04	-0.12228015
96	0xbdbdd3a0	-0.0926888
97	0xbdd36cf7	-0.10323518
98	0xbe081131	-0.13287808
99	0xbda9ba64	-0.08287504
100	0xbdd191bf	-0.10232877
101	0xbe0360c5	-0.12829883
102	0xbde8f9ae	-0.113757476
103	0xbe185856	-0.14877447
104	0xbe080591	-0.13283373
105	0xbdfebe59	-0.1243865
106	0xbdcc31bf	-0.09970426
107	0xbd1951b2	-0.037431426
108	0xbdfd3d26	-0.12365179
109	0xbe10a680	-0.14126015
110	0xbdc31586	-0.0952559
111	0xbd889bf3	-0.0667037
112	0xbdf7a847	-0.12092643
113	0xbe1e5522	-0.15462163
114	0xbe2777e6	-0.16354331
115	0xbe2410cd	-0.16022034
116	0xbde738a4	-0.112901
117	0xbe026b06	-0.12736139
118	0xbde4f50b	-0.11179551
119	0xbe172622	-0.1476064
120	0xbdffe429	-0.1249469
121	0xbde3129b	-0.11087533
122	0xbd8ef35e	-0.06980012
123	0xbe1beb59	-0.15226497
124	0xbe238a3d	-0.15970702
125	0xbdc1e86a	-0.094681576
126	0xbd6876d8	-0.056753963
127	0xbcd6c1a3	-0.02621538
128	0xbe0aec63	-0.13566737
129	0xbe004678	-0.12526882
130	0xbdebcaa4	-0.1151326
131	0xbde8fb6e	-0.113760814
132	0xbd779b46	-0.060450815
133	0xbe2ce02a	-0.16882387
134	0xbe214e48	-0.15752518
135	0xbdf3e5ac	-0.11909041
136	0xbdff40f7	-0.12463563
137	0xbdcbbdad	-0.09948287
138	0xbe0960cb	-0.1341583
139	0xbdc04e27	-0.093899064
140	0xbdeab89f	-0.11460995
141	0xbdf3c5b8	-0.11902946
142	0xbe053126	-0.1300703
143	0xbdca4e54	-0.09878221
144	0xbdd123cd	-0.102119066
145	0xbdec4e3e	-0.11538361
146	0xbde1a4bc	-0.11017749
147	0xbdf34037	-0.118774824
148	0xbde6ea24	-0.112751275
149	0xbe0573de	-0.13032481
150	0xbc4843ad	-0.012223166
151	0xbe0e65ba	-0.13905993
152	0xbd7d449a	-0.061833
153	0xbe00a748	-0.12563813
154	0xbe15f5a5	-0.14644487
155	0xbe0649d7	-0.13114105
156	0xbe1834a8	-0.14863837
157	0xbdda850a	-0.106699064
158	0xbd927be5	-0.07152537
159	0xbdaeaf9b	-0.08529588
160	0xbdee7107	-0.11642652
161	0xbdddd361	-0.10831333
162	0xbe06ecae	-0.13176224
163	0xbe2edae3	-0.17075686
164	0xbdf5b15e	-0.11996721
165	0xbdc0d469	-0.09415514
166	0xbdec28ca	-0.115312174
167	0xbe28c6fb	-0.16482155
168	0xbdb20f95	-0.08694378
169	0xbe2412bf	-0.16022776
170	0xbdd141bc	-0.10217616
171	0xbe3625ad	-0.1778781
172	0xbd747016	-0.059677206
173	0xbddec33a	-0.1087708
174	0xbe2f7a64	-0.17136532
175	0xbe0266f7	-0.1273459
176	0xbdcb98c1	-0.09941245
177	0xbe153bb4	-0.14573556
178	0xbdb6edd7	-0.08932083
179	0xbde71c0d	-0.11284647
180	0xbd8e71a3	-0.06955268
181	0xbdb2b8ca	-0.08726652
182	0xbdd1a1ae	-0.10235916
183	0xbe5007bf	-0.20315455
184	0xbd937d7e	-0.0720167
185	0xbe31f231	-0.17377545
186	0xbdf6f3bc	-0.120582074
187	0xbdb388ab	-0.08766302
188	0xbdabf37f	-0.083960526
189	0xbd513765	-0.05107822
190	0xbdc7fb41	-0.0976472
191	0xbdaab264	-0.083348066
192	0xbe01d274	-0.12677938
193	0xbe3dad24	-0.18523079
194	0xbdda51e1	-0.106601484
195	0xbe23908a	-0.15973106
196	0xbdc3d558	-0.095621765
197	0xbe388deb	-0.18022887
198	0xbdd754e6	-0.1051424
199	0xbe2467ea	-0.16055265
200	0xbe08e25b	-0.13367598
201	0xbde2de60	-0.11077571
202	0xbc3af368	-0.011410572
203	0xbe257983	-0.16159634
204	0xbdf65996	-0.12028806
205	0xbe0f98ad	-0.14023085
206	0xbd9e9cc8	-0.077447474
207	0xbdce337e	-0.10068415
208	0xbdb42d1d	-0.08797667
209	0xbe21423c	-0.15747923
210	0xbdaa5430	-0.08316839
211	0xbcfba465	-0.030718038
212	0xbe0b7db2	-0.13622168
213	0xbdb56d74	-0.08858767
214	0xbdeff028	-0.11715728
215	0xbe0db263	-0.1383758
216	0xbe17c19f	-0.14819954
217	0xbdcff2c9	-0.101537295
218	0xbdcd4f7e	-0.100249276
219	0xbd57d018	-0.052688688
220	0xbde98a8b	-0.11403378
221	0xbe11bffb	-0.14233391
222	0xbe16f559	-0.1474203
223	0xbdf62661	-0.12019039
224	0xbe0352cf	-0.12824558
225	0xbd96d501	-0.07364846
226	0xbe002f95	-0.12518151
227	0xbe2b43a2	-0.16725019
228	0xbdc6c268	-0.09705049
229	0xbe049505	-0.12947471
230	0xbda53fb9	-0.08068795
231	0xbdca299a	-0.09871216
232	0xbdb246e6	-0.08704929
233	0xbdecb8eb	-0.11558708
234	0xbe1bbe68	-0.15209353
235	0xbd1ec66a	-0.03876344
236	0xbdd1ccbf	-0.1024413
237	0xbde951a6	-0.11392526
238	0xbe00878b	-0.12551706
239	0xbdfb90fe	-0.122835144
240	0xbe2d22ae	-0.1690776
241	0xbdf8a459	-0.12140722
242	0xbdd94c35	-0.106102385
243	0xbe0e19db	-0.1387705
244	0xbdf217dc	-0.11820957
245	0xbe0cd456	-0.13752875
246	0xbe2f8380	-0.17140007
247	0xbdfff9b5	-0.124988
248	0xbdb24c8d	-0.08706007
249	0xbe078fc8	-0.13238442
250	0xbdfdc3f4	-0.12390891
251	0xbe2c1764	-0.16805798
252	0xbe18dd3a	-0.14928141
253	0xbe294211	-0.16529109
254	0xbe16b493	-0.14717321
255	0xbe2969a0	-0.16544199

fc2.weight f4 [300, 400]
0	0xbcc7dfaf	-0.024398653
1	0x3bffda7e	0.0078080287
2	0x3d8477e7	0.06468182
3	0xbd65778e	-0.05602222
4	0x3daec36a	0.08533366
5	0xbd2c1496	-0.04201182
6	0xbd066d71	-0.032819215
7	0x3db3a060	0.087708235
8	0xbc32f710	-0.010923162
9	0x3d87dfc8	0.0663448
10	0x3c3814bc	0.011235412
11	0xbd85011a	-0.06494351
12	0xbd1e116c	-0.038590834
13	0x3de3bfe0	0.111205816
14	0xbd113a6f	-0.035456117
15	0xbd2fd6c7	-0.042929437
16	0xbd81d4cb	-0.06339415
17	0xbb49b9ec	-0.0030780984
18	0x39e04db1	0.00042782494
19	0x3cd5d703	0.026103502
20	0xbc04d7d0	-0.008108094
21	0xbc629bac	-0.01383106
22	0x3ce0784e	0.027401116
23	0x3d88f31d	0.06686995
24	0x3da7cefa	0.081937745
25	0x3c020466	0.007935619
26	0x3ddc9be6	0.10771923
27	0xbd6c9a02	-0.05776406
28	0xbd6e81d6	-0.05822929
29	0x3a8ce6cf	0.0010749939
30	0x3d199dbf	0.037503954
31	0xbcfcf6a6	-0.03087933
32	0x3c509d16	0.012732765
33	0xbdab309d	-0.083588816
34	0x3d8d6825	0.069046296
35	0x3cc24d58	0.023718521
36	0x3d997af2	0.07494153
37	0xbd17acce	-0.037030034
38	0x3d989f10	0.07452214
39	0x3ceb3450	0.028711468
40	0x3db948a2	0.09047057
41	0xbd624951	-0.0552457
42	0xbd4a2fc6	-0.049361967
43	0x3da66347	0.081244044
44	0x3df18982	0.11793806
45	0x3cfda642	0.030963067
46	0x3d70831a	0.05871878
47	0x3d0e8beb	0.034801405
48	0x3c194fb4	0.009357382
49	0xbc202644	-0.009774748
50	0x3d825c5a	0.06365271
51	0x3d65bbfe	0.056087486
52	0x3d06d7b4	0.032920554
53	0x3cdca462	0.026933853
54	0x3d88a945	0.066729106
55	0xbca123ad	-0.019670332
56	0x3cf709b3	0.030155992
57	0x3cf36014	0.0297089
58	0x3c47c111	0.012192027
59	0xbd977f10	-0.07397282
60	0x3d982266	0.07428436
61	0xbd66aa0f	-0.056314524
62	0xbcd265da	-0.025683332
63	0x3c975af1	0.018475981
64	0xbc66bc95	-0.014083047
65	0x3d070137	0.032960143
66	0x3ab87d19	0.0014075368
67	0x3d1341f9	0.03595159
68	0x3d3c1eb0	0.045927703
69	0x3e1c4706	0.15261468
70	0x3d0a02fb	0.03369425
71	0x3d87f5a0	0.06638646
72	0x3aac81dd	0.0013161261
73	0x3c6d1087	0.014469272
74	0x3cc29051	0.023750456
75	0x3c7e6c68	0.015528776
76	0x3cde140d	0.02710917
77	0xbd9dedc6	-0.07711367
78	0xbcb7c106	-0.022430908
79	0xbd50bb22	-0.050959714
80	0x3d7ee13a	0.06222651
81	0xbdee9c34	-0.11650887
82	0x3c8737d0	0.016506106
83	0xbd3f509d	-0.04670774
84	0x3c971dd2	0.018446837
85	0x3d8d26e0	0.068921804
86	0x3d18085e	0.037117355
87	0x3d820164	0.063479215
88	0xbd7f5165	-0.062333483
89	0xbc9d61ed	-0.019211734
90	0x3d09505f	0.033523913
91	0x3dfc5a36	0.12321894
92	0x3d91142c	0.070839256
93	0x3d839404	0.06424716
94	0x3d8a6c7c	0.06758973
95	0x3c920f07	0.017829431
96	0xbbed1982	-0.007235707
97	0xbd456e4c	-0.04820089
98	0x3cc35475	0.023843983
99	0x3d0d4a0f	0.034494456
100	0x3daa3e7b	0.083126985
101	0x3d07e03a	0.033172823
102	0x3ada7d0b	0.0016669346
103	0xbb67a596	-0.00353465
104	0xbc465b92	-0.012106793
105	0xbbed35fc	-0.0072391015
106	0x3d06ce16	0.032911383
107	0x3cefc57b	0.02926897
108	0xbd49325c	-0.049120292
109	0x3d364a98	0.044504732
110	0x3dc0a77d	0.09406946
111	0x3d1fc951	0.03901035
112	0x3daf41c8	0.08557469
113	0xbc637f97	-0.0138854
114	0xbdc019b1	-0.093799
115	0xbce5fd2a	-0.02807482
116	0xbd4892b4	-0.048968032
117	0xbc8d1c26	-0.017225336
118	0x3beb1c4f	0.0071750055
119	0xbbc0ffb9	-0.0058898595
120	0xbbe123a4	-0.006870704
121	0x3d12c5e5	0.03583326
122	0x3d47609d	0.048676122
123	0x3cc14e22	0.023596827
124	0x3cd205af	0.025637476
125	0x3d543e62	0.051817305
126	0x3d43daae	0.04781597
127	0xbdde597d	-0.10856912
128	0x3d831b1b	0.06401654
129	0xbd158e6a	-0.03651277
130	0xbba60808	-0.0050668754
131	0x3c22c5f8	0.009934895
132	0xbc68d446	-0.014210766
133	0x3cf00a8c	0.029301904
134	0x3d21d24d	0.0395072
135	0x3d5a8cc4	0.0533569
136	0x3d475d96	0.048673235
137	0xbd94b590	-0.07261193
138	0x3c97d83b	0.018535724
139	0xbd08e3d1	-0.033420388
140	0xbdb4f086	-0.08834939
141	0x3ba01335	0.004885102
142	0xbcda2b64	-0.026632018
143	0x3d7338b6	0.059380256
144	0x3d8b2dce	0.06795846
145	0xbb158bd1	-0.0022818933
146	0x3cb256b2	0.021769855
147	0x3d1c5ce2	0.038174517
148	0xbc68e821	-0.0142155
149	0x3deae487	0.114693694
150	0x3d8f6a41	0.07002688
151	0x3d446011	0.04794318
152	0x3c226ae0	0.009913176
153	0x3c124463	0.0089274375
154	0xbd465bda	-0.04842744
155	0xbd78325f	-0.060594913
156	0x3d4b05e5	0.04956617
157	0xbc2ce5c7	-0.01055283
158	0xbd82638c	-0.06366643
159	0x3d688d30	0.056775272
160	0xbdfa89b7	-0.12233298
161	0x3d24677c	0.040137753
162	0xbd34e865	-0.04416694
163	0xbccd67e9	-0.025073962
164	0x3cdefd60	0.027220428
165	0xbda30ab2	-0.07961024
166	0x3d421511	0.04738337
167	0x3cb035fc	0.021510117
168	0x3cc5494a	0.024082799
169	0xbdb9db87	-0.09075075
170	0x3cb32a20	0.021870673
171	0x3c872515	0.016497174
172	0x3bf1cb2a	0.0073789554
173	0xb9a7e5fd	-0.00032024077
174	0x3bfdd661	0.007746503
175	0xbaa0d2d7	-0.0012269866
176	0xbd7613e2	-0.060077555
177	0xbd1a7070	-0.037704885
178	0xbd288894	-0.041145876
179	0x3badba52	0.005301752
180	0x3e2314f6	0.15925965
181	0x3de4909b	0.11160394
182	0x3c2da7f0	0.010599121
183	0xbd835d93	-0.06414332
184	0x3cd5569f	0.02604228
185	0x3cc6cdd8	0.024268076
186	0x3d748332	0.05969543
187	0x3ce4b4e5	0.027918288
188	0xbb629dc9	-0.003457891
189	0xbcd1fe67	-0.025634004
190	0x3df44b99	0.119284816
191	0xbd3dba1b	-0.046320062
192	0x3d45187e	0.04811906
193	0xbd573034	-0.052536204
194	0x3ce2e2d7	0.027696056
195	0xbd62333a	-0.055224635
196	0x3d27b57b	0.040944558
197	0xbd41f25e	-0.04735028
198	0x3db53b16	0.088491604
199	0xbda5eae0	-0.081014395
200	0xbd31eaa3	-0.043436658
201	0x3ca6ee95	0.020377437
202	0xbdc64f72	-0.09683122
203	0xbc3c956f	-0.011510237
204	0xbd2f76e2	-0.042837985
205	0xbce39898	-0.027782723
206	0x3d8c59dd	0.068530776
207	0x3d034d5b	0.032056194
208	0xbcd7b311	-0.026330503
209	0xbd094803	-0.03351594
210	0x3c0b06d8	0.008485518
211	0x3ddc711b	0.10763761
212	0x3d4a1026	0.049331807
213	0xbc6f90be	-0.014621912
214	0x3d74a08a	0.059723414
215	0xbe0403f7	-0.12892137
216	0x3da8a46a	0.082344845
217	0xbc584898	-0.013200901
218	0xbb3a3567	-0.0028413178
219	0xbcfd6938	-0.030933961
220	0xbd05fbd6	-0.032710873
221	0xbd73de6b	-0.059538286
222	0x3c35b7d8	0.011091195
223	0xbd7e21ab	-0.062043827
224	0x3d239aa1	0.039942387
225	0x3c8779f5	0.016537646
226	0xbdeffdd7	-0.11718338
227	0x3d173bc3	0.036922228
228	0xbc91a9b1	-0.01778111
229	0x3db25e8a	0.08709438
230	0x3d3563dd	0.04428469
231	0xbdbab7c5	-0.091170825
232	0xbb3e3833	-0.0029025197
233	0xbcf1aa2d	-0.029500091
234	0x3c7a5d3f	0.015281021
235	0xbdb118b1	-0.08647288
236	0x3cacf0fa	0.021111
237	0x3dad1b3b	0.084524594
238	0xbd4c2af2	-0.049845643
239	0xbb3bd4df	-0.0028660817
240	0x3d0136aa	0.031546272
241	0x3e2ba993	0.16763906
242	0xbd481d88	-0.04885629
243	0x3d09ae4a	0.03361348
244	0x3d465e24	0.048429623
245	0x3d09d4b3	0.03365011
246	0xbbf4e998	-0.0074741356
247	0x3de9c324	0.11414173
248	0xbd0bdb5f	-0.034144755
249	0xbd39c34a	-0.045352258
250	0xbd54d3df	-0.05195987
251	0x3d71223d	0.058870543
252	0xbd2407c9	-0.040046487
253	0x3c96f7a7	0.018428637
254	0x3d62b969	0.055352602
255	0x3b1f310a	0.0024290704

fc2.bias f4 [300]
0	0xbc976a02	-0.018483166
1	0x3d1ecd3e	0.038769953
2	0x3d70e44e	0.05881148
3	0xbcb320c3	-0.021866208
4	0x3c9d6bfd	0.019216532
5	0x3b80b65b	0.0039279885
6	0x3dacc1dd	0.08435414
7	0xbcc776de	-0.024348672
8	0xbcb6cb95	-0.022313872
9	0xbbe328c6	-0.006932351
10	0xbd0cfde0	-0.0344218
11	0x3c9dd6ca	0.019267458
12	0x3d8aa670	0.06770027
13	0x3cacad6c	0.021078788
14	0x3d4c7b74	0.04992242
15	0x3d2423e2	0.040073283
16	0xbcb610ce	-0.02222481
17	0xbcb30aab	-0.021855673
18	0x3d0292a4	0.03187813
19	0xbc464da9	-0.012103477
20	0x3d606ecc	0.054793164
21	0x3ce7f7e5	0.028316448
22	0x3d8dc845	0.06922964
23	0x3d4d6686	0.050146602
24	0x3d44fc8b	0.048092406
25	0xbbaeb3f5	-0.005331511
26	0xbc3041e8	-0.010757901
27	0x3d57a7cd	0.05265026
28	0x3c2b2538	0.010445885
29	0x3b0c30bb	0.002139135
30	0xbbce0dd3	-0.006288269
31	0xbcfa088d	-0.030521655
32	0x3d85b0dd	0.065278746
33	0x3ce890f6	0.028389435
34	0x3d84f133	0.064913176
35	0x3d44fd55	0.04809316
36	0x3b6736d7	0.003528049
37	0x3d9b5ea6	0.07586412
38	0xbcef0ffb	-0.029182425
39	0xbceabfd3	-0.028655922
40	0x3d032629	0.032018814
41	0x3d2a12b1	0.04152173
42	0xbc850d5a	-0.016241718
43	0xbaf390b3	-0.0018582552
44	0xbd229117	-0.03968915
45	0x3bfbe887	0.0076876315
46	0x3d00cab4	0.031443313
47	0x3d387c86	0.04504063
48	0x3d32e513	0.043675493
49	0x3d3c51e8	0.04597655
50	0x3da7beae	0.08190666
51	0x3d3691e1	0.044572715
52	0x3c286020	0.010276824
53	0xbd101a2b	-0.035181206
54	0x3d2eb816	0.042656027
55	0xbd188a8f	-0.037241515
56	0xbc2297d9	-0.009923899
57	0x3d4e1721	0.050315026
58	0x3c45d9e7	0.012075878
59	0x3d3e51a7	0.04646459
60	0x3d1e1ac1	0.038599733
61	0x3d3774ed	0.044789243
62	0x3d28d350	0.04121715
63	0xbbe2ae6b	-0.006917765
64	0x3d1dfbf7	0.03857037
65	0xbcfdb740	-0.03097117
66	0x3a1abcd4	0.00059027714
67	0x3c78d55b	0.015187587
68	0x3d5780cb	0.05261306
69	0x3d93e59b	0.07221528
70	0x3da145ad	0.07874618
71	0xbbe8fc56	-0.007110159
72	0x3c424e1c	0.011859443
73	0x3d0196d5	0.031637985
74	0xbc423d93	-0.011855501
75	0x3c0ec12e	0.00871305
76	0xbd06c562	-0.032903083
77	0xbbffa939	-0.0078021553
78	0x3c016ac3	0.007898989
79	0x3d5ab1fc	0.053392395
80	0xbcf7d7ff	-0.030254362
81	0xbccd1ec9	-0.025039094
82	0x3c9d2c4b	0.01918616
83	0xbbd98a24	-0.006638782
84	0xbc39e7f0	-0.011346802
85	0x3d6d7cea	0.057980455
86	0xbb9831d1	-0.0046446105
87	0xbc543159	-0.0129512185
88	0xbcaac3de	-0.02084535
89	0xbcfc9d68	-0.030836776
90	0x3cb0f0d9	0.02159922
91	0x3cfdfe92	0.031005178
92	0xbd0b65e7	-0.03403273
93	0x3d59511a	0.05305586
94	0xbc187830	-0.009305999
95	0x3c86bfd6	0.016448896
96	0x3c1bdb8c	0.009512793
97	0x3ca2de6f	0.019881455
98	0xbadd7485	-0.0016895687
99	0x3cc1c8cf	0.023655323
100	0xbc30ac0b	-0.010783206
101	0x3d9a3cbf	0.07531118
102	0xbc53c2dd	-0.012924877
103	0x3d704d4f	0.058667477
104	0x3d39407e	0.04522752
105	0x3d7950aa	0.060867943
106	0x3cee0c8d	0.029058719
107	0xba5504ce	-0.0008126021
108	0x3d1ee3cd	0.038791467
109	0x3c70ac3d	0.014689502
110	0x3cdbf468	0.02684994
111	0x3b6ebd03	0.0036428578
112	0x3ce630cb	0.028099438
113	0xbccf6fd8	-0.025321886
114	0xbd049281	-0.03236628
115	0xbc82766b	-0.015925607
116	0xbce562df	-0.028001247
117	0x3c816fc5	0.015800366
118	0x3cbb4769	0.0228612
119	0xbc7c8573	-0.015412676
120	0x3bf66a88	0.0075200237
121	0x3d9618d2	0.07328953
122	0xbd2323b0	-0.039828956
123	0xbb647c8a	-0.003486427
124	0x3c3dd6bf	0.011586844
125	0xbcbc9ab9	-0.023022996
126	0x3d75fdcd	0.060056496
127	0x3c377621	0.011197598
128	0x3bb626ef	0.0055588405
129	0xbd028089	-0.031860862
130	0x3c5bea9e	0.013422636
131	0xbbff88aa	-0.007798274
132	0xbc582cce	-0.013194276
133	0xbd2a934c	-0.04164438
134	0x3cced00d	0.02524569
135	0x3d39fef6	0.045409165
136	0xbb102564	-0.0021994943
137	0xbc64478a	-0.013933072
138	0xbd05c7f3	-0.03266139
139	0x3d0d5b4b	0.034510892
140	0x3d459782	0.048240192
141	0x3cff796c	0.031185828
142	0x3d4a3c13	0.049373697
143	0xbc8c2355	-0.017106691
144	0x3ccae1bc	0.024765842
145	0xbcbf1f7f	-0.023330448
146	0x3d857666	0.06516723
147	0x3ba5496e	0.005044154
148	0x3d06083e	0.032722704
149	0xbc897bcd	-0.016782666
150	0x3ca72ac8	0.020406142
151	0x3d1b492c	0.03791158
152	0x3a89bb59	0.0010508104
153	0x3d603958	0.054742187
154	0x3cbd61ef	0.023117987
155	0xbd0a913b	-0.03382991
156	0xbca56878	-0.020191416
157	0x3d55a411	0.05215842
158	0x3c0bad7f	0.008525251
159	0x3c573407	0.013134963
160	0x3cdabc5f	0.02670115
161	0xbcdfc126	-0.02731378
162	0xbd041665	-0.03224792
163	0xbc8c505b	-0.01712816
164	0x3d406c96	0.046978556
165	0x3bfbc066	0.007682848
166	0x3bda66e6	0.0066650985
167	0x3cf89f96	0.030349534
168	0x3bc81fc3	0.006107302
169	0x3d756fca	0.059921063
170	0x3d5bac26	0.05363097
171	0xbc21b787	-0.0098704165
172	0x3d315a6c	0.043299124
173	0x3d4d23eb	0.050083082
174	0x3b94ad80	0.0045372844
175	0x3c9e0f12	0.019294295
176	0x3c406fe7	0.01174543
177	0xbd1d0db1	-0.038343135
178	0x3d1c02f8	0.03808877
179	0x3b9c6778	0.0047730766
180	0xbc0cd3a6	-0.008595383
181	0xbc2168ca	-0.009851644
182	0x3d4e1a8f	0.050318297
183	0x3d0f7174	0.035020307
184	0xbd24af4b	-0.040206235
185	0x3c17e407	0.009270675
186	0x3d1a72e3	0.03770722
187	0x3d551918	0.052025884
188	0xbcb9fbd9	-0.022703098
189	0xbb6159d1	-0.003438581
190	0x3c250939	0.010073
191	0xbd214d4a	-0.03938035
192	0x3d4ab6ac	0.049490616
193	0xbccc8d9e	-0.024969872
194	0x3a89e504	0.0010520522
195	0x3cf205f3	0.029543852
196	0x3c016e50	0.007899836
197	0xbc07a019	-0.008277916
198	0xbd380218	-0.04492387
199	0xbd15125d	-0.036394466
200	0x3d03e388	0.032199413
201	0x3d3077ed	0.04308312
202	0x3d486342	0.048922785
203	0x3c615f71	0.013755665
204	0x3d826fb1	0.0636896
205	0x3d22f473	0.039783906
206	0x3c94fc90	0.018186837
207	0x3c3c44a8	0.011490978
208	0xbbe0fa28	-0.0068657584
209	0xbb0fc113	-0.002193515
210	0x3d4755c9	0.048665795
211	0x3caf0aa2	0.021367375
212	0xbd0519c4	-0.032495275
213	0xba86a76f	-0.0010273288
214	0x3d5d84f7	0.054081883
215	0x3d9e2b35	0.07723085
216	0x3c8c3972	0.017117236
217	0x3d8066eb	0.0626963
218	0x3cfd3b01	0.030911924
219	0x3d076189	0.033052
220	0xbcc4dcb2	-0.024031017
221	0xbc851fc3	-0.016250497
222	0x3d10036a	0.035159506
223	0xbcd50dc7	-0.026007546
224	0xbcb3fdd0	-0.021971613
225	0x3c088d43	0.008334461
226	0x3cf22b5d	0.029561693
227	0x3ca4ad9f	0.02010232
228	0x3d81da84	0.06340507
229	0x3d531d7c	0.05154179
230	0xbcb91671	-0.022593709
231	0x3d8d2231	0.06891287
232	0xbcd0b58f	-0.025477199
233	0x3d655814	0.0559922
234	0xbd083272	-0.033251233
235	0xbc410731	-0.0117815
236	0xbb14878a	-0.0022663795
237	0x3ccd03f0	0.025026292
238	0x3d7077c0	0.058707952
239	0x3d3c6a9d	0.04600011
240	0x3d0a963d	0.033834685
241	0xbc3c2744	-0.011483971
242	0xbb009284	-0.001961858
243	0xbd08e9c0	-0.033426046
244	0x3cfeed7c	0.0311191
245	0x3ca41127	0.02002771
246	0x3c6f2099	0.014595174
247	0x3ba4aa50	0.0050251856
248	0x3cd580cc	0.026062392
249	0xbc566244	-0.013084952
250	0xbbb871dc	-0.0056288075
251	0x38fb56aa	0.00011984755
252	0x3d535619	0.05159578
253	0x3d89f7fa	0.06736751
254	0xbcd6ef51	-0.026237162
255	0xbba75ea6	-0.0051077185

bn2.weight f4 [300]
0	0x3fc1bd66	1.5135925
1	0x3fb53d1f	1.4159278
2	0x3f9cc917	1.2248868
3	0x3fa9a3c9	1.3253108
4	0x3f8843ca	1.0645688
5	0x3f99373d	1.1969982
6	0x3f684d61	0.9074307
7	0x3f75aec7	0.95969814
8	0x3f769352	0.9631854
9	0x3f9674b3	1.1754364
10	0x3f97b58e	1.1852281
11	0x3f8867a6	1.0656631
12	0x3fa645d4	1.299006
13	0x3f6b39e4	0.9188521
14	0x3f93f88f	1.1560229
15	0x3f5d1b1d	0.86369497
16	0x3fa65344	1.2994161
17	0x3f936186	1.1514137
18	0x3f9b35b7	1.2125767
19	0x3f9e5207	1.2368783
20	0x3f9a9063	1.2075313
21	0x3f7c8964	0.9864714
22	0x3f58e239	0.8472019
23	0x3fb181c9	1.3867732
24	0x3f5946ef	0.8487386
25	0x3fab8190	1.3398914
26	0x3fa85665	1.3151366
27	0x3fbb4a7e	1.4632108
28	0x3f9201c4	1.1406789
29	0x3f5debea	0.866881
30	0x3f761e73	0.9614021
31	0x3f8aa43c	1.083137
32	0x3f94b22a	1.1616871
33	0x3f9a7028	1.2065477
34	0x3f6c0d5c	0.92207885
35	0x3f64b813	0.89343375
36	0x3fc5b9c2	1.5447314
37	0x3f5820c0	0.8442497
38	0x3f9a415c	1.2051196
39	0x3f8a6bcf	1.081415
40	0x3f9fb28f	1.2476367
41	0x3fa50a14	1.2893701
42	0x3f93c7da	1.1545365
43	0x3f7330cc	0.94996333
44	0x3f996772	1.1984694
45	0x3f86dc1c	1.0535922
46	0x3f9ca463	1.2237667
47	0x3fb40d66	1.4066589
48	0x3f7b84a8	0.9824929
49	0x3f722606	0.9458927
50	0x3f6af760	0.91783714
51	0x3f7c5c29	0.98578125
52	0x3f7e17b2	0.99254906
53	0x3f8fc67c	1.1232448
54	0x3f99a4ef	1.2003459
55	0x3fabd0c5	1.3423086
56	0x3f8959f6	1.0730579
57	0x3f975110	1.1821613
58	0x3f910423	1.1329387
59	0x3f869146	1.0513084
60	0x3f9392cf	1.1529177
61	0x3f5905cf	0.8477449
62	0x3fb65da7	1.424733
63	0x3f8e18a9	1.1101276
64	0x3f937a3b	1.1521677
65	0x3fa67554	1.3004556
66	0x3f94c359	1.1622115
67	0x3f9b18ab	1.2116903
68	0x3f8eba38	1.115058
69	0x3f7aaf5b	0.9792382
70	0x3f4d8700	0.8028412
71	0x3f849051	1.0356542
72	0x3f911338	1.133399
73	0x3fa3838e	1.2774522
74	0x3f9a9f4a	1.2079861
75	0x3f9979c2	1.1990283
76	0x3f6d41ce	0.92678535
77	0x3f98742a	1.191045
78	0x3f955e52	1.1669409
79	0x3f8616f6	1.0475757
80	0x3fba10c6	1.4536369
81	0x3f813dc8	1.0096979
82	0x3f8d3798	1.1032591
83	0x3f9cfc8a	1.2264569
84	0x3f93d33e	1.1548841
85	0x3f7c039d	0.98443013
86	0x3f9784d5	1.1837412
87	0x3f5a2345	0.8521007
88	0x3f75d1bf	0.9602317
89	0x3f923d94	1.1425042
90	0x3f7e73dd	0.99395543
91	0x3fa4e78c	1.2883162
92	0x3f921819	1.1413604
93	0x3f8b08e8	1.0862093
94	0x3f97bfeb	1.1855444
95	0x3f8e909a	1.1137879
96	0x3fbd116a	1.4770939
97	0x3f70c61c	0.9405229
98	0x3f69e9bd	0.9137228
99	0x3f92f750	1.1481724
100	0x3fc3d777	1.530013
101	0x3f5ac85a	0.8546196
102	0x3f6c545c	0.9231622
103	0x3fa0d531	1.2565061
104	0x3f9b50df	1.2134055
105	0x3f80dd33	1.0067505
106	0x3f9a5dee	1.2059915
107	0x3f8ea660	1.1144524
108	0x3f92e25c	1.1475329
109	0x3fb49f73	1.411116
110	0x3f9f9be2	1.2469447
111	0x3fa2be01	1.2714235
112	0x3f83da1f	1.030094
113	0x3f79ec27	0.97625965
114	0x3f87ffd4	1.0624948
115	0x3f973a7c	1.1814723
116	0x3fa625bc	1.2980266
117	0x3f96df47	1.1786889
118	0x3fadca1e	1.3577306
119	0x3f968b4e	1.1761262
120	0x3f71ca1b	0.94449013
121	0x3f596e00	0.8493347
122	0x3fa53533	1.290686
123	0x3fad6c07	1.3548592
124	0x3f962f86	1.1733253
125	0x3f883b28	1.0643053
126	0x3f9db47b	1.2320703
127	0x3fabba4d	1.341623
128	0x3f8aeb0d	1.0852982
129	0x3f8ac66b	1.0841802
130	0x3f96fc8d	1.1795822
131	0x3f86a1c6	1.0518119
132	0x3f7b1249	0.98074776
133	0x3fa4c41d	1.2872349
134	0x3fa1e347	1.2647485
135	0x3fb2fb39	1.3982917
136	0x3f9e004a	1.2343838
137	0x3faa218f	1.3291491
138	0x3f965758	1.1745405
139	0x3fac5239	1.3462592
140	0x3f903c63	1.1268429
141	0x3fa639a0	1.2986336
142	0x3f856ef0	1.042448
143	0x3fb4f199	1.413623
144	0x3f9dc691	1.2326223
145	0x3f9165ec	1.1359229
146	0x3f9dc035	1.2324282
147	0x3fa538d1	1.2907964
148	0x3f63437a	0.88774836
149	0x3f840f34	1.031714
150	0x3f8e2799	1.1105834
151	0x3f949012	1.1606467
152	0x3fb4268f	1.4074267
153	0x3f6b5394	0.91924405
154	0x3fb89222	1.4419596
155	0x3fa7158f	1.3053454
156	0x3f7e95d8	0.99447393
157	0x3f9b66f8	1.2140799
158	0x3f625dbc	0.8842428
159	0x3f929ff8	1.1455069
160	0x3fad9562	1.3561213
161	0x3f8f5268	1.1197023
162	0x3fb58860	1.4182243
163	0x3f950017	1.1640652
164	0x3fbb2e22	1.4623454
165	0x3f97be8c	1.1855025
166	0x3facc4ab	1.3497518
167	0x3f8db934	1.1072145
168	0x3f61f076	0.8825754
169	0x3f887e7f	1.0663604
170	0x3f846be9	1.0345432
171	0x3fae9113	1.3638023
172	0x3f9c6a37	1.2219914
173	0x3fab2c6b	1.337293
174	0x3f88a15b	1.0674242
175	0x3fb5a188	1.418992
176	0x3f5eb277	0.86991066
177	0x3f97b164	1.185101
178	0x3fa9ee37	1.3275822
179	0x3fb2674d	1.3937775
180	0x3fa55905	1.2917792
181	0x3f943903	1.1579899
182	0x3fa5ffaf	1.2968653
183	0x3f7f6740	0.9976692
184	0x3f8bfaae	1.0935876
185	0x3f96874f	1.1760043
186	0x3f93bcc5	1.1541983
187	0x3fa96574	1.3234086
188	0x3f7b64a0	0.98200417
189	0x3f864c6b	1.0492071
190	0x3f898421	1.0743448
191	0x3fb1a884	1.3879552
192	0x3f68a0ef	0.90870565
193	0x3fb6ce41	1.4281694
194	0x3f6ea99a	0.9322754
195	0x3f907afa	1.128753
196	0x3f679d73	0.90474623
197	0x3f5dfef0	0.8671713
198	0x3fa5ae8f	1.2943896
199	0x3fb38fd9	1.4028274
200	0x3f802c85	1.0013586
201	0x3fa66d46	1.3002098
202	0x3fc1e3a6	1.5147598
203	0x3f8a5387	1.080674
204	0x3fa2f055	1.2729594
205	0x3fa288d9	1.2698013
206	0x3f5bcfc0	0.85863876
207	0x3f94fc21	1.1639444
208	0x3f8abbc6	1.0838554
209	0x3fa7c6f4	1.3107591
210	0x3f9a6110	1.2060871
211	0x3f92fb68	1.1482973
212	0x3f9ece8c	1.2406783
213	0x3f8a125f	1.0786856
214	0x3f8bd075	1.0922991
215	0x3f7ac605	0.97958404
216	0x3fa6be1d	1.3026768
217	0x3f8e5262	1.1118891
218	0x3f663005	0.8991702
219	0x3f805770	1.0026684
220	0x3f668c74	0.90058064
221	0x3fafcce9	1.3734409
222	0x3f93c0fe	1.1543272
223	0x3f816f45	1.0112082
224	0x3f850d86	1.0394752
225	0x3f4e9510	0.806962
226	0x3f8c534b	1.0962919
227	0x3f98cfe2	1.1938441
228	0x3f56368c	0.8367698
229	0x3fb1d9ee	1.3894632
230	0x3f90e394	1.1319451
231	0x3f7a2d66	0.9772552
232	0x3f949ccd	1.1610352
233	0x3f9fe5b3	1.2491974
234	0x3f8232bc	1.0171733
235	0x3f734fc2	0.95043576
236	0x3f897418	1.0738554
237	0x3f98ea14	1.1946435
238	0x3f5b2ebf	0.85618204
239	0x3f9dba59	1.2322494
240	0x3faafd05	1.3358465
241	0x3f6ee757	0.93321747
242	0x3fa9e051	1.3271581
243	0x3faa5fdc	1.3310504
244	0x3fa5996a	1.2937443
245	0x3fa8601f	1.3154334
246	0x3f776f27	0.9665398
247	0x3f869522	1.0514262
248	0x3f8ac2ae	1.0840662
249	0x3f966997	1.1750973
250	0x3f8f35c8	1.1188288
251	0x3fa8da93	1.3191704
252	0x3f7cc10a	0.98732054
253	0x3f5f809b	0.8730561
254	0x3fa618f5	1.2976366
255	0x3f97345f	1.1812857
