models/ddpg_ant_50.pt (torch, 669552 bytes, 10 tensors)

fc1.weight f4 [400, 105]
000000 f8 f9 f3 3d 0b ed 06 3e ee fe 03 3d 40 3d b8 bc
       0.11912912 0.13176362 0.03222554 -0.022490144
000010 ff 46 55 bd 42 c0 26 3d eb 99 6d 3d 49 90 53 bd
       -0.05206966 0.040710695 0.058008116 -0.051651273
000020 4a cb 13 3c 32 5a 7d bd ca 0c d8 bd 67 de bd 3d
       0.009020636 -0.061853595 -0.10549314 0.092709355
000030 4f c0 97 3d f9 e3 a4 3c 7a 5b b5 3c 0e e6 4a 3c
       0.07409727 0.020128237 0.022138346 0.012383951
000040 ce 77 1d 3c 17 9b 8f bd f2 41 20 3d fd 94 a6 3c
       0.009611083 -0.07012003 0.03912539 0.020334715
000050 bd 65 2b ba ba 26 75 3b be 7d 65 3c 9c 18 e8 bb
       -0.00065382925 0.0037407116 0.01400703 -0.007083012
000060 b8 81 bf bc bf a8 9f 3b f2 fd 8b 3c cb 23 5b 3d
       -0.023377284 0.004872411 0.017088864 0.05350093
000070 f2 0f e2 3c e5 66 4d bc 5e 7f 4e 3b 9a 6b 94 3c
       0.027595494 -0.012536739 0.0031509022 0.018117715
000080 8c f4 16 bc f2 3f 74 bc 71 4c 31 3d 0b af 41 3d
       -0.009213578 -0.014907824 0.04328579 0.047286075
000090 40 68 de 3c d2 3e e3 bb 42 fc a8 3b 34 15 ad 3c
       0.02714932 -0.006934979 0.0051570246 0.021128275
0000a0 3e e5 cc ba fc a8 be 3b d9 06 6c 3d a0 68 0b 3d
       -0.0015632284 0.0058184844 0.057623718 0.034035325
0000b0 39 8d fd bb 37 a0 80 bc 52 a2 5a 3b af 64 94 bc
       -0.0077377823 -0.015701396 0.003336091 -0.018114416
0000c0 a8 8a 35 3c eb 2d 38 3d 40 9e 07 bc e8 07 bd 3c
       0.0110804215 0.044965666 -0.008277476 0.023075059
0000d0 c5 fc 24 bd de 9e ef 3c 31 0d a4 bc c3 18 02 3d
       -0.040280122 0.029250558 -0.020025821 0.031761896
0000e0 ee 36 82 3b 37 9b 8b bd 20 34 8a 3d aa b7 97 bd
       0.0039738333 -0.06816714 0.06748223 -0.07408078
0000f0 e9 96 21 3c c0 68 8c 3d c0 54 42 3c 4b 98 8b 3c
       0.00986264 0.06855917 0.011861026 0.017040392
000100 11 8f 35 bd 8d 1d 87 bd c7 74 9b bc 35 90 bc 3d
       -0.044325892 -0.06597433 -0.018976582 0.09207193
000110 ff 12 c5 bb 1a 34 7e 3b 8b d4 15 3d 14 ce 14 bd
       -0.0060142274 0.003878838 0.03657965 -0.036329344
000120 c5 ca 24 bd d1 2c 04 3d 76 d8 cd 3c b6 c3 f5 3b
       -0.04023244 0.032269303 0.02512763 0.007500137
000130 32 aa 81 bc 0c a4 02 bd 75 7d 42 bd f4 64 cb bc
       -0.015828226 -0.03189473 -0.047482926 -0.024828412
000140 ae 9b b4 3c 42 73 9b 3c 73 09 8d 3d 3d 0e a4 3c
       0.02204689 0.018975858 0.06886568 0.02002632
000150 bb 9e 8a 3c 86 f8 8e 3b 41 f8 5c 3c ae 30 d1 3c
       0.016921392 0.0043631224 0.013486923 0.025535908
000160 5a 18 34 bd 3d 05 10 3d a8 ae 33 bc c0 eb 37 bd
       -0.043968536 0.035161246 -0.010966934 -0.044902563
000170 be 8c ed 3c e6 d1 d5 3c 98 f9 64 3c de 6a c9 3b
       0.028997775 0.026101064 0.013975523 0.0061467728
000180 1a 3c 4c 3d 2f cc 51 bd 49 b1 96 bd 32 5a 26 bd
       0.049862005 -0.051220115 -0.07358033 -0.04061336
000190 d9 c2 70 3c 1f 90 3b bd a8 c0 c2 3c 4a 4c c0 bd
       0.014694893 -0.04579174 0.023773506 -0.09389551
0001a0 61 55 dd bc 6b 45 a2 3d e8 89 10 bd 2d 89 33 3e
       -0.02701825 0.07923397 -0.035287768 0.17532797
0001b0 96 16 13 3e 58 6a 1f bd 50 5a b3 bd c8 af 0e bc
       0.14364085 -0.038919777 -0.0875746 -0.008708902
0001c0 b9 7d 28 3d 86 c7 26 bc f7 68 0a 3d ce da d9 ba
       0.041135523 -0.010179406 0.03379151 -0.0016620995
0001d0 d6 e5 3c 3d 6d b3 14 bd 55 9e 8d bc d5 51 92 bc
       0.046117626 -0.036303926 -0.017287413 -0.017861286
0001e0 88 e9 76 3d 8a 2f 7c 3d 85 5f 49 bd 56 dc 21 3d
       0.060281307 0.061568774 -0.04916336 0.03951677
0001f0 fd 02 be bb 6f 1e 97 bc 80 0d fc 3c 64 3b 24 bc
       -0.005798696 -0.018447129 0.030768156 -0.010023925
000200 f3 83 01 bd 05 5b 49 ba fb 49 55 3a e5 02 ac 3c
       -0.031619977 -0.00076811045 0.0008136329 0.020997474
000210 18 c8 61 3c cb f7 29 bd 36 0f 77 bd 7b 08 39 3c
       0.013780616 -0.04149608 -0.06031724 0.011293526
000220 7e 12 d2 3d b1 08 59 3d 3b 12 28 3d 84 b4 15 bd
       0.10257433 0.052986804 0.04103301 -0.036549106
000230 b3 20 ba bc 60 2d 72 bc 6f cd 01 3d a6 78 cc 3c
       -0.02272067 -0.014781326 0.031690057 0.024959873
000240 37 17 a6 bc f9 dd e0 bc 2a 8e 12 bd d8 2d 86 3c
       -0.020274742 -0.027449595 -0.03578011 0.016379282
000250 b5 b1 b8 3c 6a f7 6b 3d 78 aa ce bc 63 b2 a6 3b
       0.022545675 0.057609 -0.02522777 0.0050871833
000260 49 0b a3 bb 85 31 66 3d ff 8c 2d bd c0 03 dc bc
       -0.0049757105 0.05619957 -0.042370792 -0.026857257
000270 76 d9 f9 bb af 86 d8 3c ec 3f 04 bd 45 9d 0e bd
       -0.0076248003 0.02643141 -0.032287523 -0.034817953
000280 d5 0b f7 bc be bd 46 3c eb 5a 8a bd ab 1d e2 3c
       -0.03015701 0.012130199 -0.067556225 0.027602037
000290 13 7c b8 3d 42 63 21 3d 13 5e 36 3b 30 f4 93 3d
       0.0900804 0.0394013 0.0027827069 0.072243094
0002a0 4c 61 5a 3d 3d 69 f5 3c d1 16 49 bd 9d d9 42 3d
       0.053315446 0.029957408 -0.049094025 0.047570813
0002b0 bd 00 10 3d 45 b6 34 3b fe 8f 2b bd 32 84 ae 3c
       0.035156954 0.0027574461 -0.04188537 0.02130327
0002c0 94 8b 4d bb e7 81 ab bb 82 38 3b bc 08 31 b1 bc
       -0.0031363713 -0.0052339914 -0.011427047 -0.021629825
0002d0 11 55 b4 bd 23 ae 13 bd ce 80 5b bc 5b 4d bd bd
       -0.08805288 -0.03605474 -0.013397409 -0.0924327
0002e0 c6 45 88 3d 6e b8 19 3d cc 79 0b bd 19 22 21 3d
       0.06653933 0.0375294 -0.0340517 0.03933916
0002f0 9b 33 0f 3c 63 07 ad 3c 10 e7 e7 3b ee d9 51 3d
       0.008740331 0.021121686 0.0070771053 0.051233225
000300 8d 83 a7 bc 2d 77 c3 bc 6e 93 0d 3c 23 fc 47 3d
       -0.02044847 -0.023860538 0.008641107 0.04882444
000310 2c 18 db bc 52 c6 5e 3b d0 29 4b bd 3b 85 b3 3d
       -0.026744924 0.003399272 -0.049600422 0.08765646
000320 63 1e 02 3c 04 b6 87 bd 5c 79 31 bc a5 0b c8 3c
       0.007941815 -0.066265136 -0.010832157 0.024419615
000330 35 81 93 ba 18 9a 27 bd ab 7c d3 bc 3c d3 b3 bc
       -0.0011253717 -0.04091844 -0.025816282 -0.02195131
000340 d1 26 df 3c 75 c1 62 3d 2a 1c 9e bc 2d 7d a7 bc
       0.027240189 0.055360276 -0.019300539 -0.02044543
000350 4e 52 7a bd 8c ed 80 bd 89 d9 02 bd 24 79 9a bc
       -0.061113648 -0.062953085 -0.03194574 -0.018856592
000360 7b 94 a0 3c e7 d2 48 bd a3 50 88 bc bb af 7a 3c
       0.019602051 -0.049029257 -0.016640013 0.0153006865
000370 a4 07 10 bd 40 fc f4 bd b4 fe de bc 2f a5 6d bd
       -0.035163537 -0.11962175 -0.027221061 -0.05801886
000380 ce 83 13 3d 78 9f 4a bc c1 fc 8e bd 68 68 d5 3c
       0.03601437 -0.012367122 -0.06981803 0.026050761
000390 d9 37 16 3d 8c 01 1a 3c 8e 30 04 bd 9c 14 b4 3c
       0.036674354 0.009399783 -0.032272868 0.021982484
0003a0 53 e9 20 3c 58 ce 9e bb 4e 16 bf bc e6 ea e5 bc
       0.009821254 -0.0048463754 -0.023326065 -0.02806611
0003b0 65 b5 37 3d 2a da 11 bd e2 4e b2 bd 3f 1c 23 bd
       0.044850726 -0.035608448 -0.08706452 -0.03982186
0003c0 86 38 99 3c 8e f0 94 3d 6d f3 55 3c 15 70 11 3d
       0.01870371 0.07272445 0.0130585255 0.03550728
0003d0 c3 7d 01 bd d1 18 38 3d 7a 98 a1 bc 55 6d 31 bd
       -0.031614076 0.04494554 -0.019726027 -0.043317158
0003e0 0f ce 1c bd d7 74 da 3d 21 36 8a 3d d8 ac 2f 3d
       -0.03828245 0.10666817 0.067486055 0.042889446
0003f0 0b dc 7b 3d 01 08 11 3d 21 6b 4d 3c 46 ea 38 bd
       0.061489146 0.035408024 0.012537749 -0.045145296

fc1.bias f4 [400]
000000 bb 45 1e 3d f4 32 f2 3c 14 89 a7 3a 0e 6a ad 3c
       0.03864072 0.029565312 0.0012781941 0.021168735
000010 c4 2c 3b 3d 6f da 73 3c db 9c 22 3d 6c c7 22 3c
       0.04569699 0.014883622 0.03970037 0.009935241
000020 d5 fc 9a bc 31 b7 d6 39 ad 73 fa 3b be ac d1 bc
       -0.018919388 0.0004095375 0.007643184 -0.025595065
000030 2a c1 1d 3c a7 fd 07 bd f5 8b fc 3c ff 92 1c bd
       0.009628573 -0.033200886 0.030828455 -0.038226124
000040 01 49 a7 bc 9f eb 2e 3c 0d 05 23 bd cc 4e 96 bc
       -0.020420553 0.010676294 -0.03979974 -0.01834812
000050 13 a8 84 3c 38 51 41 bc bc 16 0b bd a8 3e d4 3c
       0.016193425 -0.011799149 -0.033957228 0.025908783
000060 6a e1 84 bc 52 bc 9a bc eb 71 2b bd f7 67 94 3d
       -0.016220767 -0.018888626 -0.041856688 0.07246392
000070 d2 6c 95 bc e5 55 6c 3d b7 dd a6 ba 0b 7a b5 3c
       -0.018240366 0.057699103 -0.0012730871 0.022152921
000080 58 8a ee bc 3c 9f 1e bd 05 27 d5 bc 73 58 a1 bb
       -0.029118702 -0.038726076 -0.026019583 -0.004923874
000090 2e f6 a2 bc 8b e5 3e bc 52 6f 30 3c 1b 7a 39 bc
       -0.019892778 -0.011651407 0.010768728 -0.011320616
0000a0 6b 04 de 3b 1b 62 8e 3d 92 31 85 3b 37 b6 72 3d
       0.006775429 0.06952306 0.004064747 0.059255805
0000b0 26 7b 7f 3d d6 22 5b 3d 5a d6 02 3d c0 7e 0f 3c
       0.062373303 0.05350002 0.031942703 0.008758247
0000c0 32 f2 9a 3c 12 99 0d 3d dc ed 3d 3d aa a8 96 3d
       0.018914316 0.034569807 0.04636942 0.07356389
0000d0 2c e6 0e 3d ae b9 9a bc d0 52 bc bc 2a 8e 20 3d
       0.034887478 -0.018887367 -0.022988707 0.03919808
0000e0 e5 db 5c 3c 62 16 03 3d fa 4e 87 ba a6 81 97 3c
       0.013480161 0.032003768 -0.001032322 0.018494438
0000f0 e1 52 52 3c 6f 02 89 3d c5 04 eb 3b e5 bb 9a 3c
       0.012837143 0.06689917 0.0071721994 0.018888423
000100 57 96 00 bd c8 9c 61 3d fa 69 45 3d 8c dc 3d 3d
       -0.031393375 0.05508116 0.04819677 0.046352908
000110 d5 8d 85 3c f7 0b 75 bb 12 29 70 3d 6c 73 86 3d
       0.016302982 -0.0037391165 0.058632918 0.06564984
000120 69 62 a7 3c 1a 75 8d 3c 94 f4 da 3c 76 2e 03 3c
       0.020432668 0.017267752 0.026727952 0.008006683
000130 1b 1e 07 3d d2 97 05 3d 0e ab 58 3b bd 3c a6 3c
       0.032987695 0.03261549 0.003306094 0.020292634
000140 b9 b5 5c 3c a0 54 a0 3a 4c 57 f7 bc da 09 dc 3b
       0.01347106 0.0012232251 -0.030192994 0.0067150416
000150 57 43 26 3c 2d db 27 39 ca 52 dc 3c cd ce 6d bc
       0.010147891 0.0001600801 0.026894946 -0.014514637
000160 63 f9 be bc d4 de 31 bd 9f 52 6f 3d 85 8d b2 3c
       -0.023312276 -0.043425396 0.058428403 0.021795997
000170 f3 e8 c2 3c 5a 02 d7 3c 19 44 e4 3c 29 06 e1 3c
       0.02379272 0.026246238 0.027864503 0.027468758
000180 ee ef 0c bd 1e e3 d0 3c aa dd 3f bd 2d 68 93 3d
       -0.034408502 0.025498923 -0.046842255 0.07197604
000190 bd b8 69 ba e6 ec 84 3d 55 b8 18 3d 8f d9 8e bc
       -0.0008915773 0.06490497 0.037285168 -0.017437724
0001a0 fd b3 f0 3a 7d ad 89 ba c1 a5 41 3c 5d bb 23 3d
       0.0018364188 -0.0010503974 0.011819304 0.039973605
0001b0 b7 fc 7b bd 2f ca 08 bd 65 89 93 3c ef 22 42 bc
       -0.061520305 -0.033395942 0.01800985 -0.011849149
0001c0 a3 44 93 3a 86 2b 2a 3d 06 4d e4 3b 28 2a 51 3d
       0.0011235665 0.041545413 0.0069671897 0.051065594
0001d0 24 de 00 3d a2 a2 82 3d 27 ac 20 bb 06 38 39 bd
       0.03146185 0.06378676 -0.0024516673 -0.045219444
0001e0 b3 26 1f bc ec b5 3f 3d 55 43 22 3d ab 92 af bb
       -0.009713816 0.046804354 0.039614994 -0.0053580604
0001f0 ec c5 8f 3c d4 9e ae 3d a7 ad e7 3c 2e d9 49 3d
       0.017550431 0.08526388 0.028281046 0.049279384
000200 10 a4 bc 3c ca 32 70 3d 5b e2 34 bc 9d 0c 49 3c
       0.02302745 0.058642186 -0.0110402955 0.012271074
000210 8d 1f 17 3d 6d c7 f9 3c bd 40 0f bd 61 f1 d9 3c
       0.036895324 0.030490601 -0.03497385 0.026604356
000220 b2 2f 7a 3d 56 d8 18 bc 38 23 88 3d 82 c6 d1 3b
       0.061080642 -0.009328922 0.066473424 0.006401838
000230 be ed 97 3d 5f 5b 6e ba 4a 91 c2 bc 02 b0 35 bd
       0.074183926 -0.0009092595 -0.02375092 -0.044357307
000240 ec eb c3 3c 94 95 8c 3d 49 b2 9e 3c f7 75 6e 3d
       0.023916207 0.06864467 0.019372122 0.05821797
000250 f2 58 1f 3d 46 fb 2a bc 26 53 1a bd 7e 86 e5 bb
       0.038903184 -0.010435885 -0.037676953 -0.007004558
000260 10 1b 1c 3d 75 67 82 bc 19 d3 23 3d 3d 4b ba bc
       0.038111746 -0.015918473 0.03999624 -0.022740955
000270 9d 57 95 3c 71 d3 be bc 33 98 91 3b d4 b7 12 3d
       0.018230254 -0.023294182 0.0044431924 0.035819843
000280 37 a6 cc 3b 40 60 56 3c 0b 6e 1b 3c 1b b5 08 bd
       0.0062454003 0.013084471 0.0094866855 -0.03337584
000290 f6 1c 04 3d e3 04 06 bd 26 7d d0 bc 5a 89 17 3d
       0.03225418 -0.032719504 -0.0254503 0.036996223
0002a0 e8 83 be bc de aa 0e 3c e2 cf 08 bd 82 01 ab 3a
       -0.023256257 0.00870773 -0.033401377 0.0013046714
0002b0 17 70 2e 3d bb b2 97 bc 45 b4 7c 3b 74 1e 3a 3d
       0.042587366 -0.018517843 0.0038559597 0.0454392
0002c0 eb 83 41 3d 28 b8 68 3d b8 6b a2 3d 24 a4 6e 3d
       0.047244947 0.05681625 0.07930702 0.058262005
0002d0 85 03 98 3b 59 9b b1 bc 8c 9e b3 bb 9e 40 21 bd
       0.0046390914 -0.02168052 -0.0054815467 -0.039368264
0002e0 60 a2 20 bd e1 77 94 3d ba c7 eb 3b 04 ea fb 3c
       -0.039217353 0.072494276 0.00719544 0.030751236
0002f0 b6 d4 88 3c e0 bb e0 bc e0 98 dc bc 98 89 d1 bc
       0.016702991 -0.027433336 -0.026928365 -0.025578305
000300 e8 d7 a8 bb fa c9 04 3d 39 1e 2b bc 85 13 a7 3d
       -0.005152691 0.032419182 -0.010444217 0.0815802
000310 2c d6 eb bc c5 e9 3b 3d ab f8 32 bd 23 17 31 3d
       -0.028788649 0.045877237 -0.04369418 0.043234956
000320 f6 62 14 bd ae e2 2e bc 06 c4 2e bd 4d 5c 8d 3c
       -0.03622719 -0.010674162 -0.04266741 0.017255927
000330 fa ef a9 3b 6b 75 83 3c 5f e9 16 3d b8 05 03 bd
       0.005186078 0.0160472 0.036843654 -0.031987876
000340 0c 77 53 bd 38 c1 07 3d 2d 95 af 3c 67 70 4f 3d
       -0.051627204 0.033143252 0.021433437 0.050644305
000350 94 60 2c 3d 63 73 7d bc cf 3e 22 3c cc ab a7 3c
       0.04208429 -0.015469405 0.00990267 0.020467661
000360 d1 2a 1c 3d 72 2d 8b bc 6b f3 c6 bb e1 3d b3 bb
       0.03812677 -0.016989443 -0.006071498 -0.005470023
000370 c6 f7 4b bd a7 1d 55 bd 87 83 8d 3c 49 94 12 3d
       -0.049796842 -0.05203023 0.017274631 0.035785947
000380 4f cc c2 3c 58 74 ff 3b 08 52 1f 3d 4b a3 1f 3c
       0.023779063 0.0077958517 0.03889659 0.009743522
000390 8a 8c 07 bc c3 5d 20 bd 1a bf 3e 3d ab 97 3a 3d
       -0.008273253 -0.03915192 0.046568967 0.045554798
0003a0 1d 9e f4 3c f9 1c 0e bc 49 47 df bc 74 5c bb bc
       0.02986055 -0.0086739 -0.027255671 -0.022871234
0003b0 de 3c 4d 3c 35 b7 6b bc d1 59 e1 bc 95 f0 68 bc
       0.012526719 -0.014386942 -0.027508648 -0.0142175155
0003c0 aa 00 d2 ba 3d 73 03 3c c0 e8 a0 3d a7 50 bc 3c
       -0.0016021926 0.00802308 0.078568935 0.022987677
0003d0 e5 0c 55 3d 25 cc 67 bc 4d a5 20 bd ef de ec 3b
       0.05201425 -0.014147793 -0.039220143 0.007228724
0003e0 b1 57 15 3d 87 12 34 3d 00 36 38 bc c3 fd 0f 3d
       0.036460582 0.04396298 -0.011243343 0.035154115
0003f0 3a 18 6d bc 4d 2d 55 3d 27 ac 13 bd d5 13 2b 3c
       -0.014471108 0.052045155 -0.03605285 0.01044174

bn1.weight f4 [400]
000000 51 38 81 3f 4f 9f 7f 3f bd 27 7c 3f 28 fa 7b 3f
       1.0095311 0.9985246 0.98498136 0.98428583
000010 d1 de 7f 3f 3b 21 82 3f ce be 85 3f c4 32 78 3f
       0.99949366 1.0166391 1.0448854 0.9695246
000020 98 f8 77 3f 80 8c 75 3f 13 64 7c 3f 6b 10 81 3f
       0.968637 0.9591751 0.985902 1.0083135
000030 26 b5 84 3f 49 e2 80 3f d6 b9 82 3f 2a 9f 81 3f
       1.0367782 1.0069057 1.0212963 1.0126698
000040 9b a7 82 3f 16 d9 7b 3f cd 29 7a 3f d4 1e 84 3f
       1.0207399 0.9837812 0.9772003 1.0321908
000050 9e 79 7f 3f 2b 31 81 3f 41 92 7e 3f da 6e 88 3f
       0.9979495 1.009313 0.99441916 1.0658829
000060 2e a5 7b 3f d5 5b 76 3f 1a ae 7e 3f ce 41 84 3f
       0.9829892 0.96233875 0.9948441 1.0332582
000070 2e 1d 81 3f e5 49 75 3f 3e 01 96 3f 72 c1 83 3f
       1.008703 0.9581588 1.1719129 1.029341
000080 5c f0 80 3f f5 e2 7d 3f 7d 25 82 3f ff 0a 81 3f
       1.0073352 0.99174434 1.016769 1.0081481
000090 ff e3 86 3f 8b fd 6f 3f b2 d6 7f 3f 66 db 7b 3f
       1.0538329 0.9374625 0.99936974 0.9838165
0000a0 eb 02 84 3f 78 79 86 3f 60 54 7e 3f ab 67 88 3f
       1.031339 1.0505819 0.99347496 1.0656637
0000b0 65 89 81 3f 0b 59 94 3f 8d cf 7b 3f 58 30 76 3f
       1.0120054 1.1589674 0.9836357 0.96167517
0000c0 9a 5e 7a 3f 91 f7 78 3f af 6b 80 3f c9 6a 80 3f
       0.978006 0.97252756 1.0032862 1.0032588
0000d0 b0 17 88 3f 4b 23 75 3f 3a 52 7d 3f f2 ca 79 3f
       1.0632229 0.9575698 0.9895359 0.97575295
0000e0 db 93 75 3f 65 64 85 3f 8e 02 82 3f f2 dd 82 3f
       0.95928735 1.0421263 1.015703 1.0223982
0000f0 4e 0a 83 3f 19 16 84 3f b6 06 80 3f 3f c8 7a 3f
       1.023752 1.0319244 1.0002048 0.979618
000100 7b 5d 7b 3f c8 64 7b 3f b8 f9 7c 3f d3 c4 79 3f
       0.98189515 0.98200655 0.9881854 0.97565955
000110 35 cd 81 3f 6a 34 8c 3f bb fd 89 3f da 55 80 3f
       1.0140749 1.0953496 1.0780557 1.00262
000120 80 ea 7d 3f c1 03 81 3f 10 c0 78 3f 99 bd 7b 3f
       0.99185944 1.0079271 0.97168064 0.9833618
000130 30 93 7e 3f 5e 01 7a 3f 26 bd 7c 3f ad b6 84 3f
       0.9944334 0.97658336 0.9872612 1.0368248
000140 cf 07 86 3f 40 51 82 3f d0 68 7c 3f 0d 3d 75 3f
       1.0471133 1.0181046 0.9859743 0.9579628
000150 ab 7e 80 3f c8 59 7d 3f 87 8f 7a 3f 0f 9a 7a 3f
       1.0038656 0.9896512 0.97875255 0.97891325
000160 04 87 7a 3f 83 90 7e 3f 7f 40 79 3f e9 0a 82 3f
       0.9786227 0.9943926 0.9736404 1.015958
000170 2b 10 75 3f 16 66 7c 3f 05 32 83 3f e8 72 78 3f
       0.95727795 0.9859327 1.024964 0.97050333
000180 f0 f3 83 3f 70 69 80 3f ff 37 80 3f e8 5d 7b 3f
       1.0308819 1.0032177 1.0017089 0.98190165
000190 21 53 81 3f 08 f4 7f 3f 8d 17 80 3f 0e bc 86 3f
       1.0103494 0.9998174 1.0007187 1.052614
0001a0 47 a8 75 3f 54 30 7a 3f ce d2 7f 3f f8 8a 85 3f
       0.95959896 0.9772999 0.9993104 1.0433035
0001b0 46 48 7f 3f 77 08 7c 3f 8f ff 7b 3f f4 87 80 3f
       0.99719656 0.98450416 0.98436826 1.004149
0001c0 e5 ef 77 3f 24 f7 77 3f fa 40 82 3f ce 26 6f 3f
       0.96850425 0.9686148 1.0176079 0.93418586
0001d0 10 cb 7a 3f ff 0a 80 3f f1 0b 81 3f 97 0b 7d 3f
       0.979661 1.0003356 1.0081769 0.9884581
0001e0 5d 2c 76 3f e6 43 7c 3f b8 2d 79 3f d1 65 78 3f
       0.96161443 0.98541105 0.97335386 0.9703036
0001f0 ec 49 7c 3f 33 33 7c 3f 77 2f 81 3f bb 1d 86 3f
       0.98550296 0.98515624 1.009261 1.0477823
000200 e7 41 7a 3f ef 82 7e 3f 57 a8 82 3f 09 d3 77 3f
       0.9775681 0.9941854 1.0207623 0.9680639
000210 f6 30 80 3f 66 9b 77 3f 7a b0 77 3f 1a 8c 7b 3f
       1.0014942 0.96721494 0.96753657 0.98260653
000220 44 7f 7c 3f e5 3b 7f 3f 0d 12 7c 3f 8a 71 80 3f
       0.9863169 0.99700767 0.98465043 1.0034649
000230 34 14 7b 3f 92 dd 78 3f cb 27 7b 3f e0 f6 7f 3f
       0.980777 0.9721309 0.98107594 0.99986076
000240 15 96 79 3f da 3a 7a 3f 47 86 84 3f f6 14 78 3f
       0.9749463 0.9774605 1.0353478 0.96906984
000250 6a 7f 7a 3f 7c fd 77 3f 18 02 9c 3f 76 b2 7b 3f
       0.9785067 0.9687116 1.2188139 0.98319185
000260 7b e6 7e 3f 47 bd 7f 3f c6 fa 7a 3f f7 77 7e 3f
       0.99570435 0.9989819 0.980389 0.994018
000270 1d 0b 7d 3f 8d 27 80 3f 8b 2f 79 3f a5 5c 7e 3f
       0.9884508 1.001207 0.9733817 0.99360114
000280 58 e2 77 3f a1 95 81 3f d1 5a 7a 3f 43 43 73 3f
       0.9682975 1.0123788 0.97794825 0.9502451
000290 7f 30 78 3f 31 35 81 3f ec 55 81 3f f7 02 78 3f
       0.96949 1.0094358 1.0104346 0.96879524
0002a0 f8 be 81 3f 35 29 80 3f 92 c6 7a 3f db 8c 7b 3f
       1.0136404 1.0012575 0.97959244 0.98261803
0002b0 3e e1 83 3f ad 6d 80 3f 11 19 71 3f 91 e9 79 3f
       1.0303113 1.003347 0.94178873 0.9762202
0002c0 84 91 7e 3f 1c 8b 7e 3f 6d a4 78 3f 6d 9c 77 3f
       0.9944079 0.99431014 0.97125894 0.9672306
0002d0 23 8a 8c 3f 69 0e 7a 3f 9f 34 77 3f b4 22 79 3f
       1.0979656 0.9767824 0.9656467 0.9731858
0002e0 10 fe 89 3f e3 8b 78 3f 9c 9f 77 3f f1 d8 80 3f
       1.0780659 0.9708845 0.9672792 1.0066205
0002f0 cb 7b 79 3f 55 d6 7e 3f 09 37 87 3f d1 1e 79 3f
       0.9745452 0.99545795 1.056367 0.9731265
000300 82 d2 7d 3f e3 88 7b 3f 2e a1 78 3f 5e c0 7d 3f
       0.99149334 0.9825575 0.9712094 0.99121654
000310 82 77 81 3f 23 d5 7d 3f 5e d3 84 3f 15 84 7b 3f
       1.0114596 0.99153346 1.0377004 0.98248416
000320 dd bf 75 3f c9 77 78 3f 56 fd 80 3f 6f 49 7a 3f
       0.95995885 0.9705778 1.0077312 0.977683
000330 81 65 80 3f a6 f3 79 3f ab 07 80 3f e5 20 80 3f
       1.0030977 0.97637403 1.000234 1.0010039
000340 e1 4e 8c 3f 49 52 7e 3f 3d e3 81 3f d6 42 90 3f
       1.0961572 0.9934431 1.0147473 1.1270397
000350 29 1c 77 3f b5 1a 7d 3f c9 62 7b 3f 18 0a 7d 3f
       0.96527344 0.98868877 0.9819761 0.98843527
000360 e6 e5 7a 3f 82 1e 83 3f 50 ae 80 3f c6 c9 86 3f
       0.9800705 1.0243685 1.0053196 1.0530326
000370 1c d6 81 3f 54 fb 81 3f 78 99 7e 3f d1 e1 87 3f
       1.0143466 1.0154824 0.99452925 1.0615789
000380 e3 91 7c 3f df c7 79 3f 51 96 80 3f 5e 65 7a 3f
       0.98660105 0.97570604 1.0045873 0.97810924
000390 66 19 77 3f 14 25 7e 3f 24 7b 83 3f 89 d6 73 3f
       0.9652313 0.99275327 1.0271955 0.9524923
0003a0 aa 79 7d 3f e1 b4 80 3f 5f 56 81 3f 1d 40 83 3f
       0.9901377 1.00552 1.0104483 1.0253941
0003b0 e3 ed 7b 3f ff 46 80 3f 04 16 80 3f 26 63 78 3f
       0.9840986 1.0021666 1.0006719 0.9702629
0003c0 5d 56 81 3f 7c 48 77 3f 88 76 7a 3f e9 ff 7e 3f
       1.0104481 0.9659498 0.97837114 0.9960924
0003d0 2e 74 83 3f fa fb 7f 3f a2 dd 78 3f 51 8d 7a 3f
       1.026983 0.9999386 0.97213185 0.9787188
0003e0 f2 cf 75 3f aa 19 76 3f 50 7a 7c 3f 45 58 79 3f
       0.96020424 0.9613291 0.98624134 0.97400314
0003f0 d6 8a 7b 3f 75 60 7f 3f d2 b0 7a 3f 1b 22 80 3f
       0.9825872 0.99756557 0.97926056 1.0010408

bn1.bias f4 [400]
000000 8e b5 b7 bc 29 1a 10 bd b2 fa 39 bd 14 a0 5e bd
       -0.02242544 -0.0351812 -0.045405097 -0.05435188
000010 39 0b a3 bc f8 6e 8a bc 18 4d 7c bd d8 0d 68 bd
       -0.019902812 -0.016898617 -0.06159696 -0.056653827
000020 d8 76 69 bd 2d f5 14 bd 92 31 86 bd cb 9d 64 bd
       -0.056998104 -0.03636663 -0.065524235 -0.055814546
000030 8f 67 4d bd 83 bd 0e bd 74 96 11 bd 73 42 c8 bc
       -0.05014759 -0.0348487 -0.035543874 -0.024445748
000040 b6 8e 8f bc 85 45 38 bd 95 9d 78 bd 36 31 8f bc
       -0.017524105 -0.044988174 -0.060697157 -0.01747952
000050 0a 3e d2 bc 6e e1 b6 bc d1 ba 2d bd 02 b9 18 bd
       -0.025664348 -0.02232429 -0.04241449 -0.037285812
000060 15 ba d6 bc 8d 4d 64 bd e1 45 2d bd 2d c9 87 bc
       -0.026211778 -0.05573802 -0.04230297 -0.01657542
000070 a0 e6 4e bd 85 6b 47 bd ad d5 a5 3c 92 14 07 bd
       -0.05051291 -0.048686523 0.02024349 -0.0329786
000080 2e 17 59 bd 6e d5 53 bd ab 88 2a bd 56 44 ea bc
       -0.05300062 -0.051717214 -0.041634243 -0.028597038
000090 68 26 6f bc 74 c3 79 bd e3 96 63 bd c0 70 08 bd
       -0.014596559 -0.060977414 -0.05556382 -0.03331065
0000a0 7d 24 1e bd 6d 48 3a bb 50 d6 89 bb e9 df 23 3d
       -0.038609017 -0.0028424517 -0.0042064562 0.04000846
0000b0 6a b6 d1 bc 78 1a d7 bc 2f 3f 80 bc 75 5f 52 bd
       -0.025599677 -0.026257738 -0.015655128 -0.051360566
0000c0 9f af 0c bd 02 31 44 bd d9 79 a5 bc 05 75 19 bd
       -0.034347173 -0.0478983 -0.020199703 -0.037465114
0000d0 b0 9e c2 bc 51 d5 96 bc f1 31 6d bd 1b c9 72 bd
       -0.023757309 -0.018412264 -0.057908956 -0.05927382
0000e0 28 57 33 bd 6c 46 6f bc a5 ed 51 bd 2d 91 e5 bc
       -0.04378429 -0.014604192 -0.051252026 -0.028023327
0000f0 e0 25 1a bd af 33 8a bc 53 4a 5c bd 04 56 5b bd
       -0.037633777 -0.016870348 -0.05378182 -0.053548828
000100 44 e7 90 bc b1 a0 96 bc a9 73 ae bc e9 b7 44 bd
       -0.017688401 -0.01838717 -0.021295385 -0.048026953
000110 87 af 3a bd 6b 66 d4 bb f3 d5 1a bd ea df 57 bd
       -0.045577552 -0.0064819357 -0.037801694 -0.052703775
000120 1c 6d d0 bc 92 28 e0 3b d3 c8 3b bd 7c ae ed bc
       -0.025442652 0.006840774 -0.045845818 -0.029013865
000130 b9 b1 82 bd b9 e4 48 bd b6 df 8d bc 4f 43 fb bc
       -0.06381554 -0.049046252 -0.017318588 -0.030671744
000140 f7 57 5c bc e6 1e 61 bc c7 55 81 bb 82 d8 28 bd
       -0.013448707 -0.013740277 -0.003946993 -0.041222103
000150 b0 1d 94 bd fc 96 09 bc e3 e9 bc bc 57 4d 3e bd
       -0.07232225 -0.008397814 -0.023060745 -0.046460476
000160 b9 2b da bc 7f 9c 5b bd 5b 20 6f bd 50 8c 9d bc
       -0.026632177 -0.053616043 -0.058380466 -0.019231945
000170 47 50 b4 bc e2 ff 24 bd 9b bf eb bb e7 4e 15 bd
       -0.022010935 -0.04028309 -0.007194472 -0.0364522
000180 19 54 ca 3a 25 0c 4a bd 01 ee 6e bd 16 6e e8 bc
       0.001543644 -0.04932799 -0.058332447 -0.028372806
000190 b3 89 49 bd 10 69 a6 bc 5a a7 34 bd 2c 37 4c bd
       -0.049203586 -0.02031377 -0.04410491 -0.049857304
0001a0 e3 a0 54 bd 9f 21 2a bd 6c 47 ae bc e2 94 f7 bc
       -0.051911246 -0.04153597 -0.021274291 -0.03022236
0001b0 b2 c6 53 bd 23 c0 07 bd c0 f3 05 bd 4e d4 d9 ba
       -0.051703162 -0.03314222 -0.03270316 -0.0016619058
0001c0 cb 1b 34 bd d7 14 79 bd b2 8c a8 bc 10 fb 4a bd
       -0.043971818 -0.06081089 -0.020574901 -0.049555838
0001d0 f6 e6 05 bd a8 10 3d bd a4 58 f0 bc 60 28 48 bd
       -0.032690965 -0.046158463 -0.029339142 -0.04886663
0001e0 64 fd 12 bd ab fd 56 bd 39 0f b8 bc 94 49 49 bd
       -0.035886183 -0.05248801 -0.022468196 -0.049142435
0001f0 38 ed 15 bd 99 90 18 bc 0a ea b2 bc ef 31 bb 3c
       -0.036603183 -0.0093118185 -0.021840114 0.022850959
000200 a2 90 3c bd cb 3e 3a bc a3 44 89 bc fb 32 e6 bc
       -0.04603637 -0.01136751 -0.016756361 -0.028100481
000210 3a 5f 68 bc 76 78 13 bd 29 ff 9e bd 15 fb 44 bd
       -0.01418286 -0.036003552 -0.07763512 -0.048091013
000220 32 a2 3f bd e0 33 f1 bc 25 ce 3d bd 7a 9d 09 bd
       -0.04678554 -0.029443681 -0.046339173 -0.033597447
000230 09 cf 07 bd c7 4a 5f bd 2d 8c 60 bd 48 ec ea bc
       -0.03315643 -0.054514673 -0.054821182 -0.02867712
000240 46 20 06 bd cf 54 e4 bc 41 3f b2 bc 13 c8 1c bd
       -0.032745622 -0.027872471 -0.021758677 -0.038276743
000250 4b eb 06 bd 69 18 08 bd 02 93 eb 3b 93 e3 f1 bc
       -0.032939237 -0.033226404 0.0071891556 -0.029527461
000260 f9 83 dc ba 23 ea 1e bd 28 2e fb bc f4 2f 0e bd
       -0.0016823999 -0.03879751 -0.030661657 -0.0347137
000270 c7 4f 34 bd 57 52 da bc 2a cb 44 bc 64 b0 f2 bb
       -0.044021394 -0.02665059 -0.012011329 -0.0074062813
000280 ab 31 d1 bc 6b ab f8 bc 5f 0f ee bc f2 44 95 bd
       -0.025536379 -0.030355176 -0.029060064 -0.07288541
000290 50 17 07 bd e4 51 c8 bc 2b 7f 79 bd 96 45 80 bd
       -0.032981217 -0.024453111 -0.060912292 -0.062632725
0002a0 2b 7e 43 bd d8 e7 2c bd ef ac 11 bd 75 7b 9c bd
       -0.047727745 -0.04221329 -0.035565313 -0.07640735
0002b0 11 8c 43 bd a9 2d ad bc 39 b3 69 bd 5e c9 37 bd
       -0.047741 -0.021139937 -0.057055686 -0.044869773
0002c0 ba 35 aa bc 9b 95 da bc 91 f4 ca bc e3 4f 0d bd
       -0.020777572 -0.026682666 -0.024774821 -0.034500014
0002d0 1f 5c 07 bd 37 d3 e4 bc 38 ce ab bc 9e 1c 24 bd
       -0.033046838 -0.027932746 -0.020972356 -0.040066354
0002e0 c8 d2 e8 bc 36 f3 8d bc db 4b 78 bb 3c d4 2e bd
       -0.02842082 -0.017327886 -0.003788701 -0.04268287
0002f0 e7 69 da bc 5f 95 de bc 53 38 8a 3c 8a 01 84 bc
       -0.026661826 -0.027170835 0.01687256 -0.016114015
000300 70 bc 5b bc cc 7b 71 bd 8f 87 c5 bc cd b1 6f bd
       -0.013411626 -0.058955953 -0.024112491 -0.058519173
000310 48 dc c3 bc fc 55 46 bd c0 95 28 bd 91 4e 4d bd
       -0.02390875 -0.048421845 -0.041158438 -0.050123755
000320 92 c2 9e bd 4b c6 0a bd 3b e1 3a bc 97 60 63 bd
       -0.07751955 -0.033880513 -0.011406238 -0.055512037
000330 a9 04 21 bd 1c fe e7 bc c8 11 01 ba 8c 66 97 bc
       -0.039311085 -0.028319411 -0.0004923609 -0.018481515
000340 80 c3 07 bd a7 83 6a bd c4 39 37 bd 98 6c eb ba
       -0.033145428 -0.05725446 -0.044732824 -0.0017961441
000350 8b 51 93 bd 81 b0 25 bc 51 1b 08 bd 42 19 30 bd
       -0.071932875 -0.010112883 -0.033229176 -0.042992838
000360 cd 97 71 bd d9 9c 97 bc be 71 22 bd 8f 50 1d 3c
       -0.05898266 -0.018507408 -0.039659254 0.009601726
000370 6b 00 82 bc 37 ba 64 bd 04 7d 42 bd e2 ed 09 bd
       -0.01586934 -0.05584165 -0.047482505 -0.03367413
000380 e2 30 3e bd bc dd 4b bd 59 f8 1f bd c1 51 67 bd
       -0.046433337 -0.04977201 -0.039055202 -0.05647445
000390 3d 29 45 bd ae 37 6f bd b5 2a 58 3a bc 85 81 bc
       -0.04813503 -0.05840271 0.000824611 -0.01581084
0003a0 1f 34 e5 bc 36 61 6b bd d2 07 e2 bc 8e d6 0b bd
       -0.027978955 -0.057465754 -0.02759162 -0.034140162
0003b0 ec d6 15 bd c7 d0 ba bc a8 b6 46 bd c4 af 26 bd
       -0.03658192 -0.02280463 -0.04851404 -0.040694967
0003c0 43 be 21 bd d8 70 27 bd e9 02 45 bd c7 de 2b bd
       -0.03948809 -0.0408791 -0.04809848 -0.041960504
0003d0 c9 a0 c1 bc 72 d2 53 bd 42 30 08 bd 89 f3 73 bd
       -0.023636239 -0.05171437 -0.033249147 -0.059558425
0003e0 69 65 31 bd aa b9 0c bd db ad 01 bd 5a 57 8c bd
       -0.043309603 -0.03435675 -0.031659942 -0.068525985
0003f0 8a d3 6e bd d2 a4 03 bd 99 1c 4a bd 41 6a a2 bc
       -0.058307208 -0.032139607 -0.04934368 -0.019826056

fc2.weight f4 [300, 400]
000000 9a df a2 bd 18 33 fa bc a7 68 2e 3d 89 b2 ec bb
       -0.07952805 -0.030541942 0.042580273 -0.0072234315
000010 3f af 94 3d a5 e3 5b bc 08 52 66 bc bb f8 19 3d
       0.07259988 -0.013420974 -0.014057644 0.037590723
000020 13 4a ae bd c6 b5 9a 3c da 64 fd 3c e3 06 00 bd
       -0.08510222 0.018885504 0.030931879 -0.031256568
000030 56 11 65 bd 7f b0 2b 3c 6b 14 81 bd 05 49 5e 3c
       -0.055924736 0.010479092 -0.063027225 0.013567214
000040 c7 0d 3b bd 21 16 3f 3d a4 17 ca bc 15 dd 93 3c
       -0.045667436 0.046651963 -0.024669476 0.018049756
000050 26 ce 29 3d 8a 25 13 bd b4 7a 94 3d 2a 22 1d 3d
       0.041456364 -0.035924472 0.07249966 0.03836266
000060 e8 48 8a 3d c9 42 26 3d 15 f7 05 3d 9d 55 ab bb
       0.06752187 0.040591035 0.03270634 -0.0052287118
000070 36 e1 6f bd 93 ca 65 3c b1 5a 16 3d 8a 47 ba 3c
       -0.058564387 0.014025348 0.036707584 0.02273919
000080 2f 02 70 bc b2 5d 7d 3c b5 04 90 bc bb f8 9f 3a
       -0.014648958 0.015464233 -0.01758037 0.0012204865
000090 13 7f 4e 3c e1 20 f3 bc 1e fc 87 3d 91 7e 11 bd
       0.012603539 -0.029678764 0.066398844 -0.035521094
0000a0 95 10 e7 3d d0 0d 56 bc ad 4d 2c bd 65 1d 4d 3d
       0.1128246 -0.013064817 -0.042066265 0.05007686
0000b0 ed ac c5 3d 9e 49 2a 3b 4c 9b 7b 3d 50 b9 32 3d
       0.096521236 0.002598382 0.0614274 0.04363376
0000c0 b2 c2 d7 3c ba f5 1d 3d ad 25 a3 3c 7b cd b2 3b
       0.026337955 0.03856442 0.019915426 0.005456624
0000d0 e1 aa 0c bd b2 51 e9 3c c9 14 5d 3d 63 3f 9f bd
       -0.03434265 0.028481338 0.0539749 -0.07775762
0000e0 5d b2 88 3d f8 73 87 3d 0d 8f 17 3d 14 22 9f 3b
       0.06674645 0.06613916 0.03700166 0.0048563574
0000f0 98 35 72 3d 0f 6e 20 3c 7a b9 f3 bc 62 c6 83 3d
       0.059133142 0.009791865 -0.029751528 0.06434323
000100 34 2a 30 3c 65 c9 1f 3b 34 e2 45 bd e5 bb ee 3c
       0.0107522495 0.0024381515 -0.048311427 0.02914233
000110 20 ed 28 3d 0b 0a 68 3c 5e ea 86 3d 94 a6 4b 3d
       0.041241765 0.014162551 0.06587671 0.04971941
000120 c2 1a 8e 3c 22 c7 8b 3d dc 9a 0e 3c b7 89 82 bc
       0.017346743 0.06825091 0.008703914 -0.015934808
000130 0f be ec bc 73 80 9f 3b fd 08 10 bc 14 f4 2a bc
       -0.02889922 0.0048676073 -0.0087912055 -0.010434169
000140 e5 b3 66 3d 76 99 af 3c 23 b5 6c 3b 61 97 3a bd
       0.056323905 0.02143548 0.0036118708 -0.045554522
000150 04 25 8e 3c a9 d6 b0 3c 96 87 ac 3c 73 13 63 bb
       0.017351635 0.021586733 0.021060746 -0.0034649044
000160 94 e5 47 bd 34 42 02 3d a3 bb cf 3c 53 37 13 3e
       -0.048802927 0.031801417 0.025358027 0.14376573
000170 ff ac 01 3d bb 36 b6 3d 2b c3 bc 3d c5 70 b9 3c
       0.031659123 0.08897158 0.09216913 0.02263678
000180 ee 20 97 3c b5 b4 e4 3b 93 23 b7 bc 1f 8c a1 bc
       0.01844832 0.00697955 -0.02235583 -0.019720135
000190 a1 1f e2 3c 2a 3d 85 3d a7 8e b2 3c 57 fa 80 3b
       0.027602972 0.06505807 0.021796538 0.003936093
0001a0 5e b7 2e 3d 9e ad df bb 6c b1 a1 3d 25 89 ab bb
       0.04265534 -0.0068261167 0.07895169 -0.0052348548
0001b0 08 8e 53 3c 94 74 62 3d c1 75 83 3d df f9 91 3c
       0.012912281 0.05528696 0.06418944 0.017819343
0001c0 c2 ae 98 3c 14 b4 85 3c 34 90 40 bd ef 74 0c bd
       0.018638019 0.01632122 -0.047012523 -0.034291204
0001d0 75 68 60 bd 7d 06 06 ba a5 60 a6 3d 7e a0 8c bd
       -0.054787118 -0.0005112661 0.08123902 -0.06866549
0001e0 9b 2d 8a 3c 85 97 3f 3c e2 b2 05 3d fb ff 43 bd
       0.01686745 0.01169384 0.0326413 -0.047851544
0001f0 d9 76 79 3c 0f 57 58 3d ab 45 86 3d 53 93 8b bd
       0.015226089 0.0528174 0.06556257 -0.06815209
000200 bf 16 bf 3d 78 ba 25 3d c2 11 46 3d 41 bd e8 bc
       0.0933051 0.040461034 0.04835678 -0.028410556
000210 89 72 01 bc 12 2f 82 3c 46 60 4e 3d 67 a2 c9 3c
       -0.007900842 0.015891585 0.050384782 0.024613572
000220 1a 0c d2 3c 85 89 1f bd 0c 86 51 3d d8 0c 29 bd
       0.025640536 -0.03894951 0.051153228 -0.041272014
000230 61 13 a2 bd 42 7c 7d 3d 17 0b ac bc 58 e2 86 3d
       -0.079138525 0.06188608 -0.021001382 0.065861404
000240 1d 80 c4 3d 02 d1 04 3d 73 52 ae 3c eb 0e 1a 3d
       0.09594748 0.032425888 0.02127955 0.037611883
000250 0d a0 78 bc 45 4f 22 3d 99 82 14 bd 3a 20 63 3d
       -0.015174878 0.03962638 -0.03625736 0.055450656
000260 57 97 f0 3c 9c 62 d5 3c 64 5b f1 bc 55 da 15 3b
       0.02936904 0.026047997 -0.029462524 0.0022865732
000270 55 4c 63 3d a5 ae d2 bc 29 f9 5c bd 5e 84 bf 3d
       0.055492718 -0.025718043 -0.053948555 0.09351419
000280 02 45 cb 3c 78 4a 7b 3c 45 f3 b9 bc 58 fb bd bc
       0.024813179 0.015337579 -0.022699008 -0.02319114
000290 77 ce 93 3d 45 fc 8e bc bf 31 1a bb db 5a 06 3c
       0.072171144 -0.017454276 -0.0023528186 0.008200373
0002a0 1d 47 bc 3d 98 59 3a bc 54 75 02 3d f1 b6 5b 3d
       0.09193251 -0.0113739 0.031850174 0.053641263
0002b0 9d 86 7c 3d 95 ca 04 3c ef 74 e1 3c 70 57 29 bc
       0.061651815 0.00810494 0.027521579 -0.010335788
0002c0 96 aa 12 b8 14 52 cf bd c7 5f 12 3d 98 ca af 3c
       -3.4967983e-05 -0.10123077 0.03573587 0.021458909
0002d0 cc 03 7a 3c 27 26 bc 3d 31 50 8b 3c 6d 5f 48 bd
       0.015259694 0.091869645 0.017006012 -0.04891913
0002e0 d6 b4 50 3d 91 79 02 bc 08 c0 a3 3d 4b a7 3e bc
       0.05095371 -0.007963554 0.079956114 -0.011636565
0002f0 02 24 d5 bb 4e e8 f2 3b a7 4f a9 3c a7 9a bc 3c
       -0.0065045366 0.007412947 0.020667864 0.023022963
000300 bf 85 8e 3c 4e 2c ec bd 42 cf 91 3d 17 68 87 3d
       0.01739776 -0.11531888 0.071196094 0.066116504
000310 e6 4a 1c 3d e1 3d e4 bb 90 d9 a3 bb 04 c6 50 bd
       0.038157366 -0.0069653844 -0.0050003007 -0.050970092
000320 cb a8 91 3c 61 73 23 3d 4a d2 b2 3c 59 a9 48 bc
       0.017780682 0.039904956 0.02182879 -0.012247407
000330 0f f3 1b 3b 8e 4d 1e bd ef 30 75 3d e7 2e 29 3c
       0.0023795997 -0.03864818 0.05986112 0.010326124
000340 dd 5a 20 3d 4d 0f c6 3c 40 58 79 3d 90 b9 06 3e
       0.039149154 0.024177218 0.060875177 0.13156724
000350 6a 61 4a 3d b3 79 93 ba 83 cf fd 3c 59 6c bf bd
       0.049409308 -0.0011251479 0.030982738 -0.093468376
000360 85 01 9a bb 07 7b 03 3d 4c 8f 1a 3d ec 6a 26 bd
       -0.004699888 0.03209975 0.037734315 -0.040629312
000370 4d 65 db b9 d7 1d 2b bb d4 1d 8a 3d 4c 68 69 bd
       -0.0004184641 -0.0026110315 0.067439705 -0.05698423
000380 e2 57 1d bd 88 de 9a 3d cf 19 3e bd 65 65 03 3d
       -0.03841389 0.07561976 -0.04641133 0.03207912
000390 d1 45 28 ba 00 c5 80 3d eb 21 1a 3e b2 6b ce bb
       -0.0006419095 0.06287575 0.15052001 -0.0062994594
0003a0 a9 61 06 3d d4 11 73 3d 68 63 ac bd dd aa 4f bd
       0.03280798 0.059343174 -0.08417398 -0.050700057
0003b0 db 51 1c 3b 3d 2a 6b 3b 51 a0 82 3c dc 9e db 3c
       0.00238525 0.003588333 0.015945585 0.026809148
0003c0 ae c2 84 bc ca 59 c5 3d e6 3d 0e bd 82 70 10 3c
       -0.016206112 0.096362665 -0.034727 0.008815886
0003d0 38 c2 aa 3d 34 ab e1 3c 40 0f 82 3c 81 be 8a 3d
       0.083378255 0.027547456 0.015876412 0.06774617
0003e0 a8 5e 0a bc ca 27 17 bd 5c 5e 00 bd aa 6e ad 3b
       -0.008445419 -0.03690318 -0.031339988 0.005292733
0003f0 e1 1c 1f bd 02 ca 06 bd bc 5c 0b 3d d7 97 e6 bc
       -0.0388459 -0.032907493 0.034023985 -0.028148575

fc2.bias f4 [300]
000000 19 93 28 bc bb e2 4b 3d d1 da 8a 3d dd a9 00 bd
       -0.010288977 0.049776774 0.06780017 -0.031411994
000010 5f 0b b3 3c ea 8e b4 bb 96 0e 8a 3d 62 47 f9 bc
       0.021856008 -0.0055102007 0.06741063 -0.030429546
000020 22 16 d3 bc 48 61 72 bc c0 f4 2e bd e3 d6 52 3c
       -0.02576739 -0.0147937015 -0.04271388 0.012868616
000030 a9 1f 85 3d fc 3c 32 3b df 8a 39 3d 66 7b 8e 3c
       0.06500179 0.0027196994 0.045298453 0.017392825
000040 77 96 0a bd 45 00 d9 bc 38 ed 10 3d 4a 88 7e bc
       -0.0338349 -0.026489386 0.03538248 -0.0155354235
000050 11 8b 52 3d 5f 38 f6 3c b9 b4 5c 3d cc 77 48 3d
       0.051402155 0.030056177 0.053883288 0.048942372
000060 67 37 0b 3d d9 9c 2a bc 76 13 8c bc 55 c2 75 3d
       0.033988383 -0.010413372 -0.017099123 0.059999783
000070 05 8d 24 3c 53 09 0b bd 86 a4 4a bc b2 2f 04 bd
       0.010043387 -0.03394444 -0.012368327 -0.03227205
000080 25 11 82 3d 95 7a db 3c ec 2d 84 3d a9 a2 15 3d
       0.06350926 0.02679185 0.064540714 0.036532078
000090 84 3f 1e ba b0 5f 89 3d 67 c0 15 bd 73 f7 f6 bc
       -0.0006036686 0.06707704 -0.036560442 -0.03014729
0000a0 8f 2b fe 3c e5 92 1d 3d 83 f6 a5 bc 07 df e6 bb
       0.03102663 0.038470168 -0.020259148 -0.00704563
0000b0 63 8d 2d bd 79 36 75 3b 76 3d f0 3c d7 e2 2c 3d
       -0.042371165 0.0037416501 0.029326182 0.04220852
0000c0 6d 9e 4d 3d 7e 44 07 3d 20 cc 90 3d 11 cc 35 3d
       0.050199915 0.033024304 0.07070184 0.044384066
0000d0 7a 83 ed 3b fb 96 17 bd 5a 13 18 3d 64 b8 34 bd
       0.0072483392 -0.03700922 0.03712783 -0.04412116
0000e0 32 47 49 bc 85 92 5c 3d f5 c6 05 3c db 9b 37 3d
       -0.012285041 0.05385067 0.008165111 0.04482637
0000f0 cd 44 13 3d 5f 1e 6a 3c 18 b0 4a 3d 35 49 7d bc
       0.035954285 0.014289468 0.049484342 -0.015459348
000100 e2 50 fd 3c 0d e2 25 bd 59 ce 15 3b fe 4d 5c 3c
       0.030922357 -0.040498782 0.0022858588 0.013446329
000110 1e 6a 66 3d b2 62 98 3d 96 27 49 3d a7 f2 23 bc
       0.056253545 0.074407 0.049110018 -0.010006583
000120 f1 f0 45 3c c9 28 13 3d 83 60 62 bc 3d e8 25 3c
       0.012081371 0.035927568 -0.0138169555 0.010126171
000130 0f cb 1e bd 66 0e 27 bc 16 28 cd 3b f3 21 58 3d
       -0.03876787 -0.010196304 0.006260882 0.05276675
000140 03 0e 0a bd 24 ca fe bc f7 16 41 3c ef f6 33 bc
       -0.03370477 -0.031102248 0.01178526 -0.0109841665
000150 2e 99 3d bc f2 cc 82 3d 9a 1a 37 bc 51 e0 0d bd
       -0.011572165 0.063867465 -0.011175776 -0.034637753
000160 d2 7a 0a bd ac 6c 01 bd da 39 ad 3c 00 b9 0f 3d
       -0.033808537 -0.03159778 0.02114575 0.03508854
000170 b0 a9 1d bd be f5 46 3d 8d 4f 10 bc 7c 0c 9e 3c
       -0.038491905 0.0485742 -0.008808029 0.019293062
000180 2c 57 14 3c 5f 32 87 3c c1 42 5f bc 24 3c 97 3c
       0.0090539865 0.016503511 -0.013626755 0.018461294
000190 e3 88 1d bc 3a a4 7f 3d 68 be c6 bc 4a 72 79 3d
       -0.009615156 0.062412478 -0.024260715 0.06090001
0001a0 01 a7 2d 3d d9 d6 84 3d a4 03 fc 3c a3 0b 10 bc
       0.042395595 0.064862914 0.030763455 -0.008791837
0001b0 c1 ae 26 3d 85 71 86 3c aa c1 a9 3c 95 c7 fb bb
       0.040694002 0.016411552 0.020722229 -0.007683704
0001c0 d1 39 05 3d 7f 7c 21 bd b5 ba 21 bd e1 fe bb bc
       0.03252584 -0.03942537 -0.0394847 -0.022948684
0001d0 28 3d 1d bd ab 81 7b 3c ba 38 af 3c dc 9d b1 bc
       -0.0383884 0.0153507395 0.021389354 -0.021681719
0001e0 3f e4 19 bb f3 6a 5e 3d 91 9e 35 bd 1c 41 d1 bb
       -0.0023481993 0.054301213 -0.044340674 -0.0063859355
0001f0 7c 21 9b 3b d6 0c fb bc 91 d1 6c 3d 2c 6a 12 3c
       0.0047342163 -0.03064577 0.057817046 0.008936446
000200 45 4f 97 3b ac 81 2f bd 0e b2 59 3c 0e e9 19 bc
       0.004617604 -0.042848274 0.01328708 -0.0093939435
000210 de 0d cf bc cc f4 34 bd 5e 64 d2 3c 83 31 49 3d
       -0.025275167 -0.04417877 0.025682624 0.049119484
000220 bc 96 5c bc de 5a 92 bc 5e fa 13 bd e9 ac 22 3d
       -0.013463672 -0.017865594 -0.03612744 0.03971568
000230 b0 d3 4c 3d fc 61 15 3d 3a 3b 4d 3d 9e 8a 32 bc
       0.05000657 0.0364704 0.05010531 -0.010897307
000240 92 52 cb 3c 80 e0 f8 bc 44 35 8e 3d e3 77 c1 3b
       0.024819646 -0.030380487 0.06943753 0.005904184
000250 99 0b 69 3c 35 2c 87 bc 19 b7 8f 3c 46 4b 0e 3d
       0.0142239565 -0.016500572 0.017543362 0.034739755
000260 c9 7e d9 3b a0 f8 5c 3d ad 47 e4 3c 53 ab 13 bd
       0.0066374284 0.053948045 0.027866209 -0.03605206
000270 2c 34 8e bc 22 68 4e 3d d5 2f 80 bc ff 24 97 3c
       -0.017358862 0.050392278 -0.015647808 0.018450258
000280 4f 34 d1 3c ce d3 00 bd 87 99 0b bd 06 e1 ab bc
       0.025537638 -0.031451993 -0.034081962 -0.020981323
000290 fb 94 40 3d 18 ab 76 3c 9b e8 e9 3b 96 56 e7 3c
       0.04701708 0.01505544 0.0071383244 0.02823953
0002a0 88 6d ef bb 20 55 5f 3d dc 59 3a 3d 41 93 2f bc
       -0.0073067583 0.05452454 0.045495853 -0.01071626
0002b0 c3 15 2d 3d f7 15 5a 3d 33 1e ea ba 19 9b 92 3c
       0.04225708 0.053243604 -0.0017861783 0.017896222
0002c0 da 9a 52 bc 50 48 3f bd 3f 14 0d 3d ef a5 a9 bb
       -0.012854302 -0.046699822 0.034443136 -0.0051772515
0002d0 88 c5 49 bc dc 29 14 bc 03 d6 60 3d 05 71 25 3d
       -0.0123151615 -0.009043183 0.054891597 0.040390987
0002e0 a4 c8 16 bd eb 29 86 3b 58 c7 08 3d f4 7d 67 3d
       -0.03681244 0.0040943525 0.033393234 0.056516603
0002f0 48 6a be bc c9 54 48 bb 70 72 16 3b e7 9c 3a bd
       -0.023244038 -0.0030568114 0.0022956394 -0.04555979
000300 05 e6 20 3d 4c ee bf bc 12 d9 6b bc 59 b0 da 3c
       0.039281864 -0.023429058 -0.014395015 0.026695417
000310 a8 9e fd 3a ca 3f 1c bd eb 5c 47 bd 07 ce 21 bd
       0.0019349651 -0.03814677 -0.048672598 -0.039503124
000320 33 8c 03 3d 10 8d 24 3d 70 c2 79 3d 3d 82 70 3c
       0.032116126 0.04017359 0.060976446 0.014679489
000330 16 3f 80 3d 6d 23 25 3d 0b c8 16 3a b6 2e 20 3c
       0.06262033 0.040316988 0.00057518546 0.009776762
000340 f9 43 46 bc 08 cb a8 3a 20 8b 4e 3d c9 4a b6 3c
       -0.012101167 0.0012877891 0.05042565 0.022252457
000350 cd 0e fa bc ed 14 fe bb 96 e0 81 3d 26 40 95 3d
       -0.030524636 -0.0077539594 0.063416645 0.07287626
000360 21 a8 17 3c c0 c1 89 3d ed 9d b1 3c a0 ba e6 3c
       0.009256394 0.06726408 0.02168175 0.028165162
000370 9b 58 1f bd 56 fb ae bc 16 27 0b 3d 72 f3 da bc
       -0.03890286 -0.02136008 0.033972822 -0.026727412
000380 20 2b e4 bc 1a d7 04 bd 7f 57 ae 3c 1b a2 9d 3c
       -0.027852595 -0.0324317 0.021281956 0.019242337
000390 b8 36 32 3d 0c 8f 4d 3d 47 c0 08 bd 60 a4 8c 3d
       0.043509215 0.05018525 -0.033386495 0.068672895
0003a0 13 39 c4 bc 52 ef 7a 3d c1 cc 13 bd 8c 91 c7 bc
       -0.023952996 0.06126339 -0.03608394 -0.024361394
0003b0 2c 76 be bb 7f 1f e2 3c e6 87 fc 3c 43 88 42 3d
       -0.005812427 0.02760291 0.03082652 0.04749323
0003c0 6e 3d 27 3d 43 a5 c7 bc ba c7 c0 bb 53 ad 0b bd
       0.04083007 -0.024370795 -0.0058831843 -0.03410084
0003d0 68 cd 08 3d bf 6b 0d 3c c6 99 28 3c 4a 36 06 bb
       0.033399016 0.008631646 0.010290569 -0.0020479136
0003e0 3d 35 04 3d 66 be 91 bc 63 0a 1f bc c7 1c b9 bb
       0.032277334 -0.017790984 -0.009707066 -0.0056491825
0003f0 21 53 50 3d c3 5d 61 3d 6f 82 07 bd 75 40 b3 bb
       0.050860528 0.05502106 -0.033083376 -0.0054703304

bn2.weight f4 [300]
000000 61 24 b2 3f b5 d7 ab 3f 1e dc 84 3f ff 35 9e 3f
       1.3917352 1.3425204 1.0379674 1.2360228
000010 61 58 8f 3f e0 5b 97 3f 48 15 85 3f 1a fa 89 3f
       1.1198846 1.1824913 1.039712 1.077945
000020 50 5f 88 3f 13 57 96 3f 37 fe 95 3f 7a 4f 8e 3f
       1.0654087 1.1745323 1.1718205 1.1118004
000030 2f dc ab 3f d5 2e 87 3f 41 4d 93 3f bc 25 84 3f
       1.342657 1.0561167 1.1507951 1.0324016
000040 c3 9b a9 3f d9 ae 98 3f b4 b2 8a 3f 49 20 a8 3f
       1.325066 1.1928359 1.0835786 1.3134853
000050 90 bb 95 3f 51 12 85 3f 9d da 83 3f 47 32 a5 3f
       1.1697865 1.0396215 1.030109 1.2905968
000060 58 12 82 3f d1 f8 a6 3f ef 11 ab 3f 86 4b b9 3f
       1.0161848 1.3044683 1.3364848 1.4476173
000070 86 a4 89 3f 99 93 83 3f 4d 30 8d 3f c8 96 94 3f
       1.0753334 1.0279418 1.1030365 1.1608515
000080 4f 20 96 3f 5c e6 93 3f cf 2f 8b 3f d2 a1 85 3f
       1.172861 1.1554675 1.0873965 1.0440009
000090 d7 7a b1 3f bc a8 82 3f 1d b6 92 3f e2 81 8f 3f
       1.3865613 1.0207744 1.1461827 1.1211512
0000a0 21 2e 9d 3f 6e b4 ad 3f 84 32 9d 3f 6f ce 87 3f
       1.2279702 1.3570688 1.2281041 1.0609874
0000b0 3f 7b 9d 3f 98 42 8d 3f 68 22 9b 3f 77 0a b4 3f
       1.2303237 1.1035948 1.2119875 1.4065694
0000c0 6c 69 83 3f f1 f7 87 3f 89 1c 8a 3f ed 83 8e 3f
       1.0266547 1.0622541 1.0789958 1.113401
0000d0 51 b6 8c 3f 66 d2 91 3f 62 a3 96 3f 81 43 9e 3f
       1.0993139 1.1392334 1.176861 1.236435
0000e0 e2 ad 8c 3f 23 ee 98 3f 70 e4 8d 3f c0 41 92 3f
       1.0990565 1.1947674 1.1085339 1.1426315
0000f0 d4 50 96 3f a4 2a 82 3f b2 c3 b5 3f cf 5d 8d 3f
       1.1743417 1.0169263 1.4200346 1.1044253
000100 38 22 90 3f 7a 95 a4 3f 18 76 9d 3f f6 c3 95 3f
       1.1260443 1.2858117 1.2301664 1.1700428
000110 a6 2c 95 3f 17 5f 8b 3f ba 91 82 3f a4 a8 8e 3f
       1.1654251 1.0888394 1.0200722 1.1145215
000120 8b 75 95 3f be 33 a5 3f 81 78 9b 3f 7f 4d 91 3f
       1.1676496 1.2906415 1.214615 1.1351775
000130 40 3f 85 3f 0e a8 8f 3f 16 5c 9a 3f 11 cc 8c 3f
       1.0409927 1.1223161 1.2059352 1.0999776
000140 54 09 b5 3f d0 1f 89 3f f6 2d 90 3f a8 39 a6 3f
       1.4143472 1.0712833 1.1264026 1.2986345
000150 6b ab 97 3f 51 a4 86 3f 29 8f a4 3f 70 e2 85 3f
       1.1849188 1.0518895 1.2856189 1.0459728
000160 43 16 85 3f 00 69 8c 3f 87 92 86 3f dd f4 9f 3f
       1.0397419 1.0969543 1.0513467 1.2496601
000170 e5 25 99 3f 94 e2 92 3f 52 7a 93 3f 90 c7 93 3f
       1.196469 1.1475396 1.1521704 1.1545277
000180 9e 24 ad 3f ec 22 8b 3f 20 59 89 3f 7c cb 99 3f
       1.35268 1.0870032 1.0730324 1.2015224
000190 ca b5 a2 3f e1 f4 86 3f bd 06 8c 3f 72 36 9e 3f
       1.2711728 1.0543481 1.0939556 1.2360365
0001a0 48 b1 99 3f 08 83 88 3f 88 c0 94 3f b3 6c 91 3f
       1.2007227 1.0664988 1.1621256 1.1361297
0001b0 bc f5 98 3f b0 11 af 3f 0a eb a3 3f b0 87 9e 3f
       1.1949992 1.3677273 1.2806103 1.2385159
0001c0 6f e5 90 3f f5 6f 8a 3f b3 cb 8b 3f 86 49 96 3f
       1.1320018 1.0815417 1.0921539 1.1741188
0001d0 4a 23 b1 3f 48 9b 9b 3f a8 38 a6 3f 9c 55 98 3f
       1.3838894 1.2156763 1.298604 1.1901126
0001e0 6a 7e 8b 3f b8 9e 84 3f cc e4 a9 3f c0 69 a9 3f
       1.0897954 1.0360937 1.3272948 1.3235397
0001f0 5b f4 9c 3f ce fd 8a 3f 79 6a 99 3f cc 61 ad 3f
       1.2262071 1.0858705 1.1985618 1.354547
000200 cd 0a 8c 3f 2b ca 8c 3f b3 02 9e 3f da e2 85 3f
       1.0940796 1.0999197 1.2344574 1.0459855
000210 ea fd 8d 3f c7 36 a5 3f 06 74 a8 3f d2 e3 ae 3f
       1.1093113 1.2907342 1.3160408 1.3663275
000220 bd 97 99 3f 46 7b a0 3f 02 6c 99 3f ea 7f 99 3f
       1.1999432 1.253762 1.1986086 1.1992161
000230 e8 8f 8a 3f 34 bf 98 3f 61 61 87 3f 0d 94 b1 3f
       1.0825167 1.193335 1.0576593 1.3873307
000240 ec 1e a1 3f a9 e1 9d 3f a9 21 a8 3f 94 7a a7 3f
       1.2587562 1.2334491 1.3135272 1.3084283
000250 98 b3 86 3f 03 59 8a 3f 49 68 96 3f 3e 5a 93 3f
       1.0523558 1.0808414 1.1750575 1.1511915
000260 4e 83 ba 3f 27 f5 87 3f 65 02 a0 3f 7a 30 a5 3f
       1.4571321 1.062169 1.2500731 1.2905419
000270 97 ba 8a 3f 14 9c a3 3f ae 74 87 3f a4 42 90 3f
       1.0838193 1.2782006 1.0582483 1.1270337
000280 04 48 b8 3f 7e 15 9a 3f f5 a9 a5 3f 58 33 99 3f
       1.4396977 1.2037809 1.2942492 1.1968794
000290 1b 74 b1 3f bd 4f 97 3f 9c e1 ac 3f 5b c4 93 3f
       1.3863558 1.1821209 1.350635 1.1544298
0002a0 6c da 84 3f fe b9 8d 3f 43 87 8e 3f a9 48 b4 3f
       1.0379157 1.1072385 1.1135029 1.4084674
0002b0 85 02 9c 3f 28 7a a1 3f 1e f5 8a 3f ea 6c b1 3f
       1.2188269 1.2615404 1.0856054 1.3861363
0002c0 c1 b2 83 3f 82 d7 97 3f ca 06 bb 3f 4c 46 b3 3f
       1.0288926 1.1862643 1.4611447 1.4005828
0002d0 98 fd a8 3f 91 59 8c 3f 04 21 a4 3f e6 22 8e 3f
       1.3202391 1.0964833 1.2822576 1.11044
0002e0 75 45 8f 3f 54 ac 89 3f fe 5b 94 3f 1c 88 b3 3f
       1.1193072 1.0755715 1.1590574 1.4025912
0002f0 d9 ba 8a 3f e9 6e 89 3f d6 82 8a 3f c4 39 a3 3f
       1.0838271 1.0736972 1.0821178 1.2752004
000300 3f 9e 8a 3f 27 c5 ab 3f f1 d4 8b 3f 6f 36 92 3f
       1.0829543 1.3419541 1.092436 1.1422862
000310 52 e1 89 3f 78 34 87 3f a9 c7 9e 3f 10 2d 9e 3f
       1.0771887 1.0562887 1.2404681 1.2357502
000320 80 ac 8d 3f e6 46 a7 3f 20 92 b1 3f be c3 8e 3f
       1.1068268 1.3068511 1.3872719 1.1153486
000330 59 70 a9 3f 65 22 9f 3f e6 59 86 3f 68 f3 9d 3f
       1.3237411 1.2432371 1.0496185 1.2339907
000340 15 2a 90 3f fa 74 a5 3f 88 62 99 3f 10 4e 94 3f
       1.1262842 1.2926323 1.1983194 1.1586323
000350 47 bc 9e 3f f4 1c 96 3f 18 b1 91 3f aa bb 90 3f
       1.2401208 1.1727586 1.138217 1.130727
000360 36 9d ab 3f dc a5 8f 3f bd 96 88 3f 0b d2 95 3f
       1.3407352 1.1222491 1.0671002 1.1704725
000370 e2 f1 84 3f ae 2c a3 3f 7f d1 90 3f 87 d0 83 3f
       1.0386317 1.274801 1.1313933 1.0298012
000380 f1 ab 93 3f 04 b8 82 3f 4d 4a 8b 3f 16 3c 94 3f
       1.1536847 1.0212407 1.088205 1.1580837
000390 04 fd 81 3f ae cf bc 3f 52 af 91 3f d0 35 8b 3f
       1.0155339 1.4750879 1.1381629 1.0875797
0003a0 1f 4b 93 3f 61 21 a0 3f 56 3d 87 3f 99 cd 89 3f
       1.15073 1.2510186 1.0565593 1.0765868
0003b0 e3 a4 8f 3f 08 f3 99 3f 6a 16 85 3f 4e 1d a7 3f
       1.1222194 1.2027292 1.0397465 1.3055818
0003c0 4b 00 ab 3f 24 be 8a 3f 1d 1a b1 3f d6 dc 9b 3f
       1.3359464 1.0839276 1.3836094 1.2176769
0003d0 12 a7 a3 3f d0 d2 a8 3f 0b 8d 8c 3f f9 32 90 3f
       1.2785361 1.3189335 1.0980543 1.1265556
0003e0 5c 99 91 3f 08 08 90 3f 6c 4e 8f 3f 62 31 a7 3f
       1.1374927 1.1252451 1.1195807 1.3061945
0003f0 e6 30 8a 3f 7f 24 88 3f 71 f7 ae 3f e7 cc 94 3f
       1.0796173 1.0636138 1.3669263 1.1625031
