models/ddpg_ant_100.pt (torch, 669566 bytes, 10 tensors)

fc1.weight f4 [400, 105]
0.106937945 0.107515946 -0.00248695 -0.04593067 -0.055851188 -0.0047901324 0.06729246 -0.038831465
0.012124972 -0.027569333 -0.115577646 0.0947463 0.079504296 0.023409674 0.008752941 0.008759215
0.019145876 -0.05072437 0.025209498 0.019222751 0.0044848323 -0.0029100433 0.008645626 -0.00067603023
-0.0040803677 0.0065941024 0.016927764 0.021966781 -0.005833154 -0.026786048 0.028931154 0.035332866
0.004641918 -0.014535429 0.042177837 0.04607579 0.026464634 -0.006760419 0.005029014 0.058770873
0.01489929 0.0004249529 0.04864804 0.050005913 -0.002895109 0.01907326 -0.030808099 -0.03571305
0.04617171 0.04663063 -0.019656459 0.022508996 -0.039256036 0.028505769 -0.019513778 0.03094212
0.0038711613 -0.03224244 0.00073596655 -0.07037573 0.0291245 0.07111959 0.009883766 0.027102124
-0.025830477 -0.025800405 0.012490693 0.12197207 -0.05987192 0.0037805934 0.035648663 -0.035398357
-0.039208353 0.031431414 0.024500242 0.0065460023 0.0043407236 -0.08995233 -0.08302136 -0.023970205
-0.0043506017 0.041443244 0.07272691 -0.059025336 0.016045706 0.046161905 0.009636189 0.024884216
-0.04285135 0.034299877 -0.010687638 -0.04378538 0.028267963 0.019710883 0.02477779 0.017961727
0.03825852 -0.0030360352 -0.040195342 -0.07605981 0.0372609 -0.030253747 0.04879459 -0.10835609
-0.020652553 0.120905206 -0.022524182 0.2664548 0.14852081 -0.046185423 -0.05296033 -0.0203019
0.030836605 -0.015015406 0.02706097 0.010147735 0.08712162 -0.036771327 -0.008663268 -0.02416261
0.07432738 0.04534127 -0.026389383 0.031749535 -0.008451953 -0.03632057 0.021732535 -0.005311769
-0.02040335 -0.004150143 0.015953038 -0.0013525804 0.038143974 -0.016361391 0.00024152102 -0.003715658
0.12590136 0.053884495 0.040008925 -0.03561812 -0.022162078 -0.014408931 0.030874271 0.024344467
-0.024373554 -0.08207445 -0.009546184 -0.009876784 0.014559579 0.013851057 -0.045834146 0.036306784
-0.025402173 0.03995282 -0.03999515 -0.04806091 -0.0074361274 0.025779719 -0.031449635 -0.033980064
-0.02941222 0.011827628 -0.16189244 0.00019298446 0.059482817 0.018400965 0.015609144 0.00988331
0.011673805 0.037242774 -0.019827962 0.03709046 0.030406635 -0.012155782 -0.040861282 0.020777596
-0.003058275 -0.0051059807 -0.011147751 -0.021076938 -0.04500634 -0.05938212 0.004087363 -0.09934557
0.06877947 -0.027329838 -0.05437267 0.055588726 0.027551165 0.0058459113 0.047960095 0.014067956
-0.019936427 -0.023255397 0.008431635 0.047614157 -0.026087198 0.0033133125 -0.0643512 0.054452617
-0.015772317 -0.036207467 -0.020789947 -0.003719413 -0.032160837 -0.07562995 -0.038025144 -0.07938163
0.016316444 0.050018165 -0.025452163 0.009184321 -0.116828285 -0.008541504 -0.05691545 0.031829044
0.009743136 -0.07407968 -0.013709609 -0.053246766 -0.031645227 -0.1009367 0.015325283 -0.034668304
0.089742765 0.009994891 -0.04475211 0.036095757 0.0027235702 -0.0046676984 -0.021880941 0.01993236
-0.004959002 -0.0039534806 -0.013161678 -0.017885895 0.008281131 -0.110479444 -0.0796638 -0.017510409
0.057468496 -0.03984509 -0.024743306 0.03461131 -0.03080251 0.043828357 -0.019221935 -0.042206593
-0.037351463 0.05007966 0.119652174 0.03239556 0.08904849 0.04113885 -0.019983495 -0.017854104
00000000: 4802 db3d 5231 dc3d 19fc 22bb cc21 3cbd
00000010: 37c4 64bd 8bf6 9cbb a1d0 893d be0d 1fbd
00000020: d2a7 463c 15d9 e1bc f9b3 ecbd 590a c23d
00000030: 26d3 a23d a5c5 bf3c 7f68 0f3c cf82 0f3c
00000040: d0d7 9c3c 5bc4 4fbd 2684 ce3c 0879 9d3c
00000050: 80f5 923b 6db6 3ebb 62a6 0d3c 9f37 31ba
00000060: 9bb4 85bb 5713 d83b 18ac 8a3c aef3 b33c
00000070: 0b24 bfbb 6a6e dbbc 0701 ed3c 32b9 103d
00000080: 3b1b 983b 0226 6ebc abc2 2c3d f8b9 3c3d
00000090: 5ccc d83c 8186 ddbb 6dca a43b bab9 703d
000000a0: 271c 743c 36cc de39 2b43 473d 00d3 4c3d
000000b0: debb 3dbb 863f 9c3c 4461 fcbc d947 12bd
000000c0: 8c1e 3d3d c2ff 3e3d 9506 a1bc c964 b83c
000000d0: f0ca 20bd ee84 e93c 5cdb 9fbc 547a fd3c
000000e0: 4fb3 7d3b a610 04bd e1ed 403a 2721 90bd
000000f0: 8196 ee3c 26a7 913d 85ef 213c 4605 de3c
00000100: 709a d3bc 5f5b d3bc c3a5 4c3c 7ecc f93d
00000110: 423c 75bd d5c3 773b 5504 123d defd 10bd
00000120: f098 20bd 3abe 003d bbb4 c83c d97f d63b
00000130: a13c 8e3b ed38 b8bd 1a07 aabd 2a5d c4bc
00000140: 7e8f 8ebb 64c0 293d d9f1 943d 8dc4 71bd
00000150: 4972 833c 4414 3d3d 1be1 1d3c fcd9 cb3c
00000160: e684 2fbd 077e 0c3d 341b 2fbc 4c58 33bd
00000170: 3792 e73c b878 a13c cbfa ca3c 7924 933c
00000180: f7b4 1c3d 38f8 46bb dfa3 24bd 3fc5 9bbd
00000190: e39e 183d b5d6 f7bc d6dc 473d cce9 ddbd
000001a0: 8b2f a9bc 269d f73d a284 b8bc c36c 883e
000001b0: d715 183e ed2c 3dbd eeec 58bd 2c50 a6bc
000001c0: 0c9d fc3c 2d03 76bc f8ae dd3c af42 263c
000001d0: d26c b23d 889d 16bd 61f0 0dbc aaf0 c5bc
000001e0: f438 983d c4b7 393d 8c2e d8bc cd0b 023d
000001f0: 0f7a 0abc e1c4 14bd 6e08 b23c 590e aebb
00000200: ed24 a7bc ecfd 87bb f2af 823c 1149 b1ba
00000210: db3c 1c3d 5308 86bc ce40 7d39 6682 73bb
00000220: 49ec 003e fdb5 5c3d 66e0 233d 4ee4 11bd
00000230: 3f8d b5bc 7013 6cbc 0aec fc3c 0c6e c73c
00000240: 0cab c7bc a616 a8bd 9967 1cbc 3cd2 21bc
00000250: 4d8b 6e3c 8bef 623c 96bc 3bbd 6cb6 143d
00000260: 3818 d0bc 91a5 233d f4d1 23bd 84db 44bd
00000270: c2aa f3bb fd2f d33c 55d1 00bd ae2e 0bbd
00000280: e5f1 f0bc abc8 413c 22c7 25be df5b 4a39
00000290: 41a4 733d 9fbd 963c 7fbd 7f3c 9bed 213c
000002a0: 7d43 3f3c e18b 183d 406e a2bc 2bec 173d
000002b0: 5617 f93c 0c29 47bc 295e 27bd c735 aa3c
000002c0: 576d 48bb 1250 a7bb 0ea5 36bc 8ba9 acbc
000002d0: 9158 38bd aa3a 73bd 49ef 853b b175 cbbd
000002e0: 40dc 8c3d d3e2 dfbc e0b5 5ebd 01b1 633d
000002f0: fbb2 e13c 0f8f bf3b ce71 443d 497d 663c
00000300: b851 a3bc 1a82 bebc d724 0a3c 1007 433d
00000310: d2b4 d5bc 2924 593b 90ca 83bd b509 5f3d
00000320: f234 81bc 484e 14bd ae4f aabc 65c1 73bb
00000330: 15bb 03bd e0e3 9abd 41c0 1bbd d692 a2bd
00000340: 10aa 853c d9df 4c3d 0e81 d0bc d679 163c
00000350: ab43 efbd aaf1 0bbc 2d20 69bd 2c5f 023d
00000360: ada1 1f3c 16b7 97bd 459e 60bc 4819 5abd
00000370: 6d9e 01bd e7b7 cebd e516 7b3c 5a00 0ebd
00000380: 0ecb b73d 9cc1 233c fd4d 37bd 25d9 133d
00000390: ed7d 323b 7ef3 98bb a93f b3bc 3049 a33c
000003a0: 207f a2bb 338c 81bb 14a4 57bc 7185 92bc
000003b0: 95ad 073c 0c43 e2bd c626 a3bd fd71 8fbc
000003c0: 1664 6b3d 9b34 23bd 79b2 cabc 97c4 0d3d
000003d0: 8c55 fcbc 5d85 333d 5277 9dbc d2e0 2cbd
000003e0: d9fd 18bd 5420 4d3d 330c f53d 35b1 043d
000003f0: 0e5f b63d 3681 283d 6db4 a3bc c542 92bc

fc1.bias f4 [400]
0.030771967 0.016151605 0.01420498 0.019913875 0.06411551 0.011410754 0.054457482 0.0039301957
-0.010585936 0.004225401 -0.015059282 -0.009110615 -0.025184507 -0.03257357 0.069524735 -0.012367796
-0.0148406355 0.010975151 -0.049452435 -0.047140513 0.02457471 -0.026484087 -0.018249018 0.017312603
-0.016854232 -0.0077759917 -0.024456043 0.063355 -0.01760354 0.044827 -0.007340194 0.062167883
-0.030151263 -0.025352683 -0.039733328 -0.005344633 -0.05058695 -0.020192638 0.011143571 -0.03042783
0.016050138 0.057680055 0.036121994 0.048101217 0.05653714 0.032587416 0.025145276 0.013952027
0.002753197 0.047574718 0.041489292 0.07368058 0.017583216 -0.010644674 -0.05002397 0.046756014
0.019855121 0.017919734 0.039417293 0.01897139 -0.016074734 0.083788626 0.005700715 0.025933156
-0.028020373 0.04035439 0.041893348 0.035105348 0.040610727 -0.04118394 0.0673687 0.07028108
0.024259906 0.026369955 0.035496414 0.0009883001 0.03614335 0.04196225 0.013304463 0.03288575
0.021711709 -0.027353365 -0.045509692 0.001331981 0.047047805 0.0036381579 0.008018256 -0.018073574
-0.006461928 -0.031108798 0.06541632 0.027870586 0.0013631564 0.041449744 0.030241687 0.019757753
-0.03869962 0.050345715 -0.035018213 0.0955774 0.00080387073 0.06972661 0.020444717 -0.0067959563
0.005337753 -0.0008427312 -0.00065578497 0.007994788 -0.06514631 -0.039644483 0.03243828 -0.0041508605
-0.0001660141 0.051012207 -0.015493563 0.041771322 0.034000084 0.068270154 -0.0015046636 -0.06844602
-0.03300275 0.055898767 0.023851084 -0.011326562 0.0012296137 0.09138368 0.021166155 0.060250103
0.024853533 0.042788707 0.0067451308 -0.0005973321 0.04798162 0.014059525 -0.0074174525 0.028126448
0.053153012 -0.023560409 0.075633734 0.027240526 0.046632625 0.028872767 -0.03148806 -0.042263925
0.066573836 0.06440582 0.018737625 0.0711643 0.036402076 -0.0036581599 -0.09305932 0.0068143746
0.033260483 -0.02140932 0.038406573 -0.037723072 0.047010664 -0.03132855 0.024743764 0.05327266
0.018138628 -0.0013211989 0.013530376 -0.040222783 0.028080823 -0.0385466 -0.033448808 0.058691014
-0.025857318 -0.013919948 -0.01790031 0.004286988 0.06369183 -0.02709133 0.007066255 0.060732488
0.03992574 0.057489514 0.07891987 0.05600242 -0.047180526 -0.007312717 0.0070268423 -0.03552288
-0.04342104 0.0647299 0.02964159 -0.0038054902 -0.0016885836 -0.007683947 -0.021158583 -0.0193578
-0.0064873365 0.042199723 -0.014080383 0.07711225 -0.020148164 0.0296229 -0.037585218 0.0529755
-0.019219805 0.0038475485 -0.048889868 0.0087810345 -0.0029293138 0.028190827 0.0061327126 -0.032212507
-0.07386844 0.048039902 0.015391407 0.060057342 0.064971805 -0.0068578604 0.018274043 0.016422767
0.061246485 -0.003680801 -0.002258613 0.010104086 -0.04199527 -0.06753331 -0.0058191433 0.04375768
0.026021844 0.009151283 0.04458365 0.0059684943 0.0016435189 -0.03398189 0.05312094 0.03345741
0.023331426 -0.026609834 -0.042825636 -0.046080396 0.02868171 -0.027194895 -0.041032553 -0.012768523
-0.031306 0.0026945095 0.08364601 0.06302563 0.05780343 -0.01934618 -0.0314285 0.026810793
0.043696564 0.058842175 -0.031300936 0.0576474 -0.013421821 0.04457894 -0.0023654683 0.0005142377
00000000: 7e15 fc3c 5f50 843c 01bc 683c 6c22 a33c
00000010: fe4e 833d 2cf4 3a3c cf0e 5f3d dfc8 803b
00000020: a270 2dbc 3c75 8a3b 35bb 76bc b044 15bc
00000030: bd4f cebc dd6b 05bd fc62 8e3d 4ca2 4abc
00000040: 2326 73bc 1fd1 333c a38e 4abd 6916 41bd
00000050: e750 c93c 28f5 d8bc f77e 95bc 29d3 8d3c
00000060: e311 8abc bfcd febb 0a58 c8bc 44c0 813d
00000070: 4d35 90bc 849c 373d 0386 f0bb c0a3 7e3d
00000080: c8ff f6bc 6eb0 cfbc 6abf 22bd 0822 afbb
00000090: 4334 4fbd 086b a5bc 8693 363c c943 f9bc
000000a0: 947b 833c ec41 6c3d a8f4 133d c805 453d
000000b0: 7d93 673d 627a 053d 77fd cd3c 0b97 643c
000000c0: fb6e 343b b5dd 423d adf0 293d d8e5 963d
000000d0: ad0a 903c 0067 2ebc efe5 4cbd 3c83 3f3d
000000e0: 35a7 a23c 68cc 923c 0774 213d e369 9b3c
000000f0: 29af 83bc 5f99 ab3d 10cd ba3b c571 d43c
00000100: fb8a e5bc a54a 253d 5c98 2b3d a0ca 0f3d
00000110: 6f57 263d 7eb0 28bd 9af8 893d 87ef 8f3d
00000120: b6bc c63c ce05 d83c b064 113d d989 813a
00000130: 0d0b 143d 9ce0 2b3d f6fa 593c 35b3 063d
00000140: c1dc b13c 2a14 e0bc 5f68 3abd de95 ae3a
00000150: 33b5 403d 296e 6e3b 015f 033c 080f 94bc
00000160: 95be d3bb e1d7 febc fef8 853d db50 e43c
00000170: f0ab b23a 35c7 293d 6abd f73c 03db a13c
00000180: 7e83 1ebd 4f37 4e3d 426f 0fbd 15be c33d
00000190: daba 523a d3cc 8e3d ae7b a73c 9db0 debb
000001a0: 51e8 ae3b bcea 5cba fce8 2bba 92fc 023c
000001b0: 6e6b 85bd 4162 22bd 00de 043d f103 88bb
000001c0: 1214 2eb9 2df2 503d b7d8 7dbc 6818 2b3d
000001d0: ac43 0b3d 39d1 8b3d 2238 c5ba 6d2d 8cbd
000001e0: e42d 07bd 1bf6 643d 5963 c33c 0b93 39bc
000001f0: fd2a a13a 5e27 bb3d a564 ad3c d0c8 763d
00000200: a399 cb3c 3643 2f3d 4206 dd3b 4796 1cba
00000210: 6088 443d ec59 663c 1a0e f3bb 7069 e63c
00000220: f9b6 593d c201 c1bc dce5 9a3d 8627 df3c
00000230: da01 3f3d 9586 ec3c a0f9 00bd f01c 2dbd
00000240: dd57 883d 33e7 833d a67f 993c 97be 913d
00000250: 581a 153d bdbd 6fbb e295 bebd 1e4b df3b
00000260: 253c 083d 9962 afbc 3650 1d3d 8283 1abd
00000270: 418e 403d 5e52 00bd 6fb3 ca3c 6f34 5a3d
00000280: 7697 943c 142c adba 83ae 5d3c a5c0 24bd
00000290: c109 e63c 0ae3 1dbd 9e01 09bd fd65 703d
000002a0: bad2 d3bc 7e10 64bc aca3 92bc dd79 8c3b
000002b0: dd70 823d a3ee ddbc 0b8c e73b a1c2 783d
000002c0: 2c89 233d 207a 6b3d bea0 a13d cb62 653d
000002d0: 5e40 41bd 849f efbb 6d41 e63b 7080 11bd
000002e0: 43da 31bd 1c91 843d ebd2 f23c 8865 79bb
000002f0: 7753 ddba 9fc9 fbbb c454 adbc 4094 9ebc
00000300: b993 d4bb 9ed9 2c3d 68b1 66bc 07ed 9d3d
00000310: c30d a5bc b9ab f23c f5f2 19bd d6fc 583d
00000320: da72 9dbc 2727 7c3b be40 48bd 54de 0f3c
00000330: bbf9 3fbb 73f0 e63c ecf4 c83b 43f1 03bd
00000340: 5648 97bd 7dc5 443d 3d2c 7c3c b0fe 753d
00000350: f00f 853d e7b7 e0bb 72b3 953c 0a89 863c
00000360: 98dd 7a3d 9839 71bb 3d05 14bb 9c8b 253c
00000370: 3b03 2cbd e74e 8abd 83ae bebb 413b 333d
00000380: c32b d53c 43ef 153c 589d 363d 5c93 c33b
00000390: 586b d73a 9830 0bbd 5895 593d a30a 093d
000003a0: 8c21 bf3c defc d9bc ef69 2fbd ccbe 3cbd
000003b0: e8f5 ea3c d4c7 debc c011 28bd 1133 51bc
000003c0: b83a 00bd 5e96 303b 994e ab3d 9513 813d
000003d0: 4ac3 6c3d e17b 9ebc 2cbb 00bd 4fa2 db3c
000003e0: 2bfb 323d 7e04 713d 6935 00bd ae1f 6c3d
000003f0: 33e7 5bbc 6898 363d f905 1bbb e8cd 063a

bn1.weight f4 [400]
0.93204904 0.9749734 0.93619525 1.0211977 0.9497385 1.0163116 1.045849 0.92734164
0.9687506 0.9129836 0.9643809 0.99944884 1.0434211 0.9688774 0.9982253 0.98065615
0.9958997 0.96393675 0.9440811 1.0298932 0.95566285 1.0187671 0.96795505 1.0521635
0.986799 0.96335775 0.97716844 1.0492617 0.9814959 0.96078664 1.2158538 1.0041335
0.9764291 0.9933723 0.98468345 0.9500136 1.0629647 0.9175771 0.97497153 0.9704119
1.0000466 1.0274143 0.94468695 1.0253122 0.97273487 1.2506019 0.9465556 0.9097459
0.924141 0.956838 1.0127745 0.994353 1.06506 0.9304892 0.95291257 0.9091433
0.9265314 1.002191 0.97211224 1.002311 0.9981447 1.0078328 0.9609696 0.9449791
0.9152625 0.93343997 0.92721677 0.9608264 0.99773455 1.1581937 1.0989093 0.946748
0.96300834 0.94268787 0.9248486 0.94686186 0.95920813 0.9418798 0.92559606 1.0830765
1.0276959 1.0775821 0.9571932 0.8989622 0.94293344 0.94950897 0.9397798 0.9658097
0.92966807 0.9397661 0.94328165 0.9824515 0.9393167 0.9461868 1.0176435 0.9234205
0.99270487 1.0060622 0.9534322 0.9532737 0.98256737 0.94291145 0.95885223 1.003841
0.9260387 0.9284699 0.9573001 1.1284273 0.96923274 0.94569856 1.0077115 0.93724096
0.94326776 0.9832709 0.98087126 0.89066815 0.9626693 0.97740567 0.99197716 0.9558804
0.955323 0.9545553 0.9462841 0.95565814 0.9196255 0.9326431 0.98226845 1.0262758
0.95983243 0.96244186 0.97710013 0.9587546 0.96358865 0.9422724 0.9409692 0.9413542
0.93704367 0.97993726 0.98678106 0.9464663 0.9453607 0.9402658 0.9426118 0.95721394
0.9524099 0.9265864 1.0361804 0.93103755 0.93560606 0.9363052 1.4295974 0.93711
0.9639307 0.9804222 0.95969486 0.9257029 0.93458784 0.9488437 0.927138 0.97066593
0.91972286 0.96084 0.9134015 0.92026883 0.92792755 0.9691471 1.0279515 0.9346269
0.9801472 0.9984863 0.9596514 0.9455847 1.0526302 0.9527062 0.90025866 0.93528116
0.96578157 0.9827261 0.92955065 0.93329173 1.1876725 0.96220577 0.91683525 0.9140747
1.0882393 0.9707741 0.9219545 0.9574363 0.9539345 0.9862789 1.0401185 0.9301733
0.9359149 0.93795073 0.9400415 0.939639 0.9913144 0.93775845 1.012205 0.9499314
0.9412043 0.93468875 0.99850804 0.92582643 0.979675 0.9298485 0.9947692 0.9851364
1.0915797 0.93723315 0.993933 1.156546 0.9160485 0.9730655 0.9631517 0.97558993
0.94707614 0.9815166 0.9807226 1.0010549 0.98915595 0.9802001 0.9789088 1.0327541
0.97980994 0.9445025 0.9513077 0.93595994 0.9464092 0.9625621 0.9971061 0.9328711
0.9677705 0.97081655 0.9665193 1.0275594 0.9607361 0.95400006 0.97273546 0.9476699
0.97155 0.96980315 0.96902835 0.94121045 0.97980934 0.96886134 0.9168202 0.9736088
0.95532703 0.91466945 0.9377029 0.93397814 0.9435957 0.9500205 0.9599298 0.9541638
00000000: c49a 6e3f db97 793f 7eaa 6f3f 9bb6 823f
00000010: 1022 733f 8016 823f 61de 853f 4366 6d3f
00000020: 0a00 783f 4bb9 693f abe1 763f e1db 7f3f
00000030: d38e 853f 5908 783f b18b 7f3f 480c 7b3f
00000040: 48f3 7e3f 8fc4 763f 4daf 713f 8ad3 833f
00000050: 52a6 743f f666 823f e7cb 773f 4bad 863f
00000060: dc9e 7c3f 9d9e 763f b627 7a3f 354e 863f
00000070: 5143 7b3f 1df6 753f 19a1 9b3f 7287 803f
00000080: 42f7 793f a64d 7e3f 3714 7c3f 1734 733f
00000090: 3a0f 883f 55e6 6a3f bc97 793f ea6c 783f
000000a0: 8701 803f 5082 833f 01d7 713f 6e3d 833f
000000b0: 2705 793f b913 a03f 7851 723f 1be5 683f
000000c0: 8194 6c3f 56f3 743f 98a2 813f eb8d 7e3f
000000d0: e353 883f 8a34 6e3f 14f2 733f 9ebd 683f
000000e0: 2931 6d3f cb47 803f 59dc 783f ba4b 803f
000000f0: 6986 7f3f aa00 813f 1b02 763f 26ea 713f
00000100: a54e 6a3f ecf5 6e3f 145e 6d3f b8f8 753f
00000110: 886b 7f3f b13f 943f 0fa9 8c3f 145e 723f
00000120: b787 763f fe53 713f e1c2 6c3f 8a65 723f
00000130: aa8e 753f 091f 713f ddf3 6c3f 40a2 8a3f
00000140: 8a8b 833f 36ee 893f 9d0a 753f 6322 663f
00000150: 1664 713f 0513 733f 6995 703f 4e3f 773f
00000160: bafe 6d3f 8394 703f e87a 713f f181 7b3f
00000170: 0f77 703f 4c39 723f 2442 823f 4965 6c3f
00000180: e821 7e3f a5c6 803f 2214 743f bf09 743f
00000190: 8989 7b3f a562 713f 5777 753f dd7d 803f
000001a0: df10 6d3f 34b0 6d3f 9f11 753f 4e70 903f
000001b0: a31f 783f 4d19 723f b1fc 803f 06ef 6f3f
000001c0: ff79 713f a4b7 7b3f 611a 7b3f d402 643f
000001d0: 7f71 763f 4237 7a3f 37f2 7d3f 94b4 743f
000001e0: 0c90 743f bc5d 743f ad3f 723f 03a6 743f
000001f0: 946c 6b3f b3c1 6e3f f275 7b3f 015d 833f
00000200: 94b7 753f 9762 763f 3c23 7a3f f170 753f
00000210: bfad 763f c438 713f 5ce3 703f 97fc 703f
00000220: 18e2 6f3f 2bdd 7a3f af9d 7c3f 9e4b 723f
00000230: 2903 723f 42b5 703f 024f 713f f90b 753f
00000240: 23d1 733f c434 6d3f 8fa1 843f 7a58 6e3f
00000250: e183 6f3f b3b1 6f3f 0cfd b63f 71e6 6f3f
00000260: 2ac4 763f f3fc 7a3f 90ae 753f defa 6c3f
00000270: 2641 6f3f 6ce7 723f ea58 6d3f 907d 783f
00000280: f572 6b3f 9cf9 753f aed4 693f bd96 6b3f
00000290: a98c 6d3f 061a 783f ea93 833f b543 6f3f
000002a0: edea 7a3f cc9c 7f3f b7ab 753f d711 723f
000002b0: 96bc 863f 8ee4 733f 5a77 663f 966e 6f3f
000002c0: 763d 773f f093 7b3f 08f7 6d3f 35ec 6e3f
000002d0: a705 983f 1e53 763f b7b5 6a3f cd00 6a3f
000002e0: 6d4b 8b3f a784 783f 3605 6c3f 8c1a 753f
000002f0: 0d35 743f c67c 7c3f 9a22 853f d61f 6e3f
00000300: 1e98 6f3f 8a1d 703f 8fa6 703f 2e8c 703f
00000310: c8c6 7d3f f010 703f ef8f 813f b42e 733f
00000320: c4f2 703f c347 6f3f 399e 7f3f f602 6d3f
00000330: fbcb 7a3f 8d0a 6e3f 32a9 7e3f e631 7c3f
00000340: e2b8 8b3f 83ee 6f3f 6572 7e3f b309 943f
00000350: 2882 6a3f d21a 793f 1c91 763f 43c0 793f
00000360: 9573 723f ac44 7b3f a310 7b3f 9122 803f
00000370: 5339 7d3f 65ee 7a3f c499 7a3f 4931 843f
00000380: d3d4 7a3f eaca 713f e788 733f 129b 6f3f
00000390: e047 723f 786a 763f 5842 7f3f a4d0 6e3f
000003a0: cfbf 773f 6f87 783f cf6d 773f 1187 833f
000003b0: cdf2 753f 5939 743f 3105 793f 7f9a 723f
000003c0: 80b7 783f 0545 783f 3e12 783f 2bf3 703f
000003d0: c9d4 7a3f 4c07 783f bbb4 6a3f 6d3e 793f
000003e0: 5090 743f c727 6a3f 4c0d 703f 3119 6f3f
000003f0: 7d8f 713f 8b34 733f f6bd 753f 1444 743f

bn1.bias f4 [400]
-0.073903814 -0.047258466 -0.08161728 -0.088940345 -0.025023546 -0.028869446 -0.07616746 -0.10352631
-0.05886965 -0.06724794 -0.12013678 -0.08341923 -0.07712823 -0.06759812 -0.033907145 -0.03803129
-0.061536197 -0.07010184 -0.106789686 -0.042438015 -0.017234711 -0.04872173 -0.04388934 -0.05911478
-0.024362672 -0.09171222 -0.064585164 -0.037281983 -0.086238 -0.099606 0.01819215 -0.05888872
-0.09540089 -0.10142213 -0.055118818 -0.0754276 -0.054820072 -0.08384885 -0.066544615 -0.09349739
-0.044626296 -0.0343485 -0.047761705 0.020071346 -0.061326228 -0.027478287 -0.061404064 -0.103230946
-0.062268026 -0.07747409 -0.047643814 -0.061532374 -0.0077882884 -0.035686266 -0.10356625 -0.09506712
-0.0748723 -0.045007233 -0.07266314 -0.06435843 -0.07525044 -0.028883832 -0.098126404 -0.083978824
-0.04485779 -0.07290357 -0.0901184 -0.07691542 -0.048840266 -0.021365637 -0.058176253 -0.07756816
-0.061499212 -0.05685409 -0.08269517 -0.057511665 -0.073106594 -0.08583577 -0.041931644 -0.017654868
-0.029261613 -0.05414037 -0.033411797 -0.08080138 -0.06652581 -0.026039219 -0.06865675 -0.07780814
-0.055615768 -0.08357366 -0.082621634 -0.052016277 -0.06624472 -0.06470844 -0.03654623 -0.054448478
-0.037565224 -0.058665305 -0.07773492 -0.053770196 -0.068544984 -0.058328707 -0.061637267 -0.07778788
-0.073979326 -0.07647477 -0.054905333 -0.037902612 -0.07786472 -0.075560525 -0.06705914 -0.0077241245
-0.06541925 -0.091444835 -0.07053074 -0.08241003 -0.042312056 -0.07706436 -0.057121597 -0.10053447
-0.08564795 -0.059404448 -0.05054465 -0.065347575 -0.08130214 -0.05415028 -0.038116585 0.0016073786
-0.056780137 -0.06635528 -0.047276996 -0.057983786 -0.044089105 -0.09321593 -0.09261345 -0.070787445
-0.07871137 -0.047427904 -0.08050617 -0.05583706 -0.077703215 -0.051299207 -0.07053613 -0.045866113
-0.039158836 -0.073220074 -0.051177897 -0.08617825 -0.061489675 -0.05982288 0.008707209 -0.07030029
-0.02945922 -0.06750239 -0.084780455 -0.09037494 -0.0752594 -0.06840322 -0.029995503 -0.01858775
-0.06865 -0.060138896 -0.03781857 -0.11530931 -0.06301493 -0.0668334 -0.08397084 -0.10343366
-0.055286232 -0.07926899 -0.04002938 -0.11130051 -0.033219855 -0.06243917 -0.09993742 -0.0753872
-0.043935955 -0.06316023 -0.03617405 -0.05224102 -0.033797823 -0.045583766 -0.05907674 -0.092189
-0.058122862 -0.07243284 -0.03692574 -0.07307866 -0.05102551 -0.030569952 -0.025049297 -0.04092782
-0.045480058 -0.109227456 -0.068300314 -0.09788105 -0.03558644 -0.109503314 -0.066620685 -0.10299071
-0.10305082 -0.055906523 -0.024122218 -0.09062047 -0.07248512 -0.08217417 -0.03794394 -0.040081274
-0.071914606 -0.083359465 -0.06564307 0.0069968863 -0.10076941 -0.037621815 -0.06404668 -0.071373
-0.08189955 -0.067906514 -0.062082704 -0.0018064504 -0.043313544 -0.08231912 -0.09397103 -0.05545214
-0.09037828 -0.045832157 -0.077283114 -0.08856857 -0.06827206 -0.07122999 -0.022636723 -0.040118147
-0.037559558 -0.083149225 -0.0686635 -0.051263593 -0.055458184 -0.06749763 -0.0906826 -0.07255144
-0.084580034 -0.063895285 -0.06459206 -0.05522819 -0.053531352 -0.0745455 -0.08841043 -0.06720262
-0.059290707 -0.067875296 -0.07352912 -0.08943481 -0.095325634 -0.07284455 -0.07468794 -0.066694304
00000000: e25a 97bd 1892 41bd f626 a7bd 5b26 b6bd
00000010: 2efe ccbc 9e7f ecbc affd 9bbd 9a05 d4bd
00000020: 4d21 71bd 4ab9 89bd 460a f6bd b4d7 aabd
00000030: 68f5 9dbd e270 8abd 38e2 0abd b3c6 1bbd
00000040: 610d 7cbd 8e91 8fbd 8db4 dabd 7cd3 2dbd
00000050: cf2f 8dbc 7090 47bd 4fc5 33bd 5722 72bd
00000060: 3a94 c7bc 9ed3 bbbd 3a45 84bd feb4 18bd
00000070: 8c9d b0bd 3bfe cbbd b407 953c 4c35 71bd
00000080: 8b61 c3bd 68b6 cfbd 45c4 61bd c979 9abd
00000090: 038b 60bd f2b8 abbd 8b48 88bd 8f7b bfbd
000000a0: 10ca 36bd 03b1 0cbd c7a1 43bd aa6c a43c
000000b0: 3631 7bbd 251a e1bc d482 7bbd bf6a d3bd
000000c0: c20c 7fbd bcaa 9ebd 2926 43bd 5f09 7cbd
000000d0: e634 ffbb c32b 12bd 8b1a d4bd 8db2 c2bd
000000e0: a656 99bd 8159 38bd 6ad0 94bd 5ace 83bd
000000f0: e71c 9abd c99d ecbc 7ff6 c8bd 17fd abbd
00000100: cdbc 37bd 784e 95bd ff8f b8bd d585 9dbd
00000110: bb0c 48bd fd06 afbc 394a 6ebd 0edc 9ebd
00000120: 99e6 7bbd d6df 68bd 165c a9bd 5a91 6bbd
00000130: e9b8 95bd aaca afbd 84c0 2bbd f1a0 90bc
00000140: 0db6 efbc 4bc2 5dbd cfda 08bd 327b a5bd
00000150: af3e 88bd 3350 d5bc e99b 8cbd e059 9fbd
00000160: 5ccd 63bd ab28 abbd 8835 a9bd 050f 55bd
00000170: 50ab 87bd dc85 84bd 80b1 15bd 5e05 5fbd
00000180: fedd 19bd 084b 70bd 7c33 9fbd 233e 5cbd
00000190: 5061 8cbd 15ea 6ebd 5c77 7cbd 414f 9fbd
000001a0: 7982 97bd ce9e 9cbd 6ae4 60bd c53f 1bbd
000001b0: 8a77 9fbd 7abf 9abd 4d56 89bd a71a fdbb
000001c0: 87fa 85bd 6e47 bbbd 6c72 90bd 97c6 a8bd
000001d0: 684f 2dbd ebd3 9dbd 56f8 69bd 04e5 cdbd
000001e0: 3168 afbd 1452 73bd e807 4fbd f3d4 85bd
000001f0: bd81 a6bd afcc 5dbd 2320 1cbd adae d23a
00000200: 4a92 68bd 47e5 87bd 86a5 41bd 6880 6dbd
00000210: c796 34bd fee7 bebd 1fac bdbd 02f9 90bd
00000220: 6d33 a1bd c343 42bd 6be0 a4bd 67b5 64bd
00000230: dd22 9fbd 1e1f 52bd 3f75 90bd 1bde 3bbd
00000240: 0465 20bd 68f4 95bd ea9f 51bd 397e b0bd
00000250: 99dc 7bbd d608 75bd aea8 0e3c 99f9 8fbd
00000260: 7654 f1bc b13e 8abd 60a1 adbd 7f16 b9bd
00000270: 9a21 9abd fd16 8cbd 21b9 f5bc 5645 98bc
00000280: 5f98 8cbd 3454 76bd a5e7 1abd 4a27 ecbd
00000290: f90d 81bd f3df 88bd e7f8 abbd 07d5 d3bd
000002a0: d173 62bd c857 a2bd d9f5 23bd 86f1 e3bd
000002b0: 8b11 08bd 37c0 7fbd fdab ccbd 9b64 9abd
000002c0: 30f6 33bd 275a 81bd 3e2b 14bd aefa 55bd
000002d0: 966f 0abd 0bb6 3abd 74fa 71bd 96cd bcbd
000002e0: 3d12 6ebd ab57 94bd 723f 17bd 44aa 95bd
000002f0: 2000 51bd d66d fabc 2f34 cdbc eea3 27bd
00000300: 4c49 3abd a5b2 dfbd 09e1 8bbd dc75 c8bd
00000310: 16c3 11bd 4643 e0bd 6d70 88bd cbec d2bd
00000320: 4f0c d3bd 3dfe 64bd f59b c5bc 3a97 b9bd
00000330: 1473 94bd ee4a a8bd 1b6b 1bbd 432c 24bd
00000340: f747 93bd 5eb8 aabd e06f 86bd 2346 e53b
00000350: 3160 cebd 5519 1abd e82a 83bd 022c 92bd
00000360: f4ba a7bd 9212 8bbd 6f4a 7ebd 6bc6 ecba
00000370: 8b69 31bd ed96 a8bd e273 c0bd c821 63bd
00000380: 3f18 b9bd 80ba 3bbd 9c46 9ebd 7063 b5bd
00000390: 39d2 8bbd 07e1 91bd a670 b9bc ed52 24bd
000003a0: 0dd8 19bd 244a aabd 739f 8cbd c6f9 51bd
000003b0: 1f28 63bd 333c 8abd cdb7 b9bd d995 94bd
000003c0: 4c38 adbd 88db 82bd d848 84bd f436 62bd
000003d0: b143 5bbd 50ab 98bd 8710 b5bd 87a1 89bd
000003e0: d0da 72bd 3402 8bbd 6f96 96bd 9929 b7bd
000003f0: 163a c3bd 862f 95bd fef5 98bd 0697 88bd

fc2.weight f4 [300, 400]
-0.048731685 -0.0015698972 0.028977351 -0.023347339 0.041547537 -0.009239986 -0.02569674 0.038456764
-0.057165913 0.048910875 0.04042825 -0.031149602 -0.0687911 0.063250884 -0.035939433 0.0009510105
-0.06550454 0.011340436 -0.04964468 0.025240198 0.05354659 -0.03224674 0.05390639 0.07270907
0.054337204 0.078430004 0.053497463 0.01883222 -0.0281693 0.0027948772 0.04920313 0.0026592165
0.015142377 -0.04990479 -0.041244093 -0.01275877 0.03314524 0.011192936 0.05041293 -0.010106431
0.12118996 0.0391713 -0.053280726 0.059034724 0.12225341 0.04905255 0.045375172 0.025590878
0.044246126 0.012013305 0.05139047 0.031871334 -0.04478316 0.0060163867 0.012717081 -0.036020447
0.058701377 0.06513672 0.0012323519 -0.0017581008 0.00444233 0.018714897 -0.0454043 0.06922893
-0.0058354717 0.019771712 -0.024151029 0.022251906 0.02464891 0.09176084 0.03539521 0.048886754
0.03362542 0.028829738 0.02337776 0.019235404 -0.056670323 0.0039860685 -0.029954853 0.025357062
0.052412976 0.005745956 -0.00045982702 -0.03015768 0.046568133 0.048421726 0.0013271734 0.006468662
-0.04798121 0.016261337 -0.017949147 0.13101658 0.05790977 0.07549677 0.07730629 0.025778618
-0.008017614 -0.018641252 0.006200939 -0.048713073 0.07138368 0.05084379 0.03129287 0.00488241
-0.007752294 0.0009875387 0.02581642 0.0057938835 -0.014804419 0.041634653 0.085667685 0.0040123058
0.050504193 -0.0067901136 -0.05440904 -0.002092155 -0.0646212 -0.0030000291 0.06361225 -0.05452293
0.0053514354 0.06938188 0.062349014 -0.02195947 0.030013207 0.04360549 0.03854723 -0.06325719
0.099570796 0.044867884 0.035876565 -0.019646091 -0.009497347 0.022581242 0.005094083 0.052617628
0.024972023 -0.06067699 0.057348847 -0.027737841 -0.11454025 0.041186698 -0.017125828 0.062153026
0.15992835 0.04370511 0.031321753 0.035475194 -0.03603851 0.08749127 -0.04235838 0.038245328
0.014520335 0.029167717 -0.01035238 0.0065416154 0.055947278 -0.015770499 -0.048682354 0.09470231
-0.00834093 0.03820207 -0.033469602 -0.026416346 0.033199035 -0.09804769 0.02528742 -0.0027280017
0.06699701 -0.0093526775 -0.051722553 0.063124135 0.04753293 -0.022430282 0.025584335 0.0036950042
-0.008339698 -0.07489185 0.01687191 0.023164006 0.104374066 0.068217 0.020606562 -0.029284047
0.076554105 0.012299917 0.044680666 -0.01942584 0.016134456 -0.003458649 0.041008905 0.014375901
0.014706642 -0.08837301 0.024992539 0.040747512 0.020281369 -0.016389638 -0.0070647267 -0.089364484
0.021640655 0.03708017 0.030059742 -0.014074629 -0.020647569 -0.05867658 0.02709015 0.021694465
0.010405762 -0.03901752 0.032730553 0.12838612 0.015360302 -0.029250124 0.045704614 -0.060048286
0.010538265 0.004638745 0.019467337 -0.031379785 0.0056683393 -0.012393152 0.068479225 -0.07143195
0.0030579302 0.07924065 -0.093231104 -0.015305625 0.0022381342 0.06775825 0.15036084 -0.022218527
0.032496378 0.017114183 -0.07808494 -0.05298051 0.015832938 0.03742726 0.029412417 0.014651964
-0.017824275 0.10419397 0.007996891 -0.007454966 0.053763837 0.01259884 0.012201272 0.105199024
-0.027278604 -0.042564247 -0.019042661 0.013748339 -0.045085575 -0.0036404093 0.056709938 -0.024100218
00000000: e09a 47bd 02c5 cdba e961 ed3c eb42 bfbc
00000010: c02d 2a3d 4f63 17bc f881 d2bc d784 1d3d
00000020: ce26 6abd c556 483d 1898 253d 732d ffbc
00000030: 59e2 8cbd ae89 813d 3a35 13bd 3c4d 793a
00000040: 3f27 86bd 3ccd 393c 3858 4bbd 88c4 ce3c
00000050: ab53 5b3d 2815 04bd f2cc 5c3d 7ee8 943d
00000060: b090 5e3d e99f a03d 2820 5b3d 0746 9a3c
00000070: 4ec3 e6bc 422a 373b 3989 493d 4046 2e3b
00000080: bb17 783c f768 4cbd 91ef 28bd 290a 51bc
00000090: 4ec3 073d 9462 373c ca7d 4e3d 7295 25bc
000000a0: 7132 f83d 1672 203d e43c 5abd 65ce 713d
000000b0: ff5f fa3d 54eb 483d 51db 393d f6a3 d13c
000000c0: 6d3b 353d 74d3 443c d07e 523d 848b 023d
000000d0: 8c6e 37bd 1c25 c53b 4e5b 503c 2d8a 13bd
000000e0: db70 703d 6766 853d de86 a13a 1370 e6ba
000000f0: f790 913b fc4f 993c dcf9 39bd e6c7 8d3d
00000100: 7c37 bfbb 49f8 a13c 61d8 c5bc a149 b63c
00000110: 83ec c93c 1bed bb3d 91fa 103d 7a3d 483d
00000120: cfba 093d 582c ec3c b782 bf3c 9193 9d3c
00000130: 241f 68bd 919d 823b e163 f5bc 9db9 cf3c
00000140: fdae 563d 9348 bc3b f014 f1b9 3d0d f7bc
00000150: 3abe 3e3d dc55 463d 8df4 ad3a 12f7 d33b
00000160: f287 44bd 7f36 853c 170a 93bc 3629 063e
00000170: cc32 6d3d 0d9e 9a3d c352 9e3d ae2d d33c
00000180: 4f5c 03bc 8ab5 98bc 3f31 cb3b 5c87 47bd
00000190: 9b31 923d 9441 503d f42c 003d a0fc 9f3b
000001a0: f506 febb 4d70 813a f57c d33c 9eda bd3b
000001b0: 3c8e 72bc 1989 2a3d 8a72 af3d a979 833b
000001c0: 7cdd 4e3d 9a7f debb 03dc 5ebd 891c 09bb
000001d0: 1f58 84bd 239c 44bb 2447 823d 7053 5fbd
000001e0: 185b af3b 1618 8e3d ae61 7f3d 59e4 b3bc
000001f0: 42de f53c ac9b 323d b3e3 1d3d fc8c 81bd
00000200: c6eb cb3d 63c7 373d 4ef3 123d d7f0 a0bc
00000210: c39a 1bbc 4cfc b83c 44ec a63b 9585 573d
00000220: 2192 cc3c 6f88 78bd a0e6 6a3d 783a e3bc
00000230: 1494 eabd 62b3 283d 774b 8cbc 2c94 7e3d
00000240: 42c4 233e 2104 333d 3d4b 003d 704e 113d
00000250: 1e9d 13bd 9f2e b33d fb7f 2dbd 22a7 1c3d
00000260: b3e6 6d3c 23f1 ee3c 079d 29bc 0c5b d63b
00000270: f928 653d 2231 81bc 2667 47bd 49f3 c13d
00000280: 65a8 08bc c679 1c3d 6c17 09bd 1867 d8bc
00000290: b6fb 073d 3acd c8bd 9027 cf3c 46c8 32bb
000002a0: ba35 893d f93b 19bc 07db 53bd 3a47 813d
000002b0: e4b1 423d b6bf b7bc 3d96 d13c e227 723b
000002c0: 3ba3 08bc e660 99bd f636 8a3c 71c2 bd3c
000002d0: 12c2 d53d 5bb5 8b3d 18cf a83c 19e5 efbc
000002e0: 66c8 9c3d 9785 493c 1303 373d f022 9fbc
000002f0: 682c 843c 80aa 62bb f4f8 273d e688 6b3c
00000300: 21f4 703c e9fc b4bd 27bd cc3c dde6 263d
00000310: 1d25 a63c 9043 86bc 397f e7bb ba04 b7bd
00000320: be47 b13c 60e1 173d d93f f63c 4699 66bc
00000330: 1725 a9bc db56 70bd 2aec dd3c 97b8 b13c
00000340: ee7c 2a3c d6d0 1fbd 7910 063d a777 033e
00000350: c7a9 7b3c f59d efbc c334 3b3d 31f5 75bd
00000360: b0a8 2c3c 9d00 983b f779 9f3c 1788 00bd
00000370: 7abd b93b a60c 4bbc d63e 8c3d ea4a 92bd
00000380: 8e67 483b ec48 a23d f3ef bebd 72c4 7abc
00000390: a9ad 123b d6c4 8a3d 31f8 193e a103 b6bc
000003a0: ec1a 053d 0b33 8c3c ffea 9fbd 1702 59bd
000003b0: 14b4 813c 544d 193d 4ff2 f03c cb0e 703c
000003c0: 3704 92bc a663 d53d 6405 033c ca48 f4bb
000003d0: 7837 5c3d 5d6b 4e3c d8e7 473c 9672 d73d
000003e0: 6177 dfbc d957 2ebd 5bff 9bbc b740 613c
000003f0: a7ab 38bd ef93 6ebb ae48 683d d26d c5bc

fc2.bias f4 [300]
-0.0141511 0.043424614 0.06019013 -0.03010521 0.0194696 -0.00068086624 0.07243463 -0.02733479
-0.020606874 -0.01568918 -0.039773375 0.0152880475 0.0656008 0.008347011 0.04629854 0.026177194
-0.029387737 -0.022705074 0.031115817 -0.012927996 0.053000655 0.03122583 0.05659796 0.050634272
0.03944945 -0.011451222 -0.016345039 0.059626967 0.011223386 -0.022619098 -0.0069725513 -0.033524662
0.06469676 0.023858828 0.064803876 0.044201355 0.002779768 0.071135536 -0.03725137 -0.032280035
0.03050685 0.039462972 -0.018960131 -0.002527188 -0.044364754 0.005472604 0.02660835 0.043412764
0.04747736 0.036023155 0.07345568 0.043298 0.00720708 -0.037160963 0.038988054 -0.043512493
-0.014853973 0.051814668 0.007597347 0.043088123 0.034730386 0.025422147 0.0459644 -0.01258449
0.033781644 -0.03764804 0.0024603007 0.009212056 0.053965274 0.073071264 0.05916679 -0.009573636
0.012147607 0.035975456 -0.015170106 0.009254935 -0.02962698 -0.0064849774 0.005271922 0.05118581
-0.03038314 -0.030006275 0.015920712 -0.0060287053 -0.013044341 0.06460369 -0.010705881 -0.027819298
-0.027767327 -0.030055998 0.023465076 0.032980166 -0.03775867 0.05220415 -0.009418181 0.015624105
0.007405977 0.012771077 -0.008521105 0.022533007 -0.01679024 0.0639235 -0.021224497 0.05851001
0.03780766 0.062606186 0.028462196 -0.0071729254 0.038202252 0.015835043 0.023009608 -0.0027745578
0.03405304 -0.032885652 -0.03606551 -0.02141012 -0.03336271 0.014904057 0.022804564 -0.02076603
0.00072668854 0.060351957 -0.043219913 -0.0065430696 0.008160415 -0.026029607 0.05900321 0.006311783
0.0042892625 -0.042029355 0.014664011 -0.010502373 -0.024914837 -0.04015952 0.023447279 0.040492807
-0.009463741 -0.019292066 -0.033228394 0.035173953 0.048116844 0.03573533 0.046854403 -0.01105356
0.021051567 -0.023789773 0.069363646 0.007993189 0.021246972 -0.01829105 0.018139863 0.032613616
0.004359814 0.048163116 0.02664784 -0.036826167 -0.02142647 0.05528228 -0.008677101 0.014882361
0.024564246 -0.027714796 -0.030428685 -0.019232424 0.048984963 0.010544164 0.0018826898 0.0270195
-0.0029642165 0.055944186 0.05315627 -0.008990703 0.041721534 0.04667936 4.726567e-05 0.01829472
-0.0026683107 -0.045609865 0.03696232 -0.0033308212 -0.011158301 -0.012909238 0.051813796 0.04276638
-0.03584455 0.0046056095 0.034319747 0.05324027 -0.024398044 -0.0039271237 0.0033495666 -0.046192065
0.04527823 -0.0224597 -0.009539343 0.031836785 0.00468728 -0.028693812 -0.046916254 -0.038283523
0.032027382 0.04369307 0.05602252 0.015901806 0.0621249 0.03900442 0.005781357 0.012434704
-0.013613594 0.0008431412 0.048759636 0.021558475 -0.028767765 -0.0035399757 0.057583496 0.07347205
0.0081887245 0.062308647 0.023897119 0.02981113 -0.033529937 -0.020006314 0.03428686 -0.024823528
-0.025811953 -0.024157839 0.026351314 0.019397264 0.048307765 0.051899366 -0.025958236 0.06786706
-0.023618212 0.058864236 -0.03910921 -0.018799784 -0.007818933 0.023614446 0.03659337 0.048402682
0.03461098 -0.01861166 -0.003149623 -0.037683286 0.03296619 0.0120726125 0.0105852485 -0.0038381196
0.028021146 -0.016797457 -0.00829092 -0.0025330356 0.051500857 0.057793148 -0.027271256 -0.008472919
00000000: 04da 67bc 02de 313d ed89 763d 349f f6bc
00000010: b67e 9f3c 297c 32ba 9b58 943d 36ed dfbc
00000020: bfcf a8bc 9886 80bc 68e9 22bd b87a 7a3c
00000030: b659 863d e7c1 083c 8aa3 3d3d 8e71 d63c
00000040: 8dbe f0bc feff b9bc 99e6 fe3c f2cf 53bc
00000050: 3717 593d 50cd ff3c 43d3 673d e265 4f3d
00000060: bf95 213d e89d 3bbc 08e6 85bc 683b 743d
00000070: 4be2 373c b04b b9bc 007a e4bb 2851 09bd
00000080: bc7f 843d 9773 c33c e5b7 843d 7b0c 353d
00000090: c52c 363b 82af 913d e494 18bd 1238 04bd
000000a0: 80e9 f93c eda3 213d 4752 9bbc 2e9f 25bb
000000b0: d1b7 35bd 8853 b33b c1f9 d93c 95d1 313d
000000c0: 9f77 423d 048d 133d ee6f 963d 3e59 313d
000000d0: 5e29 ec3b 1836 18bd f0b1 1f3d 283a 32bd
000000e0: 145e 73bc 9e3b 543d 2af3 f83b 2c7d 303d
000000f0: 7341 0e3d 1b42 d03c 2b45 3c3d 2d2f 4ebc
00000100: 9f5e 0a3d d534 1abd ff3c 213b 2aee 163c
00000110: b10a 5d3d 63a6 953d e058 723d bdda 1cbc
00000120: c206 473c 005b 133d 098c 78bc 03a2 173c
00000130: 48b4 f2bc ef7f d4bb 16c0 ac3b 36a8 513d
00000140: 10e6 f8bc b8cf f5bc 276c 823c 728c c5bb
00000150: eeb7 55bc f04e 843d b867 2fbc 4ce5 e3bc
00000160: 4e78 e3bc ff37 f6bc d539 c03c 3616 073d
00000170: d6a8 1abd 05d4 553d b74e 1abc 3ffc 7f3c
00000180: d7ad f23b c83d 513c 1b9c 0bbc 2497 b83c
00000190: af8b 89bc 53ea 823d ffde adbc 31a8 6f3d
000001a0: 34dc 1a3d ac37 803d 8d29 e93c dc0a ebbb
000001b0: f779 1c3d 7eb8 813c a57e bc3c 5bd5 35bb
000001c0: 337b 0b3d 1bb3 06bd 6eb9 13bd 4764 afbc
000001d0: 56a7 08bd 2530 743c a3d0 ba3c 851d aabc
000001e0: 3e7f 3e3a 9d33 773d 5d07 31bd 3f67 d6bb
000001f0: 43b3 053c 0b3c d5bc 5aad 713d 13d3 ce3b
00000200: f18c 8c3b f926 2cbd 5241 703c 2512 2cbc
00000210: 331a ccbc 4f7e 24bd 8214 c03c c9db 253d
00000220: cf0d 1bbc 650a 9ebc 7f1a 08bd 9012 103d
00000230: 2b16 453d 365f 123d 67ea 3f3d fe19 35bc
00000240: 5674 ac3c c5e2 c2bc 870e 8e3d ddf5 023c
00000250: 210e ae3c 1dd7 95bc 0d9a 943c db95 053d
00000260: c5dc 8e3b b046 453d 924c da3c 09d7 16bd
00000270: 9086 afbc ac6f 623d 662a 0ebc 25d5 733c
00000280: f53a c93c 240a e3bc 9445 f9bc 518d 9dbc
00000290: 75a4 483d 6ec1 2c3c 96c4 f63a 0058 dd3c
000002a0: 4d43 42bb bb25 653d 64ba 593d be4d 13bc
000002b0: 33e4 2a3d db32 3f3d 203f 4638 cfde 953c
000002c0: d3de 2ebb 69d1 3abd cd65 173d e849 5abb
000002d0: 4ed1 36bc 4581 53bc b43a 543d cd2b 2f3d
000002e0: bcd1 12bd a7ea 963b dd92 0c3d 7812 5a3d
000002f0: 68de c7bc 1aaf 80bb 6784 5b3b e433 3dbd
00000300: aa75 393d 68fd b7bc e84a 1cbc 4a67 023d
00000310: c197 993b 490f ebbc 422b 40bd 2fcf 1cbd
00000320: 252f 033d 81f7 323d df77 653d 8144 823c
00000330: ae76 7e3d 19c3 1f3d 8a71 bd3b eeba 4b3c
00000340: 8d0b 5fbc 4006 5d3a 2fb8 473d 669b b03c
00000350: 60aa ebbc f0fe 67bb acdc 6b3d 8478 963d
00000360: 002a 063c 5a37 7f3d e4c3 c33c 7936 f43c
00000370: b056 09bd 48e4 a3bc 6170 0c3d b65a cbbc
00000380: 9773 d3bc a9e6 c5bc b6de d73c 03e7 9e3c
00000390: 5dde 453d 6e94 543d 5ea6 d4bc e3fd 8a3d
000003a0: fb7a c1bc a01b 713d fb30 20bd 0102 9abc
000003b0: fb1a 00bc 1573 c13c eee2 153d e441 463d
000003c0: 3ec4 0d3d 7b77 98bc e869 4ebb ca59 1abd
000003d0: 8e07 073d 35cc 453c c06d 2d3c f688 7bbb
000003e0: 9a8c e53c d29a 89bc a4d6 07bc 4901 26bb
000003f0: 90f2 523d 82b8 6c3d f867 dfbc 00d2 0abc

bn2.weight f4 [300]
1.389355 1.3306942 1.1286641 1.3212415 1.1326735 1.2266886 0.9929449 1.0320342
1.0376666 1.2028013 1.2188896 1.0719359 1.3300427 1.0111067 1.1928725 0.97932845
1.3670033 1.224651 1.1778615 1.3286294 1.1985235 1.021766 0.98751426 1.2962475
0.9528889 1.3529524 1.3549234 1.4634429 1.1299124 0.98000187 1.0504299 1.1040384
1.1808774 1.1847098 1.026337 0.9902121 1.4487871 0.95872205 1.2213233 1.114961
1.2440838 1.3270484 1.2224196 1.0382149 1.2163601 1.0811191 1.236861 1.3991119
1.0025027 1.0390509 1.0242667 1.068671 1.0575907 1.1303614 1.1843263 1.3100598
1.0774521 1.2351949 1.1338094 1.1015306 1.1972443 0.9644387 1.413716 1.1251912
1.1727822 1.278642 1.1529678 1.2918763 1.1903791 1.039009 0.9521543 1.0644807
1.1632314 1.3318123 1.2393905 1.167032 0.9855157 1.1470503 1.1770488 1.0954276
1.4277825 1.0203223 1.1338515 1.248877 1.1726854 1.0217848 1.2542053 0.9881702
1.0050955 1.1122088 1.0371509 1.2633301 1.1897444 1.162167 1.1276664 1.091856
1.405419 1.0286863 1.0171024 1.1978927 1.4156665 0.9881711 1.0379424 1.2171007
1.218462 1.059976 1.194526 1.1301227 1.189998 1.4633114 1.2943935 1.2506782
1.0691178 1.0356883 1.0614501 1.2073894 1.3618257 1.1991483 1.3027663 1.2080536
1.0377396 0.9784219 1.2868663 1.356541 1.2566376 1.0763041 1.2122146 1.3433233
1.0990497 1.0886768 1.1955023 1.0143275 1.056467 1.2865669 1.3137766 1.4130857
1.2290144 1.2829494 1.1700841 1.328358 1.1575297 1.2162348 1.0479183 1.438041
1.2828052 1.1794664 1.3030363 1.297982 1.0027415 1.073088 1.156385 1.1710768
1.4302462 1.013445 1.2663337 1.2826363 1.0209254 1.2597064 0.9987906 1.1101261
1.4241117 1.1918964 1.3475788 1.1850543 1.4909573 1.1989616 1.3300817 1.1322166
0.97812665 1.1091353 1.1366826 1.4596568 1.2229489 1.3365479 1.0960255 1.4187793
0.9820362 1.1963379 1.3831079 1.4429508 1.3242644 1.1075374 1.2784796 1.0701436
1.0951483 1.1162966 1.1616262 1.3729717 1.0392691 1.012834 1.0834295 1.3496166
1.0259482 1.38965 1.0379418 1.1384542 1.0149375 0.9938977 1.2549268 1.3348929
1.0507333 1.3029597 1.4886336 1.0746931 1.304312 1.2648553 0.9855336 1.2090967
1.1159525 1.3055952 1.2338344 1.1650448 1.2397345 1.1414115 1.1314062 1.0831794
1.2968551 1.1178999 1.0145034 1.1162158 1.0100918 1.3206434 1.1517626 1.0298634
1.1202878 0.9543584 1.1293317 1.1682088 0.9607816 1.4602166 1.1470441 1.0543054
1.1476117 1.2866209 1.0069436 1.0371015 1.1291939 1.172593 0.9789069 1.2699193
1.3404933 1.0382503 1.3817372 1.2806064 1.2801203 1.3281645 1.0357277 1.1157167
1.1065105 1.1700368 1.0742725 1.2768749 1.0272284 1.0012064 1.3610129 1.173347
00000000: 62d6 b13f 3054 aa3f 1178 903f 711e a93f
00000010: 72fb 903f 2204 9d3f a331 7e3f b219 843f
00000020: 42d2 843f 65f5 993f 9304 9c3f 3235 893f
00000030: d73e aa3f f26b 813f 0cb0 983f 45b5 7a3f
00000040: f7f9 ae3f 5dc1 9c3f 2ac4 963f 8710 aa3f
00000050: 3869 993f 3ac9 823f bccd 7c3f 70eb a53f
00000060: 87f0 733f 8b2d ad3f 216e ad3f 1952 bb3f
00000070: f8a0 903f 67e1 7a3f 7d74 863f 2151 8d3f
00000080: fe26 973f 92a4 973f 035f 833f 8a7e 7d3f
00000090: db71 b93f cf6e 753f 5254 9c3f 0bb7 8e3f
000000a0: 233e 9f3f b9dc a93f 3f78 9c3f 3ae4 843f
000000b0: b0b1 9b3f 1c62 8a3f 7651 9e3f 1916 b33f
000000c0: 0252 803f 9fff 843f 2c1b 833f 36ca 883f
000000d0: 225f 873f afaf 903f 0198 973f 0ab0 a73f
000000e0: f3e9 893f de1a 9e3f ab20 913f f4fe 8c3f
000000f0: 4d3f 993f 74e5 763f a5f4 b43f 4406 903f
00000100: ba1d 963f 8baa a33f 7394 933f 345c a53f
00000110: 585e 983f 3ffe 843f 62c0 733f e740 883f
00000120: c4e4 943f d378 aa3f 59a4 9e3f 4e61 953f
00000130: c24a 7c3f 8bd2 923f 89a9 963f f936 8c3f
00000140: 94c1 b63f ec99 823f 0c22 913f 34db 9f3f
00000150: 8e1a 963f d8c9 823f cd89 a03f b9f8 7c3f
00000160: f8a6 803f dc5c 8e3f 5cc1 843f cdb4 a13f
00000170: 8b49 983f e3c1 943f 5f57 903f f0c1 8b3f
00000180: c5e4 b33f feab 833f 6930 823f 8c54 993f
00000190: 8f34 b53f c8f8 7c3f 4cdb 843f f5c9 9b3f
000001a0: 90f6 9b3f 4bad 873f 3ae6 983f dca7 903f
000001b0: db51 983f ca4d bb3f b0ae a53f 3916 a03f
000001c0: dad8 883f 6f91 843f 99dd 873f bc8b 9a3f
000001d0: 4e50 ae3f b17d 993f 0cc1 a63f 80a1 9a3f
000001e0: a7d4 843f dc79 7a3f 09b8 a43f 23a3 ad3f
000001f0: 80d9 a03f 55c4 893f d929 9b3f 05f2 ab3f
00000200: a9ad 8c3f c359 8b3f 3806 993f 7cd5 813f
00000210: 503a 873f 39ae a43f d529 a83f fedf b43f
00000220: 5850 9d3f b037 a43f 51c5 953f a307 aa3f
00000230: ef29 943f 95ad 9b3f 3022 863f ba11 b83f
00000240: f632 a43f c1f8 963f e5c9 a63f 4624 a63f
00000250: d559 803f f35a 893f 6c04 943f d8e5 953f
00000260: 4f12 b73f 91b8 813f 3917 a23f 6d2d a43f
00000270: afad 823f 0f3e a13f beb0 7f3f 9d18 8e3f
00000280: 4b49 b63f 1090 983f 767d ac3f dcaf 973f
00000290: b0d7 be3f 9377 993f 1e40 aa3f 79ec 903f
000002a0: 8266 7a3f 25f8 8d3f d17e 913f 09d6 ba3f
000002b0: 9789 9c3f 0014 ab3f 904a 8c3f 8f9a b53f
000002c0: b966 7b3f 9a21 993f ae09 b13f 9db2 b83f
000002d0: 7f81 a93f c9c3 8d3f 38a5 a33f 77fa 883f
000002e0: d22d 8c3f cfe2 8e3f 2bb0 943f 89bd af3f
000002f0: c506 853f 8ba4 813f d1ad 8a3f 3dc0 ac3f
00000300: 4552 833f 0de0 b13f 47db 843f deb8 913f
00000310: 79e9 813f 1470 7e3f 71a1 a03f c5dd aa3f
00000320: 6e7e 863f 62c7 a63f 8c8b be3f 8b8f 893f
00000330: b2f3 a63f c7e6 a13f ee4b 7c3f aec3 9a3f
00000340: 88d7 8e3f be1d a73f 49ee 9d3f 3020 953f
00000350: 9faf 9e3f c619 923f ebd1 903f 9fa5 8a3f
00000360: 59ff a53f 5817 8f3f 3fdb 813f 29e0 8e3f
00000370: b04a 813f d80a a93f f56c 933f 90d2 833f
00000380: 9765 8f3f d550 743f f18d 903f de87 953f
00000390: c8f5 753f 61e8 ba3f 57d2 923f 7bf3 863f
000003a0: f1e4 923f feaf a43f 87e3 803f bebf 843f
000003b0: 6d89 903f 8717 963f a599 7a3f b78c a23f
000003c0: 4995 ab3f 63e5 843f c4dc b03f e9ea a33f
000003d0: fbda a33f 4b01 aa3f ba92 843f cecf 8e3f
000003e0: 23a2 8d3f c4c3 953f c381 893f a370 a33f
000003f0: 387c 833f 8827 803f ac35 ae3f 3c30 963f

bn2.bias f4 [300]
0.03211166 0.020511838 -0.07349962 0.004872676 0.005799522 0.008957446 -0.039985735 0.042540852
-0.0041965065 0.014345258 0.052413322 -0.03833339 0.085201144 0.0012767115 0.013848682 -0.019846568
0.050754853 0.06523891 -0.038303282 0.026945442 0.03963713 -0.03714029 -0.04303789 0.027106576
-0.040899917 0.028013552 0.06366901 0.02651628 0.022398377 0.013026842 0.026091324 0.007549029
0.053025782 0.024409203 0.036579892 -0.042506017 -0.004810691 0.021807808 0.015734581 0.048344996
0.030013537 0.07702063 0.033329252 0.026283782 0.02431137 0.024211157 0.049014628 0.020088073
-0.035706308 0.0033026093 -0.008970413 0.076327525 0.017027136 0.022802632 0.037150167 0.015492112
0.000108363616 0.0350352 0.007871551 -0.0015677299 -0.018745491 -0.003296369 0.029833267 0.021126464
0.02148624 0.07667572 0.054439925 0.022725971 -0.015417654 0.042922936 0.0039566965 0.0118793575
0.00023903478 0.03816259 0.015243455 -0.0040799896 0.0060812715 0.028345628 0.01799355 -0.030781912
0.057120994 -0.022638535 -0.015657991 -0.0020881107 0.00643022 -0.01025054 0.055802688 0.033535447
-0.021863787 0.029617457 0.012957612 0.033089433 -0.016541338 0.013217436 0.05939386 0.033687685
0.027684191 0.03463319 0.05205704 0.018646255 -0.026506193 -0.008509659 0.06156663 0.020707177
0.023108823 0.004077023 -0.013465594 0.0037301923 0.0059097507 0.04610174 0.08101106 0.053393185
0.063593715 0.02039481 0.03239656 0.040479504 0.08717775 0.059670035 0.028546015 0.048890017
0.017723717 -0.020334523 0.019931676 0.027452473 0.040697247 0.019610634 0.04737308 0.032810755
0.02679707 0.007837134 0.037476182 0.0150716435 0.040486142 0.053792235 0.029042462 0.044500444
0.043570675 -0.025017725 0.060073018 -0.020609146 0.0071182325 0.026834141 -0.013314101 0.086521186
0.047696035 0.051627677 0.030478816 0.01554167 0.018999068 -0.027798079 0.0231134 0.027927788
0.013089616 0.022482306 0.053157885 0.010265415 -0.017738948 0.052048005 0.0418778 -0.006856423
0.048558358 0.006958108 0.008979754 0.026015338 -0.0042705787 -0.024053294 0.047992717 -0.011025658
0.017591283 0.006098301 0.0004109101 0.014325572 0.02113936 -0.01420631 0.003887774 -0.0032150976
-0.03674162 0.009973009 0.10507403 0.040227287 0.087020405 -0.0075347 0.034291346 0.042819086
0.028036442 -0.016670365 -0.00029407663 0.06296838 0.0396622 -0.0050138743 0.004197922 -0.03893232
0.045371402 0.028148418 0.061087776 0.059827324 0.047894634 0.032066967 -0.002372906 0.013677874
0.04330176 0.02481647 0.05166172 -9.8613615e-05 0.029860571 0.028667899 -0.019549038 0.0741117
-0.004587882 0.04698535 0.0023993945 0.034156643 0.012441365 0.04488902 -0.04091544 0.024901992
0.014697811 -0.017202212 0.049760964 0.06104118 -0.047695175 0.0043886765 0.009847613 -0.026102325
0.014846088 -0.027828434 0.0031080411 0.037385058 -0.021142617 0.04207094 0.034156643 0.01702184
0.07621293 0.04467807 0.0033392892 0.002202523 0.0025004493 0.050208274 -0.007313051 0.07774317
0.054371204 0.01599206 0.028909069 0.038649894 -0.0025389483 0.03829536 -0.0074628578 0.0030820316
0.009989535 -0.032012235 0.0045736865 0.070104465 3.351909e-05 0.038935073 0.055493835 0.016798714
00000000: 8487 033d 7108 a83c f886 96bd f8aa 9f3b
00000010: eb09 be3b 40c2 123c 15c8 23bd 513f 2e3d
00000020: d982 89bb 5f08 6b3c 5aaf 563d 7903 1dbd
00000030: f07d ae3d 5457 a73a 95e5 623c 4595 a2bc
00000040: 52e4 4f3d fa9b 853d e7e3 1cbd b0bc dc3c
00000050: 8b5a 223d 6b20 18bd 8048 30bd 9c0e de3c
00000060: ac86 27bd ad7c e53c e664 823d ab38 d93c
00000070: cd7c b73c 896e 553c 79bd d53c d85d f73b
00000080: 9031 593d cff5 c73c ccd4 153d ca1a 2ebd
00000090: 00a3 9dbb 4aa6 b23c cfe5 803c 6705 463d
000000a0: f3de f53c febc 9d3d 4184 083d 1651 d73c
000000b0: a328 c73c 7a56 c63c 90c3 483d be8f a43c
000000c0: c740 12bd 9770 583b a4f8 12bc 9b51 9c3d
000000d0: 7e7c 8b3c 96cc ba3c c62a 183d a1d2 7d3c
000000e0: 4641 e338 1281 0f3d aef7 003c 497c cdba
000000f0: 2590 99bc e507 58bb e564 f43c 6811 ad3c
00000100: e903 b03c 2908 9d3d 66fc 5e3d d12b ba3c
00000110: 549a 7cbc f6cf 2f3d 2da7 813b a3a1 423c
00000120: 69a5 7a39 6050 1c3d afbf 793c 6fb1 85bb
00000130: 6745 c73b 1735 e83c 3667 933c 592a fcbc
00000140: b4f7 693d 7374 b9bc 3045 80bc afd8 08bb
00000150: 98b4 d23b e2f1 27bc 5c91 643d 775c 093d
00000160: af1b b3bc 4fa0 f23c 2a4c 543c c988 073d
00000170: b381 87bc f28d 583c fa46 733d 19fc 093d
00000180: f5c9 e23c 88db 0d3d c339 553d 08c0 983c
00000190: 8423 d9bc 196c 0bbc 4a2d 7c3d 19a2 a93c
000001a0: b74e bd3c 8c98 853b cb9e 5cbc 3e76 743b
000001b0: 95a6 c13b 2ed5 3c3d 20e9 a53d d0b2 5a3d
000001c0: 6c3d 823d 0413 a73c 41b2 043d d6cd 253d
000001d0: 408a b23d 9168 743d 55d9 e93c e640 483d
000001e0: 5431 913c 9694 a6bc c147 a33c 02e4 e03c
000001f0: 28b2 263d 7ba6 a03c 460a 423d 9264 063d
00000200: 8785 db3c 5367 003c a080 193d 0eef 763c
00000210: ccd4 253d 3f55 5c3d 75ea ed3c 1946 363d
00000220: 2a77 323d f9f1 ccbc 200f 763d 83d4 a8bc
00000230: 1040 e93b 46d3 db3c 6323 5abc 0532 b13d
00000240: eb5c 433d 8b77 533d b6ae f93c 7da2 7e3c
00000250: efa3 9b3c ccb8 e3bc 5058 bd3c d1c8 e43c
00000260: d475 563c d02c b83c 15bc 593d 4530 283c
00000270: 4551 91bc 4a30 553d 0e88 2b3d d8ab e0bb
00000280: 21e5 463d d700 e43b d11f 133c 1e1e d53c
00000290: 36f0 8bbb 6a0b c5bc 0394 443d f6a4 34bc
000002a0: 981b 903c 42d4 c73b 6c6f d739 ceb5 6a3c
000002b0: 732c ad3c 95c1 68bc 06ca 7e3b 63b4 52bb
000002c0: 627e 16bd d565 233c 0e31 d73d 5ec5 243d
000002d0: c137 b23d a5e5 f6bb 1575 0c3d 1163 2f3d
000002e0: aeac e53c 4a90 88bc 4c2e 9ab9 91f5 803d
000002f0: d574 223d 6d4b a4bb b98e 893b 7f77 1fbd
00000300: 5dd7 393d 8397 e63c 2d37 7a3d 7f0d 753d
00000310: 2a2d 443d a758 033d c282 1bbb 2919 603c
00000320: 305d 313d e94b cb3c 3d9b 533d c8ce ceb8
00000330: 289e f43c f1d8 ea3c 4e25 a0bc e0c7 973d
00000340: f255 96bb b673 403d 293f 1d3b d6e7 0b3d
00000350: ded6 4b3c 8ddd 373d f396 27bd 43ff cb3c
00000360: 16cf 703c a7eb 8cbc 27d2 4b3d 5106 7a3d
00000370: 045c 43bd e3ce 8f3b e257 213c 8bd4 d5bc
00000380: 023d 733c 75f8 e3bc 47b0 4b3b 1321 193d
00000390: 4833 adbc 9452 2c3d d6e7 0b3d 6371 8b3c
000003a0: 8615 9c3d 5a00 373d fad7 5a3b 3458 103b
000003b0: 94de 233b 31a7 4d3d 51a2 efbb d037 9f3d
000003c0: 57b4 5e3d c801 833c b6d2 ec3c 5a4f 1e3d
000003d0: 7c64 26bb 98db 1c3d fd8a f4bb e9fb 493b
000003e0: 26ab 233c 431f 03bd ddde 953b ee92 8f3d
000003f0: d996 0c38 627a 1f3d 814d 633d 759d 893c
