models/ddpg_ant_150.pt (torch, 669566 bytes, 10 tensors)

fc1.weight f4 [400, 105]
0.07005549 0.07841 -0.014535276 -0.037935533 -0.07352398 0.015151222 0.05232798 0.024859793
0.03135475 -0.031145347 -0.12765571 0.054594167 0.07069836 0.0101395985 -0.0035126617 -0.036940943
0.023916397 -0.046525497 0.030664198 0.026299542 -0.0041259085 -0.003631878 -0.005669715 -0.020792479
-0.015124527 -0.0039433544 0.007095456 -0.006577851 -0.020961167 -0.07368043 0.041679952 0.023623897
0.0010989398 -0.014155918 0.04111761 0.044909954 0.025789943 -0.0065852916 0.0048964852 0.031915657
0.010268225 -0.018384742 0.0993039 0.05194986 0.021051332 0.058829762 -0.060466044 -0.05139092
0.0352438 0.055341367 -0.017516207 0.021930689 -0.03823282 0.027782064 -0.019012555 0.030135088
0.0037700825 0.020399027 -0.039141014 -0.06646483 0.021985805 0.028884608 0.0386312 0.05308964
-0.03531349 0.011249965 0.027645944 0.12140299 -0.07962506 0.003684209 0.03470898 -0.034483705
-0.03818947 0.03060207 0.023873743 0.0077676266 -0.011306488 -0.10964761 -0.05695743 -0.03402307
0.031669725 0.04063142 0.12219675 -0.010569418 0.018131092 0.07390052 -0.0016687847 0.024252856
-0.041743457 0.033432417 -0.010412765 -0.042628765 0.02754508 0.013566707 0.03291514 0.01775544
0.06977609 -0.027242048 0.03286745 -0.10748192 0.019955771 -0.0026191166 0.02775272 -0.09188776
-0.012826561 0.14375627 0.0066218865 0.33436385 0.13319324 -0.058641426 -0.03436563 -0.0053061196
0.0092400145 -0.032765068 0.04703341 0.006288405 0.07955157 -0.042954165 -0.05014958 -0.021748638
0.061479732 0.03938503 -0.021874435 0.025028909 -0.0027562622 -0.045263115 0.017075399 0.0077768657
-0.023723448 0.006418038 0.014191383 -0.003873436 0.057642836 -0.038055718 -0.050129987 -0.046146672
0.12365444 0.08123134 0.038948696 -0.03468149 -0.021583771 -0.014037326 0.03007123 0.023717968
-0.030353004 -0.09625935 -0.03444286 -0.0032716994 0.0026324405 0.018499186 -0.041880313 0.10386879
-0.061008085 0.0015241695 0.02732925 -0.047233295 -0.0072433585 0.025105027 -0.030619277 -0.033112604
-0.028641144 0.011514379 -0.20586655 -0.008068139 0.072982214 -0.058023956 0.0104685 0.026094066
-0.010155917 0.032109063 0.0070896717 -0.000120400735 -0.012561262 0.019207144 -0.039801054 0.020247482
-0.0029799626 -0.004973452 -0.010858597 -0.020546824 -0.010393041 -0.13326688 0.020023286 -0.097834915
0.05452854 -0.011186943 -0.06710915 -0.01938065 0.023733417 0.01661719 0.016194314 0.02468393
-0.019406313 -0.022655746 0.00821477 0.04636116 -0.025412507 0.0032289762 -0.09133528 0.032221377
0.0064478857 -0.026032083 -0.016156554 -0.031928997 -0.04077301 -0.08776942 -0.04640482 -0.056845278
-0.041484956 0.043134015 -0.03074194 0.0047505447 -0.035440665 0.007962207 -0.03997471 0.018751804
0.021914184 -0.07271602 -0.021079393 -0.047760792 -0.037048694 -0.15581727 0.03249873 -0.05956512
0.062562816 -0.010821321 -0.026729109 0.011338591 0.0019884012 -0.002188445 -0.019353112 0.009815524
-0.0006818581 -0.014263105 -0.02180843 -0.008354941 0.011242691 -0.11284984 -0.10783572 0.004064032
0.109076515 -0.058839742 -0.05048846 0.03374385 -0.030003691 0.042671744 -0.018740013 -0.041146364
-0.03638762 0.033952743 0.13923374 -0.043233387 0.13043323 0.0454813 0.011963335 -0.04012494
00000000: 4179 8f3d 6c95 a03d 5e25 6ebc 4a62 1bbd
00000010: be93 96bd d53c 783c dd55 563d c4a6 cb3c
00000020: d76d 003d 8724 ffbc 2eb8 02be 229e 5f3d
00000030: 4dca 903d 8f20 263c af34 66bb 634f 17bd
00000040: 52ec c33c 8591 3ebd 7c33 fb3c 2372 d73c
00000050: a132 87bb cd04 6ebb 04c9 b9bb fd54 aabc
00000060: ddcc 77bc 4137 81bb 0081 e83b 038b d7bb
00000070: c1b6 abbc c4e5 96bd 99b8 2a3d e786 c13c
00000080: 4d0a 903a 39ee 67bc f06a 283d 80f3 373d
00000090: 6e45 d33c 6ec9 d7bb b272 a03b feb9 023d
000000a0: 0f3c 283c 999b 96bc d85f cb3d 60c9 543d
000000b0: d873 ac3c 7af7 703d 3eab 77bd 497f 52bd
000000c0: ce5b 103d a1ad 623d 267e 8fbc fda7 b33c
000000d0: 049a 1cbd 3697 e33c 38c0 9bbc dcdd f63c
000000e0: 7d13 773b dc1b a73c 5452 20bd b61e 88bd
000000f0: 931b b43c 6a9f ec3c c03b 1e3d 8674 593d
00000100: e1a4 10bd c651 383c bf79 e23c 21a2 f83d
00000110: 7712 a3bd c572 713b 012b 0e3d c93e 0dbd
00000120: 906c 1cbd 31b1 fa3c de92 c33c 9387 fe3b
00000130: d93e 39bc ed8e e0bd 324c 69bd c65b 0bbd
00000140: 1db8 013d 226d 263d 4a42 fa3d 5a2b 2dbc
00000150: a887 943c 2859 973d 1fbb daba edad c63c
00000160: 30fb 2abd 6ef0 083d 4d9a 2abc 809b 2ebd
00000170: 38a6 e13c e546 5e3c 07d2 063d db73 913c
00000180: c4e6 8e3d b72a dfbc 05a0 063d 7b1f dcbd
00000190: 497a a33c 7ca5 2bbb ac59 e33c a62f bcbd
000001a0: 7f26 52bc d834 133e 69fc d83b bd31 ab3e
000001b0: cf63 083e fe31 70bd fac2 0cbd f5de adbb
000001c0: 6e63 173c aa34 06bd 1ba6 403d f70e ce3b
000001d0: efeb a23d b5f0 2fbd a569 4dbd 332a b2bc
000001e0: 2cd2 7b3d 3252 213d 0432 b3bc 6d09 cd3c
000001f0: 68a2 34bb d165 39bd b5e1 8b3c 14d5 fe3b
00000200: ad57 c2bc 684e d23b f982 683c 79d9 7dbb
00000210: e51a 6c3d 50e0 1bbd 1a55 4dbd 4b04 3dbd
00000220: 8a3e fd3d 9e5c a63d ab88 1f3d 2e0e 0ebd
00000230: 73d0 b0bc d0fc 65bc f157 f63c 2f4c c23c
00000240: dda6 f8bc 9f23 c5bd f513 0dbd 026a 56bb
00000250: 0685 2c3b 9b8b 973c b18a 2bbd 29b9 d43d
00000260: 9de3 79bd a4c6 c73a 97e1 df3c b377 41bd
00000270: b259 edbb 0fa9 cd3c 47d5 fabc 15a1 07bd
00000280: d5a0 eabc cea6 3c3c aece 52be 3a30 04bc
00000290: b377 953d 87aa 6dbd 1284 2b3c 39c3 d53c
000002a0: 0165 26bc cb84 033d 7a50 e83b a77f fcb8
000002b0: c0cd 4dbc 4d58 9d3c 6e06 23bd 0cde a53c
000002c0: 7a4b 43bb 57f8 a2bb 42e8 31bc d051 a8bc
000002d0: 9347 2abc 1d77 08be e007 a43c ac5d c8bd
000002e0: 5159 5f3d 7149 37bc 8670 89bd 2bc4 9ebc
000002f0: 956c c23c c620 883c f0a9 843c f435 ca3c
00000300: fdf9 9ebc 8b98 b9bc 3e97 063c 33e5 3d3d
00000310: e42d d0bc 3b9d 533b fe0d bbbd 90fa 033d
00000320: c948 d33b 3c41 d5bc c05a 84bc fbc7 02bd
00000330: 9a01 27bd 74c0 b3bd fb12 3ebd 98d6 68bd
00000340: 21ec 29bd 4bad 303d 85d6 fbbc 75aa 9b3b
00000350: 3b2a 11bd eb73 023c 86bc 23bd 629d 993c
00000360: 6085 b33c 23ec 94bd b1ae acbc d2a0 43bd
00000370: 5fc0 17bd 908e 1fbe 631d 053d 8efa 73bd
00000380: ef20 803d e94b 31bc 01f7 dabc 7fc5 393c
00000390: d64f 023b 046c 0fbb 6b8a 9ebc 4bd1 203c
000003a0: b9be 32ba ccaf 69bc 98a7 b2bc 2ae3 08bc
000003b0: 4433 383c d11d e7bd f9d8 dcbd 922b 853b
000003c0: 8263 df3d f101 71bd fdcc 4ebd fe36 0a3d
000003d0: 4dca f5bc 91c8 2e3d a884 99bc 1789 28bd
000003e0: 2f0b 15bd 0812 0b3d 4a93 0e3e 7e15 31bd
000003f0: 4a90 053e 9a4a 3a3d dd01 443c 0d5a 24bd

fc1.bias f4 [400]
0.03409836 0.018756729 0.018234016 0.029391704 0.06096452 0.00934135 0.059980117 0.0055534914
-0.02150938 0.0017281079 -0.000989826 -0.019408187 -0.06445497 -0.047498014 0.08877922 -0.016604586
0.006471727 0.012502119 -0.04332193 -0.053177584 0.037144095 -0.058399722 -0.016528359 -0.009736362
0.0036281743 -0.0027061687 -0.030761538 0.088968195 -0.027858578 0.05771686 -0.016181355 0.07783898
-0.044780243 -0.02893335 -0.04021283 0.007165893 -0.07962208 -0.013739415 0.009783313 -0.025340257
0.027989572 0.037200436 0.03701298 0.059547216 0.05297442 0.0065883845 0.029658277 0.0151181
0.017188422 0.06257708 0.043719713 0.061713964 -0.0037815585 -0.015494866 -0.047349278 0.07020943
0.026689347 0.0075042555 0.042213894 0.028582552 -0.0038759355 0.079429515 0.011383645 0.018090125
-0.028152145 0.039010607 0.05810695 0.036802735 0.0416815 -0.059495695 0.088335805 0.081858955
-0.011141401 0.016505672 0.05727713 0.01436137 0.027935453 0.047136795 0.033377387 0.004361175
0.015116779 -0.054677762 -0.036679223 0.014995132 0.061985444 0.018151268 0.02377353 -0.028160201
-0.0011447674 -0.028274033 0.07208868 0.035470005 0.022537157 0.037124034 0.02965475 0.045340516
-0.026731463 0.055093054 -0.037883516 0.1020462 0.020171946 0.06400813 0.041036725 -0.0015658191
0.015290465 0.014767957 -0.0067634373 -0.024135062 -0.077515826 -0.020766566 0.022035748 0.003504187
0.009865916 0.043062616 -0.023889516 0.033344757 0.031754654 0.06903072 -0.010776077 -0.05774735
-0.022254217 0.056497045 0.009355337 0.0009952852 0.012577924 0.08418875 0.02402557 0.05659114
0.022643154 0.035809383 -0.0036200858 -0.004493248 0.06657681 0.023089927 -0.01755946 0.045884017
0.041795902 -0.036368508 0.068231136 0.028279822 0.037619732 0.019047584 -0.025993848 -0.048622023
0.077105254 0.0732184 0.0075650876 0.07474333 0.030910738 0.0023592452 -0.14413187 0.017022267
0.040766954 -0.025306428 0.052955784 -0.03786112 0.05699292 -0.023417354 0.04071464 0.059657853
0.020185588 -0.0024187455 0.0019732753 -0.030178867 0.043774657 -0.024471672 -0.029128442 0.07080399
-0.015047351 0.0012797794 -0.029334098 -0.00967821 0.068077706 -0.028066233 0.006340249 0.076476015
0.033869006 0.053571764 0.09314064 0.048110895 -0.08089542 -0.006633117 0.011024862 -0.03304339
-0.04404227 0.07912716 0.01933804 0.008069776 -0.0074549643 0.013983037 -0.040877357 -0.026423192
-0.020557206 0.054796588 -0.015103349 0.08857446 -0.007855739 0.02024797 -0.053441428 0.06542071
-0.023341497 0.025759071 -0.030156383 0.013467607 0.00014830581 0.003294175 -0.02024187 -0.053657252
-0.071522124 0.02555136 0.012626384 0.037322473 0.06854232 0.003358586 0.0316135 0.026882203
0.07135385 0.009154791 -0.00013394064 0.034607537 -0.028581807 -0.0805409 -0.006682677 0.05927154
0.037345756 0.014996907 0.057408355 0.023728702 0.0095903985 -0.05995249 0.04259344 0.043522008
0.018166479 -0.032174762 -0.03479151 -0.060674872 0.03705896 -0.012282134 -0.048017874 -0.01540602
-0.028578483 0.0017137312 0.073378436 0.05509659 0.04073957 -0.022350011 -0.02286194 0.021166654
0.040086273 0.07222401 -0.016689196 0.05254336 -0.006158248 0.04985127 0.022612775 -0.008624308
00000000: b9aa 0b3d b6a7 993c 815f 953c dfc6 f03c
00000010: efb5 793d 760c 193c b6ad 753d 10fa b53b
00000020: 7034 b0bc ae81 e23a 0dbd 81ba ebfd 9ebc
00000030: f800 84bd 478d 42bd e1d1 b53d 5706 88bc
00000040: c810 d43b b0d5 4c3c 5672 31bd bdd0 59bd
00000050: 6824 183d 8c34 6fbd 7b66 87bc 4385 1fbc
00000060: aac6 6d3b fa59 31bb 9fff fbbc f534 b63d
00000070: ac37 e4bc 8468 6c3d c38e 84bc 0b6a 9f3d
00000080: 7d6b 37bd a205 edbc 35b6 24bd decf ea3b
00000090: e710 a3bd 491b 61bc 304a 203c 5f96 cfbc
000000a0: 634a e53c 7c5f 183d ec9a 173d c8e7 733d
000000b0: b5fb 583d 60e3 d73b eaf5 f23c e8b1 773c
000000c0: bcce 8c3c 6a28 803d 7113 333d c8c7 7c3d
000000d0: 06d4 77bb 2ede 7dbc 51f1 41bd f6c9 8f3d
000000e0: 9ea3 da3c 42e6 f53b 7ae8 2c3d f525 ea3c
000000f0: 6803 7ebb f1ab a23d 7882 3a3c be31 943c
00000100: 549f e6bc 96c9 1f3d 8e01 6e3d 77be 163d
00000110: 38ba 2a3d c2b1 73bd 67e9 b43d aba5 a73d
00000120: 6c8a 36bc e736 873c 6d9b 6a3d f44b 6b3c
00000130: e4d8 e43c 8312 413d bab6 083d 30e8 8e3b
00000140: 5eac 773c caf5 5fbd f43c 16bd 24ae 753c
00000150: 73e4 7d3d f8b1 943c b5c0 c23c 39b0 e6bc
00000160: 050c 96ba f29e e7bc 3ba3 933d ff48 113d
00000170: d89f b83c 5f0f 183d 85ee f23c fab6 393d
00000180: f1fb dabc 41a9 613d bf2b 1bbd 99fd d03d
00000190: a33f a53c b216 833d 2016 283d 2c3c cdba
000001a0: dc84 7a3c 4df5 713c d39f ddbb e5b6 c5bc
000001b0: 9ec0 9ebd a51e aabc 5084 b43c 81a6 653b
000001c0: a7a4 213c 6d62 303d f2b3 c3bc 8394 083d
000001d0: 2b11 023d fa5f 8d3d 258e 30bc 7c88 6cbd
000001e0: 7a4e b6bc 7269 673d 2147 193c 3b74 823a
000001f0: a313 4e3c 276b ac3d 46d1 c43c 1ccc 673d
00000200: 237e b93c dcac 123d f63e 6dbb 193c 93bb
00000210: 6c59 883d 1627 bd3c dbd8 8fbc e1f0 3b3d
00000220: 2e32 2b3d 25f7 14bd c4bc 8b3d 16ab e73c
00000230: 2617 1a3d ae09 9c3c 0df1 d4bc e327 47bd
00000240: 5ce9 9d3d 87f3 953d 8ee4 f73b 0813 993d
00000250: 8438 fd3c 919d 1a3b 4e97 13be 4872 8b3c
00000260: 40fb 263d 6d4f cfbc 2ae8 583d 4314 1bbd
00000270: 6871 693d c0d5 bfbc 65c4 263d cb5b 743d
00000280: 3f5c a53c d183 1ebb 1152 013b ac39 f7bc
00000290: 0e4d 333d d178 c8bc c59e eebc af01 913d
000002a0: 2a89 76bc 45be a73a 104e f0bc 5b91 1ebc
000002b0: 536c 8b3d 28eb e5bc ddc1 cf3b 759f 9c3d
000002c0: 3aba 0a3d 116e 5b3d 85c0 be3d ee0f 453d
000002d0: 7fac a5bd 9e5a d9bb 9fa1 343c 8158 07bd
000002e0: ab65 34bd 6c0d a23d cf6a 9e3c 1837 043c
000002f0: c648 f4bb 1c19 653c 046f 27bd 7375 d8bc
00000300: 9667 a8bc 6372 603d 0a74 77bc 8766 b53d
00000310: 5cb5 00bc 12df a53c 66e5 5abd 4bfb 853d
00000320: ab36 bfbc b004 d33c 850a f7bc 3da7 5c3c
00000330: 8a82 1b39 16e3 573b 47d2 a5bc b5c7 5bbd
00000340: 317a 92bd 1651 d13c e5de 4e3c 73df 183d
00000350: ea5f 8c3d b91b 5c3b 287d 013d 1138 dc3c
00000360: f821 923d fafd 153c 6b72 0cb9 a2c0 0d3d
00000370: 6524 eabc a1f2 a4bd 5cfa dabb b7c6 723d
00000380: ddf7 183d 96b5 753c 0625 6b3d b262 c23c
00000390: 0c21 1d3c be90 75bd 7576 2e3d 2244 323d
000003a0: ded1 943c afc9 03bd 8b81 0ebd 3786 78bd
000003b0: 23cb 173d 013b 49bc 64ae 44bd 8869 7cbc
000003c0: 6c1d eabc 479f e03a 6f47 963d f6ac 613d
000003d0: 89de 263d 5f17 b7bc f748 bbbc b165 ad3c
000003e0: 8131 243d 2fea 933d c8b7 88bc b537 573d
000003f0: 21cb c9bb d830 4c3d 6d3e b93c f84c 0dbc

bn1.weight f4 [400]
0.8530987 0.9524823 0.9012965 0.9976261 0.9069291 1.0155262 1.0428039 0.8968333
0.942062 0.86567813 0.94661564 0.9699971 1.0577611 0.954147 0.9722548 0.941077
0.94793946 0.92665845 0.9216377 1.0209816 0.93874824 1.0126451 0.97460574 1.021508
0.94326174 0.94119966 0.965409 1.0239791 0.966026 0.93255895 1.2040839 0.9677757
0.97009474 0.967199 0.9717638 0.9186173 1.0889636 0.8957186 0.9485269 0.9560848
0.9666103 1.007465 0.87053686 0.997926 0.93878967 1.3031616 0.9191192 0.8759428
0.91161734 0.9119866 0.99328345 0.95017916 1.0325495 0.9195344 0.9246259 0.8645408
0.8700393 1.0018783 0.92884105 0.99077976 0.99298304 0.98194504 0.92864054 0.9216485
0.8866134 0.8943395 0.8863838 0.9267737 0.9641281 1.150401 1.1109838 0.894878
0.99905276 0.91517735 0.8873944 0.9184423 0.9037385 0.90176916 0.88303256 1.1332603
0.98555166 1.1317823 0.9072405 0.866725 0.9039411 0.94176155 0.9114428 0.9309713
0.89412117 0.9217062 0.9091172 0.9418216 0.9279107 0.9002442 1.0088656 0.883292
0.97613215 0.95539355 0.92714745 0.91342247 0.9648248 0.89504874 0.9577543 0.9505695
0.89347345 0.88195807 0.951753 1.2135814 0.94747263 0.91223276 1.003752 0.88872325
0.90144145 0.9521446 0.9121222 0.8685676 0.93372804 0.9492977 0.9940279 0.9015794
0.9168991 0.9486991 0.9420394 0.92125565 0.87695074 0.8738533 0.9618204 1.0848459
0.92576325 0.9363066 0.95121264 0.939693 0.9235814 0.90408254 0.8873861 0.90899193
0.89937365 0.98197585 0.93801504 0.89298195 0.9056887 0.9078732 0.91955537 0.9438202
0.8957217 0.8706711 1.0076244 0.9030962 0.9410703 0.8811673 1.5668474 0.90497416
0.9178119 0.9401212 0.9088465 0.90773684 0.88727844 0.92855495 0.87585723 0.94627786
0.9056739 0.9318873 0.8701399 0.8667825 0.8953422 0.9367093 0.9864947 0.9075902
0.96517193 0.9835939 0.9338093 0.9083247 1.0366951 0.9348674 0.8580234 0.90907186
0.9562327 0.9497828 0.884096 0.90630794 1.2595235 0.95017374 0.8812757 0.86466104
1.0726477 0.90876925 0.90177697 0.9655228 0.9172861 0.95964515 1.0448503 0.8935121
0.8847848 0.891976 0.8977947 0.88797206 0.9455446 0.8996653 0.9994293 0.91065145
0.9298512 0.8933833 0.957124 0.9178189 0.94292593 0.91083825 0.9806687 0.97921443
1.0613047 0.9077841 1.001026 1.1422935 0.8889328 0.9488471 0.9213704 0.93255025
0.91388094 0.927061 0.97105575 0.9426045 0.96655816 0.94369 0.9347063 1.0016315
0.9582233 0.9082908 0.9053319 0.8923383 0.9528735 0.9420953 0.97111446 0.88223344
0.9382835 0.9674613 0.9256802 1.0408552 0.9265661 0.9241704 0.9598406 0.9253101
0.93235236 0.9323398 0.97286475 0.9119262 0.9375717 0.92977136 0.8825899 0.9527855
0.912773 0.8704712 0.90037686 0.8881069 0.9243894 0.92461956 0.8892341 0.9088144
00000000: ad64 5a3f e1d5 733f 5ebb 663f 6d64 7f3f
00000010: 812c 683f c3fc 813f 997a 853f de96 653f
00000020: fa2a 713f 159d 5d3f 6755 723f bb51 783f
00000030: b764 873f fa42 743f b1e5 783f 6cea 703f
00000040: 29ac 723f 7d39 6d3f 73f0 6b3f 86af 823f
00000050: ce51 703f 5b9e 813f c37f 793f c6c0 823f
00000060: 9a79 713f 76f2 703f 0b25 773f bf11 833f
00000070: 7b4d 773f 2fbc 6e3f 6c1f 9a3f 26c0 773f
00000080: 2158 783f 5b9a 773f 83c5 783f 812a 6b3f
00000090: 2963 8b3f d04d 653f a9d2 723f f9c1 743f
000000a0: c673 773f 9df4 803f 81db 5e3f 1478 7f3f
000000b0: 8554 703f 00ce a63f 654b 6b3f ca3d 603f
000000c0: c15f 693f f477 693f d347 7e3f f13e 733f
000000d0: 952a 843f 9b66 6b3f 48b4 6c3f 8c52 5d3f
000000e0: e5ba 5e3f 8c3d 803f 87c8 6d3f bea3 7d3f
000000f0: 2334 7e3f c060 7b3f 63bb 6d3f 28f1 6b3f
00000100: 19f9 623f 6ff3 643f 0cea 623f 0b41 6d3f
00000110: 19d1 763f 5740 933f b834 8e3f b916 653f
00000120: ecc1 7f3f 1049 6a3f 482c 633f 091f 6b3f
00000130: 685b 673f 58da 663f 6c0e 623f ac0e 913f
00000140: 1d4d 7c3f 3ede 903f ea40 683f b1e1 5d3f
00000150: af68 673f 4917 713f 5154 693f 2354 6e3f
00000160: 20e5 643f f0f4 6b3f e8bb 683f 381b 713f
00000170: 8e8b 6d3f 6776 663f 8222 813f 6d1f 623f
00000180: cce3 793f ac94 743f 8959 6d3f 0ed6 693f
00000190: c2fe 763f ea21 653f 632f 753f 8658 733f
000001a0: adba 643f 01c8 613f 16a6 733f a356 9b3f
000001b0: 918d 723f 1688 693f f27a 803f 5e83 633f
000001c0: dec4 663f c0bf 733f d780 693f 725a 5e3f
000001d0: cd08 6f3f 2d05 733f 9d78 7e3f e8cd 663f
000001e0: e6b9 6a3f f2dd 723f 7e29 713f 69d7 6b3f
000001f0: d87f 603f dab4 5f3f dd39 763f 3bdc 8a3f
00000200: d2fe 6c3f cab1 6f3f ac82 733f b88f 703f
00000210: d56f 6c3f f471 673f bc2b 633f b2b3 683f
00000220: 5a3d 663f c562 7b3f c121 703f 779a 643f
00000230: 37db 673f 616a 683f fb67 6b3f 339e 713f
00000240: 044e 653f 4de4 5e3f d6f9 803f 5031 673f
00000250: fce9 703f 2e94 613f 758e c83f 63ac 673f
00000260: b8f5 6a3f c8ab 703f 2aaa 683f 7161 683f
00000270: ae24 633f c7b5 6d3f 2e38 603f 443f 723f
00000280: 3fda 673f 2b90 6e3f 7dc1 5e3f 75e5 5d3f
00000290: 2535 653f 2ecc 6f3f eb8a 7c3f d557 683f
000002a0: 8215 773f cfcc 7b3f 200e 6f3f f887 683f
000002b0: 6db2 843f 7853 6f3f 6ca7 5b3f efb8 683f
000002c0: abcb 743f f724 733f 1e54 623f cc03 683f
000002d0: 1138 a13f 963e 733f 499b 613f 6d5a 5d3f
000002e0: 854c 893f 1aa5 683f dbda 663f 812c 773f
000002f0: 43d3 6a3f 4eab 753f a8bd 853f 36bd 643f
00000300: 4281 623f 8a58 643f e0d5 653f 2352 633f
00000310: 360f 723f 7750 663f 99da 7f3f 7420 693f
00000320: ba0a 6e3f c5b4 643f 1406 753f 2ef6 6a3f
00000330: 9863 713f b22c 693f 1b0d 7b3f ccad 7a3f
00000340: d5d8 873f 8a64 683f 9f21 803f ac36 923f
00000350: 1a91 633f a5e7 723f eede 6b3f 9dbb 6e3f
00000360: 1af4 693f df53 6d3f 1c97 783f 874e 713f
00000370: 5b70 773f ab95 713f e948 6f3f 7635 803f
00000380: 1f4e 753f bf85 683f d5c3 673f 4870 643f
00000390: 85ef 733f 282d 713f f59a 783f 0dda 613f
000003a0: 5933 703f 8bab 773f 61f9 6c3f be3a 853f
000003b0: 7033 6d3f 6e96 6c3f 1db8 753f 1fe1 6c3f
000003c0: a5ae 6e3f d2ad 6e3f aa0d 793f ff73 693f
000003d0: b304 703f 7f05 6e3f 69f1 613f c0e9 733f
000003e0: 7eab 693f 33d7 5e3f 197f 663f f95a 633f
000003f0: c9a4 6c3f deb3 6c3f d9a4 633f 0fa8 683f

bn1.bias f4 [400]
-0.12888059 -0.07552849 -0.13940237 -0.11728702 -0.053443596 -0.057377327 -0.07494026 -0.13325259
-0.07917281 -0.11869359 -0.14610979 -0.116969 -0.097229116 -0.11690275 -0.07275266 -0.06427938
-0.079132244 -0.09447677 -0.13488947 -0.0625758 -0.028197778 -0.08203997 -0.08993814 -0.090534374
-0.060180858 -0.12714486 -0.099498495 -0.038347535 -0.120380946 -0.120366804 0.00149024 -0.084616676
-0.14173988 -0.12706448 -0.08027277 -0.12782012 -0.077356376 -0.10935506 -0.080841854 -0.13869607
-0.059942078 -0.07576193 -0.09122853 -0.014028332 -0.089732625 -0.05379574 -0.08482141 -0.15421475
-0.09125581 -0.0830958 -0.06694747 -0.11225844 -0.027722873 -0.08302096 -0.12758453 -0.12762673
-0.119131245 -0.093329705 -0.099925786 -0.096576326 -0.07147504 -0.044752154 -0.121013165 -0.12523411
-0.08910452 -0.11574312 -0.13776371 -0.10951887 -0.07896908 -0.04208179 -0.07568922 -0.1270975
-0.10229789 -0.097344235 -0.10659125 -0.058863 -0.09805044 -0.13203606 -0.08119927 -0.0319132
-0.037209667 -0.0887012 -0.058599483 -0.12926787 -0.10877423 -0.052110877 -0.09171551 -0.11897365
-0.08181292 -0.12935945 -0.11421794 -0.09686625 -0.0971075 -0.11035662 -0.040122572 -0.08717156
-0.06841027 -0.07670124 -0.101146646 -0.06943105 -0.06921008 -0.10690678 -0.08785984 -0.12766095
-0.11237078 -0.0963727 -0.0823084 -0.05125439 -0.11002176 -0.108180314 -0.09130038 -0.036566492
-0.11093851 -0.12447392 -0.12009788 -0.12890406 -0.071089804 -0.10945193 -0.08806472 -0.11734275
-0.107738584 -0.093517885 -0.05657034 -0.103503 -0.108502306 -0.0807861 -0.03528956 -0.009168789
-0.109731145 -0.106034346 -0.092474565 -0.082727216 -0.047897063 -0.13449931 -0.13035797 -0.10486641
-0.0972451 -0.06931939 -0.115458086 -0.0844632 -0.092227526 -0.08603646 -0.10907736 -0.079019666
-0.07440804 -0.095535554 -0.089288674 -0.10353601 -0.08724206 -0.097187415 -0.01649796 -0.10834309
-0.053038884 -0.089897186 -0.116449654 -0.12566093 -0.11830686 -0.09313346 -0.05026673 -0.05633997
-0.099459186 -0.08101477 -0.08882623 -0.14358161 -0.097909495 -0.08099608 -0.08958614 -0.13946235
-0.07934725 -0.12189447 -0.078639604 -0.15633589 -0.045745447 -0.0861959 -0.1416141 -0.10964864
-0.06775087 -0.11176613 -0.060409214 -0.09084104 -0.050058972 -0.06258364 -0.076033436 -0.14385323
-0.0709882 -0.1088847 -0.096003525 -0.08109552 -0.06602678 -0.03591774 -0.06546945 -0.060488436
-0.08902722 -0.1465621 -0.09211164 -0.13811716 -0.06797722 -0.15078367 -0.09177851 -0.13115528
-0.10980133 -0.07456484 -0.018086245 -0.1270307 -0.103051536 -0.118900515 -0.066051684 -0.08582841
-0.08653036 -0.11455215 -0.07826304 -0.020069357 -0.1187448 -0.06336101 -0.08589469 -0.09739264
-0.11843023 -0.08623494 -0.08793982 -0.01644293 -0.08059574 -0.11236856 -0.11840398 -0.08589502
-0.11356492 -0.054649323 -0.09962768 -0.13566643 -0.084487356 -0.11083903 -0.047652077 -0.077374816
-0.059310887 -0.12062447 -0.11272563 -0.045348078 -0.08615848 -0.09235758 -0.10676772 -0.105309024
-0.12506852 -0.07751006 -0.07961595 -0.102381706 -0.092523225 -0.116210945 -0.12357235 -0.095698275
-0.07998442 -0.10044438 -0.10146178 -0.13502558 -0.11742249 -0.11187053 -0.114096925 -0.12366226
00000000: 46f9 03be aeae 9abd 7fbf 0ebe 2d34 f0bd
00000010: ace7 5abd 7d04 6bbd 477a 99bd 5e73 08be
00000020: 5b25 a2bd a015 f3bd ce9d 15be 718d efbd
00000030: 0f20 c7bd b66a efbd 59ff 94bd e8a4 83bd
00000040: 1610 a2bd 097d c1bd 7720 0abe be27 80bd
00000050: 07ff e6bc 9204 a8bd 7d31 b8bd 166a b9bd
00000060: 3480 76bd 4332 02be dec5 cbbd 4e12 1dbd
00000070: 498a f6bd df82 f6bd 2854 c33a 824b adbd
00000080: 4224 11be 311d 02be 0d66 a4bd 47e3 02be
00000090: 056d 9ebd 8cf5 dfbd 6a90 a5bd 5806 0ebe
000000a0: d385 75bd 1229 9bbd 06d6 babd 17d7 65bc
000000b0: bdc5 b7bd ec58 5cbd d9b6 adbd 79ea 1dbe
000000c0: 53e4 babd 212e aabd c11b 89bd c1e7 e5bd
000000d0: 141b e3bc e506 aabd 85a5 02be 95b0 02be
000000e0: 15fb f3bd a523 bfbd e4a5 ccbd cfc9 c5bd
000000f0: 8161 92bd 094e 37bd c0d5 f7bd 5f3d 00be
00000100: 6e7c b6bd bb0a edbd ee11 0dbe 6e4b e0bd
00000110: 8aba a1bd f45d 2cbd f302 9bbd d925 02be
00000120: 8e81 d1bd 6a5c c7bd 834c dabd 541a 71bd
00000130: abce c8bd 7634 07be ce4b a6bd 6ab7 02bd
00000140: 2a69 18bd faa8 b5bd 0306 70bd cc5e 04be
00000150: 06c5 debd 3772 55bd 57d5 bbbd 75a8 f3bd
00000160: 888d a7bd ce76 04be 18eb e9bd d061 c6bd
00000170: 4ce0 c6bd a702 e2bd 9157 24bd 0187 b2bd
00000180: af1a 8cbd 8a15 9dbd f925 cfbd de31 8ebd
00000190: 04be 8dbd f1f1 dabd dcef b3bd 8db9 02be
000001a0: a722 e6bd 0d5f c5bd 4e91 a8bd 20f0 51bd
000001b0: 1753 e1bd a48d ddbd b2fb babd bfc6 15bd
000001c0: bb33 e3bd 2fec febd e1f5 f5bd 6dff 03be
000001d0: 8897 91bd 5528 e0bd 475b b4bd 6551 f0bd
000001e0: 0ca6 dcbd 4e86 bfbd 4db6 67bd 62f9 d3bd
000001f0: 7536 debd 2f73 a5bd c98b 10bd b038 16bc
00000200: b9ba e0bd 8928 d9bd 4e63 bdbd e36c a9bd
00000210: b62f 44bd 30ba 09be 8f7c 05be 33c4 d6bd
00000220: 7028 c7bd 53f7 8dbd 4a75 ecbd 0bfb acbd
00000230: c9e1 bcbd e233 b0bd f363 dfbd 10d5 a1bd
00000240: 3e63 98bd 25a8 c3bd fbdc b6bd b00a d4bd
00000250: f7ab b2bd 320a c7bd bb26 87bc fbe2 ddbd
00000260: 4d3f 59bd 041c b8bd 287d eebd 42ad 00be
00000270: de4a f2bd c1bc bebd 7de4 4dbd bec4 66bd
00000280: 42b1 cbbd 12eb a5bd 87ea b5bd 0f07 13be
00000290: c684 c8bd 46e1 a5bd f078 b7bd 38cf 0ebe
000002a0: d080 a2bd cfa3 f9bd cd0d a1bd 8416 20be
000002b0: 945f 3bbd 7a87 b0bd 4903 11be 778f e0bd
000002c0: f8c0 8abd a4e5 e4bd a76f 77bd de0a babd
000002d0: a30a 4dbd da2b 80bd 6bb7 9bbd 434e 13be
000002e0: 4362 91bd f1fe debd 7f9d c4bd 6815 a6bd
000002f0: 0c39 87bd 7b1e 13bd d914 86bd b9c2 77bd
00000300: e753 b6bd 6014 16be 07a5 bcbd 966e 0dbe
00000310: a437 8bbd 0967 1abe 5ff6 bbbd 924d 06be
00000320: 85df e0bd 73b5 98bd 9b29 94bc 5614 02be
00000330: af0c d3bd 1d82 f3bd 1b46 87bd cec6 afbd
00000340: d436 b1bd 519a eabd 5f48 a0bd 7e68 a4bc
00000350: 7930 f3bd 6bc3 81bd 8ee9 afbd cb75 c7bd
00000360: 8c8b f2bd f29b b0bd cb19 b4bd 53b3 86bc
00000370: 610f a5bd 7d21 e6bd c97d f2bd bae9 afbd
00000380: ba94 e8bd f8d7 5fbd 9909 ccbd 24ec 0abe
00000390: b507 adbd 93ff e2bd d32e 43bd b076 9ebd
000003a0: f9ef 72bd f609 f7bd b2dc e6bd e8be 39bd
000003b0: db73 b0bd f925 bdbd 09a9 dabd 42ac d7bd
000003c0: f611 00be 98bd 9ebd b00d a3bd 80ad d1bd
000003d0: d17c bdbd 0100 eebd 8013 fdbd 75fd c3bd
000003e0: dfce a3bd c8b5 cdbd 32cb cfbd 2544 0abe
000003f0: 347b f0bd 601c e5bd a6ab e9bd a442 fdbd

fc2.weight f4 [300, 400]
-0.03563869 0.013454207 0.07392228 -0.039350495 0.065406114 0.0022471633 -0.070186205 0.04653921
-0.06277871 0.053235516 0.016674068 -0.052608564 -0.09268165 0.08727423 -0.03671251 -0.051804923
-0.06201215 0.005579907 -0.032996405 -0.0077903215 -0.0038934327 -0.009450136 0.023852589 0.066120885
0.10119496 0.044720396 0.046544734 -0.012296683 -0.058272377 -0.016971927 0.075018555 0.011680811
0.027824722 -0.05180307 -0.01082551 -0.0053307684 0.07438035 -0.039980195 0.085093796 0.02841718
0.06943861 -0.018842496 -0.045463696 0.082016796 0.110457465 0.024069216 0.037634283 0.0011568646
0.027519703 0.007316941 0.055575613 0.11632346 0.038230572 0.014959983 0.021100167 -0.02486043
0.0615272 0.07990145 0.007488258 -0.0039303713 0.04575841 -0.02606775 0.00014992306 0.03437334
-0.01042643 0.019597983 -0.009098499 0.035796795 0.032506045 0.17976242 0.10131852 0.033989895
-0.014861296 0.016222164 0.02060725 0.006077688 -0.015443697 -0.029391043 -0.042276494 -0.02857315
0.06785787 -0.1050393 0.041179214 -0.029276868 0.030945495 0.051175363 0.004814667 0.04875446
-0.04820196 0.005753829 0.0018101166 0.111770935 0.056707628 0.09484459 0.08127281 0.016337603
-0.052561462 -0.013836345 -0.016655095 -0.015994914 0.0637411 0.02612952 0.047526855 0.04554704
-0.00074421754 0.008026385 -0.0119033 0.040517405 -0.024115346 0.040848397 0.075840764 -0.0002397471
0.04360203 -0.017088119 -0.04761647 -0.0053996914 -0.074535914 -0.032214023 0.013505427 -0.02277002
0.005754555 0.04072684 0.07826937 0.01532858 0.032907154 0.012450112 0.046865486 -0.045025755
0.09641439 0.002058956 0.0055137505 -0.025417797 -0.01305103 0.013077523 0.036271967 0.03196764
0.037083942 -0.110419795 0.045954164 -0.036781523 -0.08970487 0.021133 -0.04659707 0.057450093
0.10220966 -0.007852488 0.052430313 0.0385044 -0.034891423 0.095967025 0.048834123 0.04874117
0.016875125 0.0060775755 -0.0244048 0.0027409133 0.030062051 -0.009470564 -0.037588384 0.06503953
-0.06116149 0.026664976 -0.042359598 0.009467428 0.04262222 -0.1079378 0.08290976 0.0112445485
0.058140915 -0.014062516 -0.02545732 0.047701303 -0.002104545 0.016166363 0.019127442 -0.0022363053
-0.04975038 -0.058551386 -0.0127916895 0.004455196 0.1460737 0.08726868 0.0051223226 -0.051014923
0.09053168 0.011365804 0.03760565 -0.023321245 0.027126402 -0.031384207 0.08565765 -0.015699519
0.036715947 -0.03784439 0.009931665 0.01266784 0.021357195 -0.053167745 0.06873233 -0.105431974
-0.010331871 0.045199566 -0.07450084 -0.028334117 -0.02052677 -0.044799037 0.024694905 0.022750944
-0.05267002 -0.064060934 0.07775112 0.077826515 0.04135605 0.006559976 0.05614863 -0.09592942
0.04209658 0.0168617 0.007079937 -0.03003139 -0.002038356 -0.060724918 0.018114725 -0.035570655
0.05164061 0.026083998 -0.13100533 0.01552566 0.014564466 0.0516187 0.078167975 -0.065123655
0.029834192 -0.0034428511 -0.024961831 -0.070838235 0.003883218 0.05608947 -0.011878465 -0.03403867
-0.0072819693 0.13114533 -0.03859005 0.0383463 0.046658132 0.010233443 0.004278949 0.1018571
-0.012078454 -0.049144905 -0.028710384 0.01887179 -0.04950198 0.0178527 0.040326092 0.037352387
00000000: e0f9 11bd 096f 5c3c 9064 973d fc2d 21bd
00000010: a4f3 853d 2545 133b c9bd 8fbd e69f 3e3d
00000020: 2092 80bd 7c0d 5a3d 0e98 883c 147c 57bd
00000030: e0cf bdbd d5bc b23d db5f 16bd 6631 54bd
00000040: 7400 7ebd a7d7 b63b 3d27 07bd f445 ffbb
00000050: f628 7fbb bed4 1abc 8166 c33c 636a 873d
00000060: 4e3f cf3d bc2c 373d b1a5 3e3d 0778 49bc
00000070: 04af 6ebd b608 8bbc 54a3 993d df60 3f3c
00000080: acf0 e33c 752f 54bd 7b5d 31bc baad aebb
00000090: ba54 983d 46c2 23bd a845 ae3d 25cb e83c
000000a0: d435 8e3d 945b 9abc 2438 3abd 6cf8 a73d
000000b0: 8637 e23d ce2c c53c 6826 1a3d efa1 973a
000000c0: 0071 e13c f3c2 ef3b 41a3 633d ff3a ee3d
000000d0: a997 1c3d b71a 753c 42da ac3c 1aa8 cbbc
000000e0: f203 7c3d 5fa3 a33d 1060 f53b 58ca 80bb
000000f0: 2c6d 3b3d 098c d5bc aa34 1d39 0fcb 0c3d
00000100: 9ed3 2abc f38b a03c df11 15bc a99f 123d
00000110: 0f25 053d a413 383e 1680 cf3d fd38 0b3d
00000120: cb7c 73bc 58e4 843c 89d0 a83c 5827 c73b
00000130: 8f07 7dbc 7cc5 f0bc 1e2a 2dbd 3d12 eabc
00000140: 11f9 8a3d d81e d7bd 89ab 283d 0bd6 efbc
00000150: 6881 fd3c 429d 513d 5bc4 9d3b c2b2 473d
00000160: 6b6f 45bd 9e8a bc3b 6f41 ed3a 29e8 e43d
00000170: 4246 683d e13d c23d 5c72 a63d 70d6 853c
00000180: b04a 57bd d6b1 62bc 4470 88bc c407 83bc
00000190: b28a 823d 930d d63c 85ab 423d 888f 3a3d
000001a0: 9817 43ba 1981 033c 0f06 43bc 94f5 253d
000001b0: 8c8d c5bc a650 273d 6752 9b3d 9f64 7bb9
000001c0: 0b98 323d 62fc 8bbc 7d09 43bd e5ef b0bb
000001d0: 49a6 98bd daf2 03bd de45 5d3c 3188 babc
000001e0: b590 bc3b 30d1 263d b14b a03d b924 7b3c
000001f0: a7c9 063d 8efb 4b3c 06f6 3f3d ed6c 38bd
00000200: e874 c53d 8def 063b b1ac b43b fc38 d0bc
00000210: fdd3 55bc 1b43 563c ea91 143d 80f0 023d
00000220: 55e5 173d c623 e2bd 6f3a 3c3d 39a8 16bd
00000230: 30b7 b7bd 1d1f ad3c 92dc 3ebd ca50 6b3d
00000240: 4c53 d13d b9a7 00bc 2bc1 563d cab6 1d3d
00000250: 4fea 0ebd 5c8a c43d 4a06 483d d2a4 473d
00000260: b43d 8a3c 6626 c73b 93ec c7bc e5a0 333b
00000270: b144 f63c 6d2a 1bbc 47f6 19bd 7233 853d
00000280: 7884 7abd 8270 da3c 4281 2dbd 451d 1b3c
00000290: a394 2e3d 7e0e ddbd 98cc a93d 0e3b 383c
000002a0: 2b25 6e3d 7866 66bc df8b d0bc 7162 433d
000002b0: 68ec 09bb 526f 843c 27b1 9c3c fa8e 12bb
000002c0: 0ec7 4bbd 94d3 6fbd 3c94 51bc e5fc 913b
000002d0: 5894 153e ecb9 b23d 28d9 a73b 06f5 50bd
000002e0: ac68 b93d a337 3a3c 6208 1a3d 320c bfbc
000002f0: 3038 de3c ba8c 00bd 476d af3d 479c 80bc
00000300: 7663 163d b802 1bbd 6cb8 223c c68c 4f3c
00000310: 49f5 ae3c 6cc6 59bd 89c3 8c3d b8ec d7bd
00000320: 0247 29bc 2e23 393d e593 98bd f31c e8bc
00000330: c227 a8bc 327f 37bd f84c ca3c 3060 ba3c
00000340: 85bc 57bd 6132 83bd fb3b 9f3d 8263 9f3d
00000350: f664 293d 11f5 d63b 1bfc 653d a576 c4bd
00000360: 776d 2c3d 8c21 8a3c d1fe e73b 6404 f6bc
00000370: f095 05bb b1ba 78bd 5565 943c 89b2 11bd
00000380: 1b85 533d 1cae d53c 4326 06be 565f 7e3c
00000390: cc9f 6e3c 216e 533d 8816 a03d 8d5f 85bd
000003a0: d666 f43c 75a1 61bb c17c ccbc a313 91bd
000003b0: 967d 7e3b 12be 653d e59d 42bc 226c 0bbd
000003c0: 969d eebb f64a 063e 9a10 1ebd 0311 1d3d
000003d0: 991c 3f3d 2caa 273c 6d36 8c3b 759a d03d
000003e0: b5e4 45bc 2b4c 49bd 0a32 ebbc 0399 9a3c
000003f0: 97c2 4abd d33f 923c f92c 253d d1fe 183d

fc2.bias f4 [300]
-0.016977359 0.039389227 0.05921898 -0.025547195 0.019756937 0.0011070687 0.075507365 -0.026802039
-0.019251013 -0.011377077 -0.03485525 0.016058663 0.069186784 0.011323282 0.047006626 0.03093847
-0.022236021 -0.022018975 0.03581727 -0.011660954 0.05075611 0.028431216 0.065028735 0.04709279
0.045864005 -0.008734167 -0.0144369695 0.053838447 0.009052157 -0.009279429 -0.004198557 -0.030845983
0.06487368 0.024075799 0.06698663 0.042731166 -0.0019360038 0.07339334 -0.03260145 -0.02879591
0.030630091 0.041682765 -0.01981929 -0.0003967665 -0.039455257 0.005793493 0.027830308 0.042031992
0.046787016 0.04234898 0.07696625 0.047234856 0.010572199 -0.037238557 0.038414393 -0.040122975
-0.012055261 0.05045579 0.011515215 0.04311562 0.036972824 0.033723135 0.044051465 -0.0070095323
0.03691468 -0.03276324 -7.683053e-05 0.012287162 0.05267261 0.06914798 0.066637516 -0.008690885
0.01426405 0.036779642 -0.015008927 0.0068592317 -0.030662248 -0.008176325 0.008287704 0.05210891
-0.03576752 -0.027726287 0.016988903 -0.0074238973 -0.013014055 0.060068756 -0.0070467247 -0.02446346
-0.023772417 -0.03176764 0.023560468 0.030050885 -0.036734696 0.053937804 -0.011397987 0.013280438
0.008765818 0.015274117 -0.003303674 0.024282759 -0.013420979 0.06885284 -0.018113287 0.057491455
0.040364727 0.058550723 0.027310874 -0.0046313023 0.036511756 0.012898403 0.029054377 -9.214477e-05
0.03185682 -0.03025794 -0.037260633 -0.018204212 -0.03212944 0.013395485 0.020370755 -0.01784683
0.0003807531 0.06921977 -0.043777365 -0.0020498002 0.0079465285 -0.02206132 0.058839682 0.007576431
0.003257947 -0.037214275 0.015981965 -0.00741904 -0.01618071 -0.038937647 0.024336478 0.045190804
-0.0043642647 -0.01924731 -0.03007953 0.03663651 0.04865822 0.035313413 0.047597717 -0.018453356
0.02326115 -0.028409502 0.06591595 0.009117816 0.028339108 -0.017426625 0.019339075 0.032144852
0.0033198486 0.052684534 0.020966336 -0.03749652 -0.021824248 0.051262718 0.002008021 0.015405278
0.024846902 -0.026902799 -0.03419498 -0.020281704 0.04650575 0.009895413 0.0043458785 0.026733017
0.0030606545 0.05685577 0.048487242 -0.01150478 0.04105851 0.047000002 0.0032031666 0.018051578
0.0016631383 -0.043771423 0.037314333 -0.0017319226 -0.008785074 -0.0076406263 0.048514824 0.042658884
-0.03718406 0.0065618893 0.03472748 0.052688386 -0.020415626 -0.0033940352 0.008252597 -0.043764904
0.045668013 -0.024305569 -0.005658608 0.02810837 0.0043051676 -0.018539682 -0.04528731 -0.036370505
0.034508694 0.044341765 0.050236717 0.01523575 0.06272535 0.038801674 0.014071932 0.012061049
-0.010809123 -0.00063112495 0.04891216 0.019986074 -0.031769153 -0.0018093472 0.056240443 0.07732958
0.015913824 0.06138448 0.028023476 0.030824518 -0.02929361 -0.017744252 0.035386022 -0.025944568
-0.025732858 -0.009795398 0.026043696 0.018594308 0.059688758 0.050893605 -0.025984904 0.07313211
-0.025237422 0.058879886 -0.035845827 -0.014956048 -0.0017228001 0.02702444 0.04939127 0.04834603
0.036624596 -0.013708969 -0.0011261026 -0.035588343 0.030474935 0.018199515 0.012286827 0.003444156
0.027950225 -0.015202939 -0.008007672 -0.00045307085 0.050889965 0.060103737 -0.028065091 -0.006703014
00000000: 1a14 8bbc 9956 213d 9a8f 723d 5a48 d1bc
00000010: 4dd9 a13c 101b 913a 9ba3 9a3d f38f dbbc
00000020: 4db4 9dbc eb66 3abc 61c4 0ebd 758d 833c
00000030: cdb1 8d3d 4985 393c 058a 403d ad72 fd3c
00000040: 5128 b6bc 2361 b4bc 21b5 123d 960d 3fbc
00000050: a4e5 4f3d 95e8 e83c c92d 853d 5fe4 403d
00000060: e5db 3b3d c019 0fbc 0a89 6cbc b485 5c3d
00000070: 804f 143c bf08 18bc 0d94 89bb b7b0 fcbc
00000080: 7edc 843d 9c3a c53c 4930 893d e006 2f3d
00000090: 82c1 fdba 3f4f 963d 1989 05bd 66e5 ebbc
000000a0: f5eb fa3c 8cbb 2a3d 105c a2bc 1905 d0b9
000000b0: d69b 21bd 57d7 bd3b 63fc e33c bd29 2c3d
000000c0: bea3 3f3d 2076 2d3d 7ba0 9d3d 5679 413d
000000d0: 0437 2d3c 7587 18bd 6958 1d3d fd57 24bd
000000e0: 6e83 45bc bbaa 4e3d 50aa 3c3c 019a 303d
000000f0: d170 173d 4521 0a3d 4f6f 343d 38b0 e5bb
00000100: d933 173d bf32 06bd 1420 a1b8 1850 493c
00000110: 3cbf 573d 759d 8d3d 4079 883d 3764 0ebc
00000120: c3b3 693c 40a6 163d 01e8 75bc 68c3 e03b
00000130: 652f fbbc fef5 05bc 26c9 073c 2770 553d
00000140: f780 12bd 3d22 e3bc 502c 8b3c 2a44 f3bb
00000150: e738 55bc a80a 763d 36e8 e6bb 9867 c8bc
00000160: 5fbe c2bc c91e 02bd e201 c13c 462d f63c
00000170: 1f77 16bd e3ed 5c3d 9fbe 3abc 3296 593c
00000180: 819e 0f3c 4a40 7a3c 7482 58bb a3ec c63c
00000190: aae3 5bbc b802 8d3d 5162 94bc 297c 6b3d
000001a0: 7c55 253d e2d2 6f3d 0ebb df3c 2ec2 97bb
000001b0: 5a8d 153d d353 533c 7203 ee3c d93d c1b8
000001c0: 4c7c 023d 80df f7bc 9b9e 18bd 0021 95bc
000001d0: 299a 03bd bc78 5b3c 92e0 a63c 8433 92bc
000001e0: d19f c739 18c3 8d3d e54f 33bd f155 06bb
000001f0: 2832 023c f1b9 b4bc e101 713d b643 f83b
00000200: 4883 553b ff6d 18bd 9cec 823c 6b1b f3bb
00000210: 698d 84bc 157d 1fbd 4b5d c73c fe19 393d
00000220: 1b02 8fbb 89ac 9dbc 5969 f6bc 2a10 163d
00000230: d74d 473d cca4 103d d3f5 423d 7e2b 97bc
00000240: 2b8e be3c 0bbb e8bc f1fe 863d e462 153c
00000250: 6b27 e83c 48c2 8ebc fb6c 9e3c 52aa 033d
00000260: d191 593b bdcb 573d 98c1 ab3c f395 19bd
00000270: c4c8 b2bc dbf8 513d 0199 033b 6b66 7c3c
00000280: bb8b cb3c 4263 dcbc 0910 0cbd d125 a6bc
00000290: d07c 3e3d 5f20 223c df67 8e3b 33ff da3c
000002a0: 4395 483b 99e1 683d 8f9a 463d 8b7e 3cbc
000002b0: f82c 283d 1383 403d 38ec 513b e7e0 933c
000002c0: a9fd d93a aa49 33bd ead6 183d ae01 e3ba
000002d0: 45ef 0fbc 385e fabb 7bb7 463d 15bb 2e3d
000002e0: 504e 18bd 1e05 d73b 673e 0e3d c7cf 573d
000002f0: ac3e a7bc 766e 5ebb e735 073c d442 33bd
00000300: 620e 3b3d 791c c7bc d86b b9bb 8643 e63c
00000310: 5d12 8d3b 88e0 97bc 307f 39bd 3df9 14bd
00000320: fd58 0d3d b69f 353d 04c5 4d3d 5e9f 793c
00000330: 2676 803d 81ee 1e3d f68d 663c b59b 453c
00000340: bf18 31bc 1472 25ba 1e58 483d d6b9 a33c
00000350: 5f20 02bd 9e27 edba 615c 663d f95e 9e3d
00000360: b55d 823c 4b6e 7b3d 7d91 e53c b383 fc3c
00000370: 27f9 efbc 655c 91bc eff0 103d b489 d4bc
00000380: b7cd d2bc e17c 20bc 9759 d53c 1753 983c
00000390: 337c 743d d075 503d 4bde d4bc 4ac6 953d
000003a0: b6be cebc 092c 713d 13d3 12bd 360a 75bc
000003b0: 94cf e1ba 5c62 dd3c 804e 4a3d 7d06 463d
000003c0: ac03 163d 959b 60bc bc99 93ba 15c5 11bd
000003d0: 92a6 f93c 2617 953c b04e 493c 59b7 613b
000003e0: dff7 e43c bf15 79bc 9c32 03bc 248a edb9
000003f0: ff71 503d 562f 763d c3e8 e5bc f5a4 dbbb

bn2.weight f4 [300]
1.4262741 1.354257 1.1972493 1.3123049 1.0917226 1.2160832 0.9515167 0.97523427
0.9999853 1.1861693 1.2037419 1.0761305 1.2934775 0.96685636 1.1445553 0.9224612
1.3229567 1.168919 1.1781937 1.2675513 1.2049986 1.0034541 0.9104154 1.3496516
0.8932176 1.3307014 1.3227525 1.491326 1.1280868 0.92122597 0.9975348 1.1005988
1.1540506 1.197464 0.9698949 0.93564725 1.4888631 0.8967808 1.2051777 1.0952702
1.2380172 1.2969916 1.1889384 0.98561126 1.1934154 1.0650622 1.2113917 1.4114157
0.98924345 0.98923254 0.9662088 1.0148178 1.0193037 1.1029556 1.199614 1.3427377
1.0844206 1.2144927 1.1363366 1.0566872 1.1845906 0.91020143 1.3874847 1.1293744
1.174062 1.2950773 1.151277 1.2399145 1.168403 0.99168515 0.8777287 1.0477384
1.154841 1.2823931 1.22865 1.1786014 0.9462031 1.1448833 1.1754471 1.0737536
1.4202718 1.0002095 1.1232595 1.2350377 1.1394994 1.0002081 1.2194654 0.9194798
0.9891548 1.1203367 1.0062715 1.2724702 1.1354095 1.1357148 1.2079864 1.1155814
1.4290944 0.990214 0.9628431 1.1745081 1.5143651 0.92300946 0.9742124 1.2530346
1.2277781 1.0339915 1.1714367 1.1135691 1.1651717 1.4103131 1.2680998 1.2598324
1.0420933 0.99309677 1.0448493 1.1769724 1.3511542 1.1734434 1.3175159 1.1953087
0.98541623 0.91452813 1.285623 1.3463546 1.189435 1.0757384 1.2185459 1.334723
1.0893928 1.0909469 1.1854043 1.0330172 1.014145 1.2781115 1.2727674 1.3887677
1.222428 1.3031332 1.1649753 1.3190144 1.1279284 1.2187624 1.0650736 1.4070123
1.2487242 1.1411974 1.2594974 1.2929353 0.9432516 1.0310056 1.1277509 1.1790984
1.4331704 0.9664659 1.3669198 1.3072429 0.982096 1.2215502 0.93987846 1.1079905
1.3731625 1.1505462 1.3967313 1.1710052 1.439757 1.1955835 1.364885 1.106984
0.93324965 1.0980487 1.0831212 1.3856217 1.2233095 1.3621974 1.0750002 1.4133795
0.92048126 1.2015008 1.3516672 1.401693 1.2933373 1.1553401 1.2802135 1.0132786
1.0799532 1.1508285 1.1418035 1.3437302 1.0161841 1.0253544 1.0967828 1.3963461
0.9644469 1.4077609 0.9869789 1.1054695 0.95665896 0.9308087 1.2805587 1.3708845
1.0204716 1.3038182 1.4971263 1.0715919 1.3041552 1.2802186 0.9207258 1.1608661
1.1099513 1.3208221 1.2366763 1.1498924 1.198041 1.0881878 1.1170107 1.0234439
1.3165269 1.0945324 0.9569096 1.0554892 0.95156527 1.3469718 1.1443747 1.0180725
1.0613092 0.8782868 1.1096376 1.1950252 0.8997736 1.406777 1.1286744 1.0102983
1.1186169 1.2512844 1.024297 0.97656745 1.0999674 1.1897894 0.9138721 1.243115
1.3426583 0.9798458 1.3370451 1.2911007 1.2793106 1.3270991 1.0003377 1.0681068
1.0858675 1.1818489 1.0892981 1.2800442 1.00121 0.9360085 1.3029709 1.176048
00000000: 2690 b63f 4b58 ad3f 773f 993f 9bf9 a73f
00000010: 91bd 8b3f 9da8 9b3f 9996 733f f4a8 793f
00000020: 09ff 7f3f 65d4 973f 3714 9a3f a5be 893f
00000030: ac90 a53f e683 773f ca80 923f 6b26 6c3f
00000040: a556 a93f 239f 953f 0dcf 963f 1f3f a23f
00000050: 653d 9a3f 2f71 803f fc10 693f 62c1 ac3f
00000060: e9a9 643f 6c54 aa3f f44f a93f c5e3 be3f
00000070: 2665 903f 77d5 6b3f 715e 7f3f 6ce0 8c3f
00000080: eeb7 933f 8046 993f 084b 783f 9486 6f3f
00000090: 1193 be3f 6d93 653f 4343 9a3f d031 8c3f
000000a0: 5977 9e3f d203 a63f 222f 983f 0551 7c3f
000000b0: d6c1 983f f553 883f e20e 9b3f 45a9 b43f
000000c0: 0f3f 7d3f 583e 7d3f 7659 773f 8de5 813f
000000d0: 8b78 823f a62d 8d3f f48c 993f d4de ab3f
000000e0: 4bce 8a3f 7f74 9b3f 7a73 913f 8741 873f
000000f0: aaa0 973f f602 693f 1999 b13f 578f 903f
00000100: aa47 963f 18c5 a53f 0b5d 933f 85b5 9e3f
00000110: 3b8e 953f 14df 7d3f d4b2 603f 4b1c 863f
00000120: d4d1 933f 7525 a43f 6744 9d3f 69dc 963f
00000130: 5e3a 723f 898b 923f 0d75 963f c270 893f
00000140: 77cb b53f dd06 803f f8c6 8f3f b715 9e3f
00000150: 1edb 913f d206 803f 7117 9c3f 0763 6b3f
00000160: 4039 7d3f 3167 8f3f 81cd 803f 4ee0 a23f
00000170: 1955 913f 1a5f 913f 4c9f 9a3f 5fcb 8e3f
00000180: 91ec b63f aa7e 7d3f e37c 763f 4856 963f
00000190: b7d6 c13f 594a 6c3f fc65 793f 7063 a03f
000001a0: d527 9d3f d559 843f a3f1 953f 6f89 8e3f
000001b0: 5924 953f 2485 b43f 1851 a23f 3042 a13f
000001c0: 5063 853f 973b 7e3f 9fbd 853f 08a7 963f
000001d0: 9ff2 ac3f 6533 963f 5ca4 a83f e0ff 983f
000001e0: 3d44 7c3f 841e 6a3f 4b8f a43f 5955 ac3f
000001f0: 683f 983f ccb1 893f 50f9 9b3f 34d8 aa3f
00000200: 3971 8b3f 26a4 8b3f 54bb 973f e839 843f
00000210: 81cf 813f 2899 a33f 0bea a23f 24c3 b13f
00000220: 8578 9c3f 12cd a63f e91d 953f 77d5 a83f
00000230: f55f 903f 6800 9c3f 5554 883f fb18 b43f
00000240: 32d6 9f3f c212 923f 3637 a13f e77e a53f
00000250: f078 713f fef7 833f 245a 903f b2ec 963f
00000260: 2172 b73f 4f6a 773f 3af7 ae3f bc53 a73f
00000270: a56a 7b3f c25b 9c3f e09b 703f a2d2 8d3f
00000280: cac3 af3f 1945 933f 17c8 b23f 80e3 953f
00000290: f549 b83f e108 993f 8db4 ae3f a7b1 8d3f
000002a0: 73e9 6e3f dc8c 8c3f b7a3 8a3f 0d5c b13f
000002b0: 6895 9c3f 7c5c ae3f 9b99 893f 9fe9 b43f
000002c0: a9a4 6b3f c7ca 993f 6e03 ad3f ad6a b33f
000002d0: 148c a53f 2fe2 933f 09de a33f 1db3 813f
000002e0: e83b 8a3f 594e 933f 9e26 923f 5aff ab3f
000002f0: 5212 823f d03e 833f 6163 8c3f 78bb b23f
00000300: fee5 763f 8231 b43f a6aa 7c3f 0680 8d3f
00000310: 9ae7 743f 7b49 6e3f 59e9 a33f 2579 af3f
00000320: d09e 823f 84e3 a63f d6a1 bf3f ec29 893f
00000330: 8fee a63f 34de a33f b0b4 6b3f 4397 943f
00000340: e212 8e3f b310 a93f 694b 9e3f ad2f 933f
00000350: 6859 993f bd49 8b3f 35fa 8e3f 3600 833f
00000360: f483 a83f a319 8c3f 07f8 743f 451a 873f
00000370: c899 733f 9269 ac3f df7a 923f 3350 823f
00000380: fbd8 873f 67d7 603f 9b08 8e3f 96f6 983f
00000390: 9057 663f 4511 b43f 6778 903f 7451 813f
000003a0: d72e 8f3f 162a a03f 2a1c 833f 5300 7a3f
000003b0: bbcb 8c3f 054b 983f 86f3 693f 641e 9f3f
000003c0: 3adc ab3f 2dd7 7a3f 4b24 ab3f ca42 a53f
000003d0: 73c0 a33f 62de a93f 110b 803f b9b7 883f
000003e0: b5fd 8a3f d346 973f 1f6e 8b3f 7dd8 a33f
000003f0: a627 803f 419e 6f3f c0c7 a63f be88 963f

bn2.bias f4 [300]
0.023746448 -0.0048343875 -0.1123721 -0.023516938 -0.0068141907 -0.0059350454 -0.07902965 0.023955008
-0.026300538 -0.009271718 0.038319774 -0.04651524 0.06531868 -0.016790822 -0.0071924767 -0.040596608
0.027892511 0.04590268 -0.056757294 0.024514467 0.008353227 -0.06061945 -0.07422756 -0.01192477
-0.06679383 0.011066836 0.026728462 -0.0014208175 0.008492848 -0.013028944 0.0058853985 -0.010374565
0.03532628 0.008514319 0.015330325 -0.08156475 -0.023185274 -0.0064598764 -0.016299607 0.033627596
0.01022961 0.058209162 0.025321675 0.0087132 0.009115476 0.014723018 0.045550875 -0.0027982653
-0.056348093 -0.024906341 -0.026630698 0.0559817 -0.000850285 0.012817267 0.014683984 -0.023956956
-0.023173776 0.023270076 -0.016169136 -0.010564493 -0.035297155 -0.020998308 0.009787783 0.002416826
0.009125737 0.0655854 0.037806917 0.0046419376 -0.02749878 0.015865406 -0.029116442 -0.015807329
-0.00816493 0.017870646 -0.009456891 -0.032621555 -0.021540608 0.018805282 0.0026505592 -0.036387295
0.041350733 -0.051739804 -0.04351744 -0.017667545 -0.009790684 -0.05635918 0.045574713 -0.00054206303
-0.04025827 0.013386513 -0.0061467355 -0.005102143 -0.030687634 0.019524919 0.038339954 -0.00071204134
0.0060257176 0.01479575 0.035069376 0.0023906233 -0.045620423 -0.035429403 0.03876163 0.003558464
0.0035941943 -0.020182714 -0.025902614 -0.0011729391 -0.024627808 0.003946176 0.05192534 0.045187037
0.043153025 -0.006575475 0.012586521 0.038220927 0.06591833 0.044754438 0.0025752746 0.030144202
-0.008365428 -0.049763408 -0.003955315 -0.0010326293 0.018304365 0.008104574 0.022147136 0.011194512
0.0055262884 -0.0004939225 0.03541877 -0.021982092 0.030974247 0.03467118 0.026196364 0.002352642
0.032208003 -0.050742336 0.05514628 -0.062428642 -0.015838102 0.02590401 -0.039626066 0.053786196
0.028971035 0.035895206 0.020014666 -0.006617606 0.0019347297 -0.04846514 0.0062187267 0.01887739
-0.027110033 -0.005785102 0.024705341 -0.0023350487 -0.05244518 0.053619593 0.014718468 -0.0127857
0.022115897 -0.013465821 -0.015166088 0.008466902 -0.051026493 -0.049597766 0.027114749 -0.029250689
-0.0058722664 -0.012807325 -0.014227231 -0.006897807 0.0024092116 -0.055280473 -0.025571462 -0.038281616
-0.06709321 -0.0020192799 0.09304515 0.0014645435 0.07678899 -0.016296554 0.01000451 0.025634876
0.009567401 -0.037875034 -0.009034664 0.03803573 0.016371619 -0.028059045 -0.009684439 -0.078691095
0.019460384 0.0106168715 0.039756186 0.043112144 0.024909697 -0.0008850379 -0.017771063 -0.037600785
0.024170926 -0.01945158 0.041628048 -0.027330516 0.010767423 0.002904044 -0.051572062 0.05538106
-0.019915774 0.016764717 -0.018531434 0.019613376 -0.0050032698 0.03682531 -0.058491345 0.008778484
-0.016620865 -0.039600864 0.02188284 0.05046851 -0.06253947 -0.038588542 -0.0011957679 -0.04667128
0.0026112588 -0.06354103 -0.023308804 0.018368118 -0.05597583 0.025627336 0.022325821 0.0033540805
0.067976534 0.0318412 -0.015891997 -0.019802678 -0.012377023 0.038717777 -0.04408464 0.06957604
0.02680948 0.005216099 0.022825575 -0.0035184938 -0.023304157 0.034571663 -0.024958497 -0.011505412
-0.0017820188 -0.056436982 -0.01981257 0.05764469 -0.021595305 0.01064464 0.044146806 -0.0035958402
00000000: e987 c23c c869 9ebb 5823 e6bd 98a6 c0bc
00000010: 9349 dfbb c57a c2bb 4cda a1bd 4b3d c43c
00000020: 3a74 d7bc 67e8 17bc 32f5 1c3d c486 3ebd
00000030: cdc5 853d e88c 89bc deae ebbb a148 26bd
00000040: d67e e43c 7304 3c3d 567a 68bd 90d2 c83c
00000050: f9db 083c 1a4c 78bd 9e04 98bd 1c60 43bc
00000060: 34cb 88bd ad51 353c a6f5 da3c b93a baba
00000070: 9625 0b3c 5a77 55bc 4dda c03b 14fa 29bc
00000080: 4ab2 103d a47f 0b3c 0b2c 7b3c 6b0b a7bd
00000090: 0bef bdbc 5fad d3bb c186 85bc 17bd 093d
000000a0: 189a 273c bb6c 6e3d 676f cf3c cfc1 0e3c
000000b0: 1459 153c d038 713c 8e93 3a3d 1a63 37bb
000000c0: 42cd 66bd 6208 ccbc 9f28 dabc 114d 653d
000000d0: a9e5 5eba 84ff 513c 1895 703c 6141 c4bc
000000e0: eed6 bdbc e3a0 be3c 2375 84bc b216 2dbc
000000f0: c093 10bd a504 acbc f05c 203c 9d63 1e3b
00000100: 1d84 153c a351 863d 6ddb 1a3d 651b 983b
00000110: 1f45 e1bc 2bf8 813c 9b85 eebc 5f7e 81bc
00000120: 33c6 05bc 7665 923c 13f1 1abc 2e9e 05bd
00000130: ee75 b0bc 890d 9a3c 01b5 2d3b d80a 15bd
00000140: 635f 293d 1eed 53bd 583f 32bd 87bb 90bc
00000150: 1b69 20bc e2d8 66bd 8dac 3a3d 3c19 0eba
00000160: dbe5 24bd 1b53 5b3c 8e6a c9bb e12f a7bb
00000170: a264 fbbc b9f2 9f3c 5b0a 1d3d 49a8 3aba
00000180: 6273 c53b e069 723c e8a4 0f3d 01ac 1c3b
00000190: 7bdc 3abd 6c1e 11bd 84c4 1e3d 1f35 693b
000001a0: 938c 6b3b 3856 a5bc b831 d4bc 4ebd 99ba
000001b0: 42c0 c9bc ec4e 813b aaaf 543d 0b16 393d
000001c0: 3ac1 303d 1577 d7bb b237 4e3c 8c8d 1c3d
000001d0: 3000 873d 6e50 373d f0c5 283b f9f0 f63c
000001e0: 260f 09bc b7d4 4bbd 969b 81bb 4a59 87ba
000001f0: 09f3 953c 0cc9 043c e96d b53c 3069 373c
00000200: de15 b53b 947a 01ba 4613 113d ca13 b4bc
00000210: b4bd fd3c 5e03 0e3d c299 d63c c82e 1a3b
00000220: 8aec 033d 32d7 4fbd 11e1 613d 2db5 7fbd
00000230: e8be 81bc a534 d43c f14e 22bd ea4e 5c3d
00000240: aa54 ed3c da06 133d ccf5 a33c 81d8 d8bb
00000250: c296 fd3a 6283 46bd 76c6 cb3b c2a4 9a3c
00000260: dc15 debc f490 bdbb db62 ca3c 9e07 19bb
00000270: c2d0 56bd 38a0 5b3d bb25 713c 1d7b 51bc
00000280: 662c b53c bf9f 5cbc 2f7b 78bc c3b8 0a3c
00000290: 2801 51bd 0727 4bbd c01f de3c 249f efbc
000002a0: 246c c0bb d1d5 51bc 5519 69bc 0007 e2bb
000002b0: dde3 1d3b c76d 62bd 3e7b d1bc 2fcd 1cbd
000002c0: 2a68 89bd e555 04bb 758e be3d edf5 bf3a
000002d0: 8c43 9d3d 5a80 85bc f5e9 233c 3b00 d23c
000002e0: 97c0 1c3c da22 1bbd 2106 14bc 5bcb 1b3d
000002f0: c61d 863c 15dc e5bc 7bab 1ebc cc28 a1bd
00000300: 626b 9f3c 63f2 2d3c 62d7 223d 5c96 303d
00000310: 6c0f cc3c e301 68ba 9f94 91bc 4803 1abd
00000320: 1b02 c63c eb58 9fbc 2c82 2a3d 3fe4 dfbc
00000330: d869 303c c651 3e3b 3a3d 53bd 40d7 623d
00000340: 6826 a3bc 2956 893c 3ccf 97bc 3bac a03c
00000350: 78f2 a3bb 23d6 163d 9f94 6fbd a1d3 0f3c
00000360: 7b28 88bc 8434 22bd a443 b33c 11b8 4e3d
00000370: b214 80bd 050f 1ebd 50bb 9cba 622a 3fbd
00000380: a721 2b3b cd21 82bd 1bf2 bebc bc78 963c
00000390: e946 65bd 6bf0 d13c a4e4 b63c 22d0 5b3b
000003a0: 4837 8b3d eb6b 023d ef2f 82bc 3a39 a2bc
000003b0: ffc8 4abc 8896 1e3d 1892 34bd e27d 8e3d
000003c0: 8e9f db3c cfeb aa3b b3fc ba3c 8896 66bb
000003d0: 5ce8 bebc 049b 0d3d c375 ccbc 3281 3cbc
000003e0: a192 e9ba 772a 67bd f94d a2bc d71c 6c3d
000003f0: a3e8 b0bc db66 2e3c 48d3 343d 30a8 6bbb
